pt-br/models/ei_sexta.tflite (tflite, 75568 bytes, 18 tensors)

tfl.pseudo_qconst1 i1 [1, 1088] scale=0.0016018738 zero_point=0
0	0x15	0.03363935
1	0xcc	-0.08329744
2	0xdf	-0.052861836
3	0xf3	-0.02082436
4	0xcc	-0.08329744
5	0xb7	-0.11693679
6	0xdf	-0.052861836
7	0xb7	-0.11693679
8	0xee	-0.028833728
9	0xcb	-0.084899314
10	0xfa	-0.009611242
11	0xde	-0.054463707
12	0x17	0.0368431
13	0x07	0.011213116
14	0xce	-0.08009369
15	0xc8	-0.08970493
16	0xf9	-0.011213116
17	0xf6	-0.016018737
18	0xa1	-0.152178
19	0xbc	-0.108927414
20	0xea	-0.035241224
21	0xbe	-0.10572367
22	0x0d	0.02082436
23	0xe0	-0.05125996
24	0xbf	-0.1041218
25	0x83	-0.20023422
26	0xd1	-0.075288065
27	0xf7	-0.014416864
28	0xc1	-0.10091805
29	0x00	0.0
30	0x02	0.0032037476
31	0xb2	-0.124946155
32	0xd3	-0.07208432
33	0xb0	-0.1281499
34	0xde	-0.054463707
35	0x03	0.004805621
36	0xa0	-0.15377988
37	0xd4	-0.07048245
38	0x99	-0.164993
39	0xd4	-0.07048245
40	0x9b	-0.16178925
41	0xe0	-0.05125996
42	0xdf	-0.052861836
43	0x0d	0.02082436
44	0xf2	-0.022426233
45	0x01	0.0016018738
46	0x07	0.011213116
47	0x04	0.006407495
48	0xfe	-0.0032037476
49	0xf6	-0.016018737
50	0x18	0.03844497
51	0x11	0.027231853
52	0xbb	-0.11052929
53	0xfc	-0.006407495
54	0xc5	-0.094510555
55	0x22	0.054463707
56	0xfe	-0.0032037476
57	0xe2	-0.048056215
58	0xf1	-0.024028108
59	0xd5	-0.06888057
60	0x0c	0.019222485
61	0xaf	-0.12975177
62	0xe5	-0.04325059
63	0xf3	-0.02082436
64	0xe6	-0.04164872
65	0xca	-0.08650118
66	0x05	0.008009369
67	0x0e	0.022426233
68	0xda	-0.060871202
69	0xb9	-0.11373304
70	0x15	0.03363935
71	0x93	-0.17460424
72	0xe9	-0.0368431
73	0xfc	-0.006407495
74	0xc1	-0.10091805
75	0xd2	-0.0736862
76	0x01	0.0016018738
77	0xdd	-0.05606558
78	0xf4	-0.019222485
79	0xcd	-0.081695564
80	0xfa	-0.009611242
81	0xf7	-0.014416864
82	0x9e	-0.15698363
83	0xf0	-0.02562998
84	0xee	-0.028833728
85	0x9c	-0.16018738
86	0xe9	-0.0368431
87	0xae	-0.13135365
88	0x17	0.0368431
89	0xba	-0.11213116
90	0xd8	-0.06407495
91	0xe3	-0.04645434
92	0xea	-0.035241224
93	0xf9	-0.011213116
94	0xec	-0.032037474
95	0xca	-0.08650118
96	0x26	0.060871202
97	0xc0	-0.10251992
98	0x1e	0.048056215
99	0xd7	-0.06567682
100	0xce	-0.08009369
101	0x06	0.009611242
102	0x9d	-0.1585855
103	0xcf	-0.078491814
104	0xbd	-0.10732555
105	0xd4	-0.07048245
106	0xdb	-0.05926933
107	0xc2	-0.09931617
108	0xd3	-0.07208432
109	0x12	0.028833728
110	0x12	0.028833728
111	0xc9	-0.088103056
112	0xf3	-0.02082436
113	0xe7	-0.040046845
114	0x14	0.032037474
115	0x04	0.006407495
116	0xe1	-0.049658086
117	0xd3	-0.07208432
118	0xc9	-0.088103056
119	0x0e	0.022426233
120	0xe6	-0.04164872
121	0x18	0.03844497
122	0xf4	-0.019222485
123	0xf9	-0.011213116
124	0x00	0.0
125	0xfd	-0.004805621
126	0xcd	-0.081695564
127	0x11	0.027231853
128	0x0f	0.024028108
129	0xc6	-0.09290868
130	0xff	-0.0016018738
131	0xb6	-0.11853866
132	0x1a	0.04164872
133	0xdb	-0.05926933
134	0x1d	0.04645434
135	0xdf	-0.052861836
136	0xfb	-0.008009369
137	0x1c	0.044852465
138	0xe1	-0.049658086
139	0x1d	0.04645434
140	0xe0	-0.05125996
141	0xd3	-0.07208432
142	0xe1	-0.049658086
143	0xe3	-0.04645434
144	0xf2	-0.022426233
145	0xb3	-0.12334428
146	0xb1	-0.12654802
147	0xbe	-0.10572367
148	0x00	0.0
149	0xe6	-0.04164872
150	0xf7	-0.014416864
151	0xbb	-0.11052929
152	0x15	0.03363935
153	0xa9	-0.13936302
154	0xdc	-0.057667457
155	0x20	0.05125996
156	0xe0	-0.05125996
157	0x0a	0.016018737
158	0xc4	-0.09611243
159	0xcc	-0.08329744
160	0xfd	-0.004805621
161	0x09	0.014416864
162	0x02	0.0032037476
163	0xf3	-0.02082436
164	0xcd	-0.081695564
165	0xf4	-0.019222485
166	0xec	-0.032037474
167	0xcb	-0.084899314
168	0xc0	-0.10251992
169	0xff	-0.0016018738
170	0x03	0.004805621
171	0xda	-0.060871202
172	0x00	0.0
173	0x0b	0.017620612
174	0x02	0.0032037476
175	0xca	-0.08650118
176	0x0c	0.019222485
177	0x01	0.0016018738
178	0x1c	0.044852465
179	0xd0	-0.07688994
180	0x0f	0.024028108
181	0xf6	-0.016018737
182	0xc1	-0.10091805
183	0x0b	0.017620612
184	0xe0	-0.05125996
185	0x0c	0.019222485
186	0x01	0.0016018738
187	0x0b	0.017620612
188	0xf1	-0.024028108
189	0xdb	-0.05926933
190	0xc9	-0.088103056
191	0xd6	-0.0672787
192	0x0e	0.022426233
193	0xe3	-0.04645434
194	0x1d	0.04645434
195	0xc5	-0.094510555
196	0xe5	-0.04325059
197	0x1c	0.044852465
198	0xf5	-0.017620612
199	0xd3	-0.07208432
200	0xe1	-0.049658086
201	0x02	0.0032037476
202	0xd3	-0.07208432
203	0xca	-0.08650118
204	0x0f	0.024028108
205	0xf0	-0.02562998
206	0xe8	-0.03844497
207	0x2d	0.07208432
208	0xf6	-0.016018737
209	0xd9	-0.062473077
210	0xe7	-0.040046845
211	0x24	0.057667457
212	0x1b	0.04325059
213	0xf4	-0.019222485
214	0xd2	-0.0736862
215	0xd9	-0.062473077
216	0x0b	0.017620612
217	0xf5	-0.017620612
218	0xc8	-0.08970493
219	0xfa	-0.009611242
220	0xd3	-0.07208432
221	0xfd	-0.004805621
222	0xbc	-0.108927414
223	0xee	-0.028833728
224	0x04	0.006407495
225	0x01	0.0016018738
226	0x13	0.030435601
227	0xb4	-0.121742405
228	0x0c	0.019222485
229	0xe2	-0.048056215
230	0xee	-0.028833728
231	0xd0	-0.07688994
232	0x08	0.01281499
233	0xc5	-0.094510555
234	0xf7	-0.014416864
235	0xe2	-0.048056215
236	0x13	0.030435601
237	0xeb	-0.03363935
238	0xb6	-0.11853866
239	0xe9	-0.0368431
240	0xf3	-0.02082436
241	0xd0	-0.07688994
242	0xde	-0.054463707
243	0xf9	-0.011213116
244	0xee	-0.028833728
245	0xcf	-0.078491814
246	0xba	-0.11213116
247	0xd7	-0.06567682
248	0xed	-0.030435601
249	0xde	-0.054463707
250	0xdf	-0.052861836
251	0xc3	-0.0977143
252	0xcc	-0.08329744
253	0x1a	0.04164872
254	0xe2	-0.048056215
255	0xe5	-0.04325059

tfl.pseudo_qconst3 i1 [64, 1, 1, 64]
0	0x4b	75
1	0xa3	-93
2	0xfe	-2
3	0x0b	11
4	0xfd	-3
5	0x9c	-100
6	0x81	-127
7	0xac	-84
8	0x14	20
9	0xef	-17
10	0x18	24
11	0xee	-18
12	0xdd	-35
13	0x95	-107
14	0x48	72
15	0x16	22
16	0xd2	-46
17	0xdb	-37
18	0x2d	45
19	0xe2	-30
20	0xb0	-80
21	0x78	120
22	0x43	67
23	0x19	25
24	0xf2	-14
25	0x25	37
26	0x2d	45
27	0x2b	43
28	0xd2	-46
29	0xa9	-87
30	0xf1	-15
31	0x0d	13
32	0xca	-54
33	0xf2	-14
34	0x29	41
35	0xfb	-5
36	0x85	-123
37	0x8f	-113
38	0x0f	15
39	0xff	-1
40	0xea	-22
41	0x28	40
42	0xb7	-73
43	0xd7	-41
44	0x16	22
45	0x3e	62
46	0xa4	-92
47	0xd5	-43
48	0xe2	-30
49	0xf3	-13
50	0xc8	-56
51	0x10	16
52	0x1a	26
53	0xd2	-46
54	0xc6	-58
55	0xe9	-23
56	0xf0	-16
57	0x8a	-118
58	0xef	-17
59	0xf0	-16
60	0x37	55
61	0xad	-83
62	0x57	87
63	0xf6	-10
64	0xaa	-86
65	0xd1	-47
66	0x2d	45
67	0x24	36
68	0xae	-82
69	0xf3	-13
70	0xc4	-60
71	0xda	-38
72	0x68	104
73	0x36	54
74	0x42	66
75	0x10	16
76	0x01	1
77	0xee	-18
78	0xfc	-4
79	0xfa	-6
80	0xd7	-41
81	0x39	57
82	0x2f	47
83	0x12	18
84	0xd7	-41
85	0x0b	11
86	0xb9	-71
87	0x55	85
88	0x5e	94
89	0xb4	-76
90	0x10	16
91	0x01	1
92	0x7f	127
93	0x3d	61
94	0x11	17
95	0x0e	14
96	0xc8	-56
97	0xe4	-28
98	0xfe	-2
99	0xbb	-69
100	0x12	18
101	0x21	33
102	0x3c	60
103	0xe5	-27
104	0xc6	-58
105	0x20	32
106	0x11	17
107	0xe9	-23
108	0x1d	29
109	0x1f	31
110	0x3f	63
111	0xd0	-48
112	0x02	2
113	0xc2	-62
114	0xc4	-60
115	0x56	86
116	0xf3	-13
117	0xb5	-75
118	0xf0	-16
119	0x09	9
120	0x36	54
121	0x23	35
122	0x11	17
123	0x16	22
124	0xa1	-95
125	0xe4	-28
126	0x08	8
127	0xfc	-4
128	0xc1	-63
129	0x1f	31
130	0xb1	-79
131	0xd2	-46
132	0xa6	-90
133	0x22	34
134	0x2d	45
135	0x44	68
136	0xc8	-56
137	0x60	96
138	0x2a	42
139	0xf8	-8
140	0xd0	-48
141	0x9f	-97
142	0x25	37
143	0x12	18
144	0xc6	-58
145	0xca	-54
146	0xf9	-7
147	0x3b	59
148	0xc6	-58
149	0xf6	-10
150	0xf6	-10
151	0xd2	-46
152	0x3e	62
153	0x00	0
154	0x26	38
155	0xda	-38
156	0x94	-108
157	0xeb	-21
158	0x2b	43
159	0x22	34
160	0x10	16
161	0x48	72
162	0x40	64
163	0xcf	-49
164	0x2b	43
165	0xdb	-37
166	0x05	5
167	0x1a	26
168	0x2c	44
169	0x36	54
170	0xb6	-74
171	0xcb	-53
172	0xf9	-7
173	0x31	49
174	0x54	84
175	0xd3	-45
176	0xe2	-30
177	0xc4	-60
178	0x22	34
179	0x1b	27
180	0x10	16
181	0x7f	127
182	0xbc	-68
183	0xce	-50
184	0x41	65
185	0x42	66
186	0xc3	-61
187	0x0a	10
188	0x9a	-102
189	0x0e	14
190	0x1f	31
191	0xe5	-27
192	0xd9	-39
193	0x45	69
194	0x27	39
195	0xaf	-81
196	0x35	53
197	0x24	36
198	0x57	87
199	0xcd	-51
200	0xe7	-25
201	0x04	4
202	0xc8	-56
203	0xaa	-86
204	0x40	64
205	0x2d	45
206	0xd1	-47
207	0xf5	-11
208	0xb9	-71
209	0x0f	15
210	0x34	52
211	0xaa	-86
212	0x4d	77
213	0x37	55
214	0xdd	-35
215	0x46	70
216	0xda	-38
217	0x02	2
218	0x92	-110
219	0x27	39
220	0x6f	111
221	0x41	65
222	0xc8	-56
223	0x2d	45
224	0x43	67
225	0x48	72
226	0x03	3
227	0xb5	-75
228	0xf5	-11
229	0x57	87
230	0xc7	-57
231	0xde	-34
232	0x0c	12
233	0x7f	127
234	0x20	32
235	0xc1	-63
236	0xc5	-59
237	0xf1	-15
238	0xfc	-4
239	0xc8	-56
240	0x00	0
241	0xea	-22
242	0xaf	-81
243	0x52	82
244	0xc2	-62
245	0xf9	-7
246	0x5e	94
247	0x05	5
248	0xdc	-36
249	0xc4	-60
250	0xeb	-21
251	0x97	-105
252	0x9e	-98
253	0xe4	-28
254	0xe6	-26
255	0x29	41

tfl.pseudo_qconst5 i1 [1, 23, 1, 64]
0	0x31	49
1	0xc6	-58
2	0x4b	75
3	0xfc	-4
4	0x9f	-97
5	0x87	-121
6	0xb3	-77
7	0x81	-127
8	0x22	34
9	0x68	104
10	0x8a	-118
11	0x04	4
12	0xfa	-6
13	0xde	-34
14	0x00	0
15	0x7f	127
16	0xc0	-64
17	0xd2	-46
18	0xc6	-58
19	0x20	32
20	0x81	-127
21	0x55	85
22	0xad	-83
23	0x7f	127
24	0xf5	-11
25	0x0c	12
26	0x81	-127
27	0xf0	-16
28	0x50	80
29	0x67	103
30	0xa4	-92
31	0x81	-127
32	0xb1	-79
33	0xea	-22
34	0x15	21
35	0x7f	127
36	0xfb	-5
37	0x9d	-99
38	0x81	-127
39	0x7f	127
40	0xea	-22
41	0x81	-127
42	0xf0	-16
43	0x81	-127
44	0x3c	60
45	0x4f	79
46	0xc5	-59
47	0x20	32
48	0xab	-85
49	0xf5	-11
50	0x1b	27
51	0x7f	127
52	0x13	19
53	0xf8	-8
54	0x3f	63
55	0x7f	127
56	0x62	98
57	0x04	4
58	0x58	88
59	0xe4	-28
60	0x75	117
61	0x7f	127
62	0x39	57
63	0xd5	-43
64	0xcd	-51
65	0x81	-127
66	0x12	18
67	0xdd	-35
68	0x9c	-100
69	0x86	-122
70	0xca	-54
71	0xfd	-3
72	0x31	49
73	0xff	-1
74	0xf7	-9
75	0xb4	-76
76	0x8c	-116
77	0xfc	-4
78	0xc5	-59
79	0x53	83
80	0xab	-85
81	0x2a	42
82	0xee	-18
83	0x26	38
84	0x93	-109
85	0x3a	58
86	0xbf	-65
87	0x65	101
88	0x1a	26
89	0x13	19
90	0xab	-85
91	0x27	39
92	0x3c	60
93	0x7f	127
94	0xc4	-60
95	0xf1	-15
96	0xdf	-33
97	0x0e	14
98	0xd7	-41
99	0x60	96
100	0xbc	-68
101	0xca	-54
102	0x94	-108
103	0x3a	58
104	0xa5	-91
105	0xcf	-49
106	0xec	-20
107	0x9e	-98
108	0x50	80
109	0x32	50
110	0xfe	-2
111	0xf6	-10
112	0xc1	-63
113	0xec	-20
114	0x03	3
115	0x77	119
116	0x27	39
117	0x10	16
118	0x1f	31
119	0x1f	31
120	0x7f	127
121	0x03	3
122	0x18	24
123	0xc8	-56
124	0x7d	125
125	0x41	65
126	0x40	64
127	0xfc	-4
128	0xd7	-41
129	0xc9	-55
130	0x27	39
131	0xd7	-41
132	0x42	66
133	0xaf	-81
134	0x81	-127
135	0x0d	13
136	0x65	101
137	0x11	17
138	0x8f	-113
139	0xd5	-43
140	0xf8	-8
141	0xf3	-13
142	0x19	25
143	0x3c	60
144	0xef	-17
145	0x3b	59
146	0xb7	-73
147	0xb1	-79
148	0xc5	-59
149	0x4c	76
150	0x10	16
151	0x61	97
152	0x42	66
153	0x42	66
154	0xcb	-53
155	0xc6	-58
156	0x1a	26
157	0xea	-22
158	0x91	-111
159	0xef	-17
160	0x32	50
161	0xee	-18
162	0xec	-20
163	0x40	64
164	0xf5	-11
165	0x81	-127
166	0xb8	-72
167	0x38	56
168	0xc6	-58
169	0x87	-121
170	0xdd	-35
171	0xd5	-43
172	0x03	3
173	0x0c	12
174	0x01	1
175	0xdc	-36
176	0xc4	-60
177	0xea	-22
178	0x7f	127
179	0x79	121
180	0xc3	-61
181	0xf7	-9
182	0x55	85
183	0xda	-38
184	0xf3	-13
185	0x08	8
186	0x27	39
187	0xb2	-78
188	0x3d	61
189	0x65	101
190	0x28	40
191	0xd6	-42
192	0x05	5
193	0xe2	-30
194	0x48	72
195	0xe7	-25
196	0x62	98
197	0x0e	14
198	0x99	-103
199	0xbb	-69
200	0x53	83
201	0x99	-103
202	0x09	9
203	0x04	4
204	0xc0	-64
205	0x28	40
206	0xd2	-46
207	0xd1	-47
208	0x00	0
209	0x3c	60
210	0xda	-38
211	0x14	20
212	0x9b	-101
213	0x2c	44
214	0xef	-17
215	0x3c	60
216	0xf3	-13
217	0x38	56
218	0xf5	-11
219	0xc6	-58
220	0x1a	26
221	0x23	35
222	0xaa	-86
223	0xce	-50
224	0x1a	26
225	0xfc	-4
226	0x38	56
227	0xf7	-9
228	0x4e	78
229	0xf1	-15
230	0x14	20
231	0x70	112
232	0xca	-54
233	0xda	-38
234	0xf6	-10
235	0x1c	28
236	0x1a	26
237	0xf7	-9
238	0x0d	13
239	0xd3	-45
240	0x03	3
241	0x2f	47
242	0x5b	91
243	0x56	86
244	0xb5	-75
245	0x00	0
246	0xed	-19
247	0xa4	-92
248	0x04	4
249	0x43	67
250	0x35	53
251	0xd9	-39
252	0xfd	-3
253	0x42	66
254	0x01	1
255	0xcd	-51

tfl.pseudo_qconst7 i1 [64, 1, 1, 64]
0	0x34	52
1	0x07	7
2	0x08	8
3	0xd5	-43
4	0xea	-22
5	0x5e	94
6	0xe3	-29
7	0x9b	-101
8	0xd3	-45
9	0x4b	75
10	0xb0	-80
11	0xa6	-90
12	0xbb	-69
13	0xfc	-4
14	0xfc	-4
15	0x18	24
16	0x2c	44
17	0x50	80
18	0xf9	-7
19	0xa0	-96
20	0x5d	93
21	0x20	32
22	0xd9	-39
23	0xd7	-41
24	0x81	-127
25	0x39	57
26	0xeb	-21
27	0xab	-85
28	0xe5	-27
29	0x13	19
30	0xcb	-53
31	0x94	-108
32	0x41	65
33	0xef	-17
34	0x5c	92
35	0xc1	-63
36	0xfd	-3
37	0xe9	-23
38	0x47	71
39	0x1d	29
40	0x27	39
41	0xbe	-66
42	0xe2	-30
43	0x44	68
44	0x41	65
45	0x08	8
46	0xbb	-69
47	0x42	66
48	0x8c	-116
49	0xca	-54
50	0xb9	-71
51	0xf7	-9
52	0xda	-38
53	0xdc	-36
54	0xf7	-9
55	0xbf	-65
56	0x3a	58
57	0x1b	27
58	0xfb	-5
59	0xe0	-32
60	0x18	24
61	0x42	66
62	0x23	35
63	0xff	-1
64	0x1c	28
65	0x07	7
66	0x55	85
67	0xcc	-52
68	0x30	48
69	0x01	1
70	0xe4	-28
71	0xdc	-36
72	0x2d	45
73	0x0c	12
74	0x1b	27
75	0x38	56
76	0xe9	-23
77	0x18	24
78	0x25	37
79	0xfb	-5
80	0x12	18
81	0xcc	-52
82	0xc2	-62
83	0x11	17
84	0x6f	111
85	0x0e	14
86	0x6d	109
87	0xe2	-30
88	0x7f	127
89	0xb6	-74
90	0xfe	-2
91	0x2a	42
92	0x1c	28
93	0x05	5
94	0xe3	-29
95	0x2f	47
96	0x65	101
97	0xc5	-59
98	0xde	-34
99	0xc1	-63
100	0x25	37
101	0xe2	-30
102	0x45	69
103	0x0e	14
104	0x93	-109
105	0x1e	30
106	0x0d	13
107	0x33	51
108	0xf1	-15
109	0x90	-112
110	0x3e	62
111	0x3a	58
112	0x34	52
113	0x5a	90
114	0x18	24
115	0xb3	-77
116	0x38	56
117	0x3a	58
118	0x05	5
119	0x0d	13
120	0x0a	10
121	0xc2	-62
122	0xc3	-61
123	0xe4	-28
124	0xc5	-59
125	0x1c	28
126	0x36	54
127	0x0a	10
128	0xb3	-77
129	0xf0	-16
130	0xd0	-48
131	0x67	103
132	0x48	72
133	0x0d	13
134	0xc1	-63
135	0x33	51
136	0xfa	-6
137	0x07	7
138	0x29	41
139	0xf6	-10
140	0xc5	-59
141	0x7f	127
142	0xc5	-59
143	0x24	36
144	0xd0	-48
145	0xc9	-55
146	0x5c	92
147	0x0b	11
148	0x4a	74
149	0xf1	-15
150	0x39	57
151	0xba	-70
152	0x2c	44
153	0x32	50
154	0xcf	-49
155	0x48	72
156	0xe0	-32
157	0x12	18
158	0x12	18
159	0xf2	-14
160	0xe9	-23
161	0xb3	-77
162	0xe5	-27
163	0x23	35
164	0x55	85
165	0xfa	-6
166	0x6d	109
167	0x1f	31
168	0xda	-38
169	0x0a	10
170	0x34	52
171	0xe4	-28
172	0x30	48
173	0xb8	-72
174	0xb6	-74
175	0xcf	-49
176	0xf4	-12
177	0x54	84
178	0x56	86
179	0xfd	-3
180	0xdd	-35
181	0xf3	-13
182	0xd9	-39
183	0xb0	-80
184	0x0e	14
185	0x32	50
186	0xbc	-68
187	0x18	24
188	0xf2	-14
189	0xe5	-27
190	0x2c	44
191	0x94	-108
192	0xc1	-63
193	0xd7	-41
194	0xce	-50
195	0x31	49
196	0xce	-50
197	0x0b	11
198	0xc0	-64
199	0xe0	-32
200	0xfd	-3
201	0x59	89
202	0x09	9
203	0x2d	45
204	0xf6	-10
205	0xb4	-76
206	0x06	6
207	0xcc	-52
208	0x33	51
209	0xeb	-21
210	0xa4	-92
211	0xfe	-2
212	0xe4	-28
213	0x3a	58
214	0x8a	-118
215	0x08	8
216	0xea	-22
217	0x51	81
218	0x28	40
219	0xe7	-25
220	0xa1	-95
221	0xdc	-36
222	0xee	-18
223	0xf7	-9
224	0xf5	-11
225	0x3b	59
226	0xf1	-15
227	0xbf	-65
228	0xef	-17
229	0xb2	-78
230	0xcf	-49
231	0x36	54
232	0x4c	76
233	0x4e	78
234	0xc3	-61
235	0xd6	-42
236	0x19	25
237	0xe8	-24
238	0x15	21
239	0xee	-18
240	0xca	-54
241	0x17	23
242	0xc2	-62
243	0xe6	-26
244	0x3d	61
245	0x20	32
246	0xcd	-51
247	0xe9	-23
248	0x7f	127
249	0x26	38
250	0x67	103
251	0x0a	10
252	0x4a	74
253	0x06	6
254	0x29	41
255	0x28	40

tfl.pseudo_qconst9 i1 [1, 15, 1, 32]
0	0x55	85
1	0xd5	-43
2	0xae	-82
3	0x57	87
4	0x7f	127
5	0x0b	11
6	0x06	6
7	0xf9	-7
8	0x76	118
9	0x2d	45
10	0x7f	127
11	0xfe	-2
12	0x1d	29
13	0x81	-127
14	0x1d	29
15	0x3f	63
16	0x12	18
17	0x03	3
18	0x11	17
19	0x1d	29
20	0xca	-54
21	0x31	49
22	0xd3	-45
23	0x0a	10
24	0x4f	79
25	0x1d	29
26	0x7f	127
27	0x31	49
28	0xab	-85
29	0x7f	127
30	0xf1	-15
31	0x6e	110
32	0x39	57
33	0xbe	-66
34	0x29	41
35	0x5e	94
36	0x70	112
37	0xcb	-53
38	0xe2	-30
39	0xff	-1
40	0x72	114
41	0xc8	-56
42	0x6b	107
43	0x3f	63
44	0x59	89
45	0xec	-20
46	0xf3	-13
47	0x43	67
48	0x7f	127
49	0xd6	-42
50	0xd8	-40
51	0x63	99
52	0xc9	-55
53	0xdf	-33
54	0xa3	-93
55	0xac	-84
56	0x52	82
57	0xec	-20
58	0x0f	15
59	0x19	25
60	0x1d	29
61	0xdf	-33
62	0x13	19
63	0x53	83
64	0xe5	-27
65	0xc8	-56
66	0x1b	27
67	0x4f	79
68	0x1e	30
69	0xaa	-86
70	0x26	38
71	0xc1	-63
72	0xd7	-41
73	0xf9	-7
74	0xad	-83
75	0xe7	-25
76	0xfc	-4
77	0xf0	-16
78	0x38	56
79	0x7f	127
80	0x5f	95
81	0x0d	13
82	0x22	34
83	0xfb	-5
84	0xee	-18
85	0x21	33
86	0x92	-110
87	0xa0	-96
88	0x9f	-97
89	0xf3	-13
90	0x15	21
91	0x1e	30
92	0xe3	-29
93	0xe3	-29
94	0x5a	90
95	0xe9	-23
96	0x12	18
97	0x0a	10
98	0x60	96
99	0x7f	127
100	0xb7	-73
101	0xcc	-52
102	0xa7	-89
103	0x2c	44
104	0x3a	58
105	0xac	-84
106	0xa6	-90
107	0x97	-105
108	0x2c	44
109	0xb2	-78
110	0x3f	63
111	0x0b	11
112	0x02	2
113	0x49	73
114	0xd8	-40
115	0xe9	-23
116	0x9c	-100
117	0xd4	-44
118	0x20	32
119	0xd0	-48
120	0xb2	-78
121	0x09	9
122	0xf8	-8
123	0x20	32
124	0xf8	-8
125	0xa9	-87
126	0x6c	108
127	0xfb	-5
128	0x42	66
129	0xf3	-13
130	0x2c	44
131	0xf9	-7
132	0x41	65
133	0xc2	-62
134	0x92	-110
135	0xea	-22
136	0x57	87
137	0x69	105
138	0xe6	-26
139	0xd6	-42
140	0xb0	-80
141	0x16	22
142	0xbb	-69
143	0xfd	-3
144	0xe8	-24
145	0x4b	75
146	0xbe	-66
147	0x1a	26
148	0xe8	-24
149	0xca	-54
150	0x9c	-100
151	0xb9	-71
152	0xaa	-86
153	0x1f	31
154	0x79	121
155	0x26	38
156	0x37	55
157	0x27	39
158	0xe4	-28
159	0x28	40
160	0xc3	-61
161	0xcb	-53
162	0xc5	-59
163	0x0c	12
164	0x17	23
165	0xd3	-45
166	0x3b	59
167	0x58	88
168	0x7f	127
169	0xff	-1
170	0xe4	-28
171	0xd2	-46
172	0xf4	-12
173	0x0d	13
174	0xd8	-40
175	0x44	68
176	0xe8	-24
177	0xd7	-41
178	0x00	0
179	0xbf	-65
180	0x1c	28
181	0x36	54
182	0xfb	-5
183	0xd3	-45
184	0x22	34
185	0xff	-1
186	0x9e	-98
187	0x36	54
188	0xbc	-68
189	0x43	67
190	0x8f	-113
191	0x00	0
192	0x58	88
193	0xb8	-72
194	0xe9	-23
195	0xfc	-4
196	0x48	72
197	0xf2	-14
198	0xf9	-7
199	0x20	32
200	0xc7	-57
201	0xf4	-12
202	0xbb	-69
203	0x4a	74
204	0xe9	-23
205	0x38	56
206	0xe1	-31
207	0x45	69
208	0xe9	-23
209	0xc7	-57
210	0xf9	-7
211	0xd3	-45
212	0x21	33
213	0xcf	-49
214	0x24	36
215	0x12	18
216	0x15	21
217	0xb7	-73
218	0xc2	-62
219	0x2f	47
220	0xf8	-8
221	0xf5	-11
222	0x4f	79
223	0xee	-18
224	0x20	32
225	0x51	81
226	0x81	-127
227	0x17	23
228	0x6c	108
229	0x1f	31
230	0x38	56
231	0x53	83
232	0xa8	-88
233	0x6e	110
234	0xf8	-8
235	0x50	80
236	0x52	82
237	0xea	-22
238	0xc3	-61
239	0x02	2
240	0x9f	-97
241	0x06	6
242	0xfb	-5
243	0xc3	-61
244	0x08	8
245	0xb7	-73
246	0xc8	-56
247	0xa9	-87
248	0xe6	-26
249	0x81	-127
250	0xb3	-77
251	0x29	41
252	0xa6	-90
253	0xcb	-53
254	0x81	-127
255	0x81	-127

tfl.pseudo_qconst11 i1 [1, 9, 1, 32]
0	0x7b	123
1	0xd7	-41
2	0xf9	-7
3	0x3b	59
4	0x95	-107
5	0x7f	127
6	0x81	-127
7	0x34	52
8	0xe7	-25
9	0x5f	95
10	0x16	22
11	0xe3	-29
12	0x0b	11
13	0xfc	-4
14	0x31	49
15	0xa5	-91
16	0xfe	-2
17	0x0c	12
18	0x4f	79
19	0x48	72
20	0xcc	-52
21	0xef	-17
22	0x63	99
23	0xec	-20
24	0x04	4
25	0xfa	-6
26	0xad	-83
27	0xdd	-35
28	0x21	33
29	0xe9	-23
30	0xf9	-7
31	0x34	52
32	0x23	35
33	0xa2	-94
34	0x25	37
35	0x2d	45
36	0xf7	-9
37	0xf4	-12
38	0x26	38
39	0xe2	-30
40	0x2f	47
41	0x7f	127
42	0xd4	-44
43	0xfe	-2
44	0xec	-20
45	0xe0	-32
46	0xf8	-8
47	0x8b	-117
48	0x85	-123
49	0x05	5
50	0x48	72
51	0x5c	92
52	0x22	34
53	0x20	32
54	0x6f	111
55	0xf4	-12
56	0x8d	-115
57	0xcd	-51
58	0xf6	-10
59	0xab	-85
60	0x33	51
61	0x2c	44
62	0xf4	-12
63	0x5b	91
64	0xb3	-77
65	0x0c	12
66	0xa5	-91
67	0x0e	14
68	0xe7	-25
69	0x51	81
70	0x3e	62
71	0x25	37
72	0xc5	-59
73	0x0e	14
74	0x7f	127
75	0xcd	-51
76	0x20	32
77	0x1a	26
78	0x28	40
79	0x7a	122
80	0xf6	-10
81	0xe8	-24
82	0x45	69
83	0xaa	-86
84	0x7f	127
85	0x34	52
86	0x6d	109
87	0x15	21
88	0x02	2
89	0x29	41
90	0x1a	26
91	0x0c	12
92	0x35	53
93	0xbd	-67
94	0xd3	-45
95	0x03	3
96	0x09	9
97	0xb7	-73
98	0xa5	-91
99	0x36	54
100	0x6b	107
101	0xcc	-52
102	0x3f	63
103	0x81	-127
104	0x5c	92
105	0x14	20
106	0xe2	-30
107	0x7f	127
108	0x8e	-114
109	0x05	5
110	0x24	36
111	0x13	19
112	0x70	112
113	0xc7	-57
114	0xd1	-47
115	0x0b	11
116	0x4b	75
117	0x8b	-117
118	0xe1	-31
119	0x2f	47
120	0x4f	79
121	0xae	-82
122	0x1f	31
123	0x1a	26
124	0x23	35
125	0x2c	44
126	0x20	32
127	0x03	3
128	0x10	16
129	0x3e	62
130	0xeb	-21
131	0xfb	-5
132	0xaf	-81
133	0xa6	-90
134	0xdb	-37
135	0x9a	-102
136	0x7c	124
137	0x18	24
138	0xde	-34
139	0xea	-22
140	0xba	-70
141	0xca	-54
142	0x18	24
143	0x44	68
144	0x6c	108
145	0xc6	-58
146	0xd0	-48
147	0xa2	-94
148	0xda	-38
149	0x81	-127
150	0x48	72
151	0x7f	127
152	0x7f	127
153	0xc7	-57
154	0x8f	-113
155	0xe1	-31
156	0x5c	92
157	0xa4	-92
158	0x54	84
159	0xd8	-40
160	0x81	-127
161	0x2f	47
162	0xa8	-88
163	0xb8	-72
164	0x81	-127
165	0x21	33
166	0x3a	58
167	0x41	65
168	0x7f	127
169	0x05	5
170	0xbb	-69
171	0x3a	58
172	0x81	-127
173	0xc9	-55
174	0x17	23
175	0xd1	-47
176	0x7f	127
177	0xdc	-36
178	0xec	-20
179	0x81	-127
180	0xfb	-5
181	0x3d	61
182	0x05	5
183	0x17	23
184	0xce	-50
185	0xd4	-44
186	0x81	-127
187	0xae	-82
188	0x1f	31
189	0x31	49
190	0xa3	-93
191	0xaf	-81
192	0x8f	-113
193	0x58	88
194	0xef	-17
195	0xb6	-74
196	0x58	88
197	0xc8	-56
198	0x03	3
199	0x5d	93
200	0x15	21
201	0xc8	-56
202	0x12	18
203	0x57	87
204	0x26	38
205	0x0e	14
206	0xca	-54
207	0x93	-109
208	0x37	55
209	0xb7	-73
210	0xb0	-80
211	0xf7	-9
212	0x1d	29
213	0xf5	-11
214	0x81	-127
215	0xe8	-24
216	0x19	25
217	0xd4	-44
218	0x98	-104
219	0xbc	-68
220	0xf4	-12
221	0xd2	-46
222	0x81	-127
223	0x7f	127
224	0x66	102
225	0x7f	127
226	0xef	-17
227	0xbc	-68
228	0x31	49
229	0xc6	-58
230	0xd9	-39
231	0x82	-126
232	0x33	51
233	0x3b	59
234	0xcb	-53
235	0xcb	-53
236	0xd2	-46
237	0x0d	13
238	0x81	-127
239	0x48	72
240	0xbd	-67
241	0xdd	-35
242	0xaa	-86
243	0xcb	-53
244	0xf2	-14
245	0x54	84
246	0x55	85
247	0xb1	-79
248	0x27	39
249	0xdd	-35
250	0xb6	-74
251	0x5b	91
252	0x7f	127
253	0x54	84
254	0x36	54
255	0xff	-1

tfl.pseudo_qconst13 i1 [64, 1, 1, 64]
0	0x2c	44
1	0xf5	-11
2	0x43	67
3	0xe2	-30
4	0x96	-106
5	0x29	41
6	0xbe	-66
7	0xd3	-45
8	0x0b	11
9	0xca	-54
10	0x0e	14
11	0x38	56
12	0x22	34
13	0xfc	-4
14	0x02	2
15	0xc9	-55
16	0xe0	-32
17	0xb4	-76
18	0xfb	-5
19	0xf5	-11
20	0x19	25
21	0x41	65
22	0xf6	-10
23	0xc5	-59
24	0xbd	-67
25	0x61	97
26	0x19	25
27	0x1e	30
28	0x4b	75
29	0xe3	-29
30	0x6a	106
31	0xcc	-52
32	0xfe	-2
33	0xf8	-8
34	0x29	41
35	0xe7	-25
36	0xc8	-56
37	0xba	-70
38	0x64	100
39	0x3d	61
40	0xff	-1
41	0xb8	-72
42	0x56	86
43	0x95	-107
44	0xd1	-47
45	0xb7	-73
46	0xe7	-25
47	0x06	6
48	0x9d	-99
49	0x8c	-116
50	0x0a	10
51	0x06	6
52	0x58	88
53	0xf9	-7
54	0xc2	-62
55	0x4a	74
56	0x15	21
57	0x38	56
58	0x28	40
59	0x9c	-100
60	0xb6	-74
61	0xd2	-46
62	0x18	24
63	0x7f	127
64	0xc5	-59
65	0x5e	94
66	0xba	-70
67	0x1a	26
68	0xfd	-3
69	0x2b	43
70	0x72	114
71	0xe4	-28
72	0x21	33
73	0x30	48
74	0xc6	-58
75	0x3e	62
76	0x09	9
77	0x2a	42
78	0xb0	-80
79	0x22	34
80	0xb6	-74
81	0xe8	-24
82	0xf4	-12
83	0x2f	47
84	0x01	1
85	0x25	37
86	0xf1	-15
87	0xd5	-43
88	0xd2	-46
89	0xcf	-49
90	0x14	20
91	0x08	8
92	0x59	89
93	0xd1	-47
94	0xff	-1
95	0x43	67
96	0x6c	108
97	0x8c	-116
98	0xf2	-14
99	0x10	16
100	0x60	96
101	0xb7	-73
102	0x25	37
103	0x1d	29
104	0xe6	-26
105	0x18	24
106	0xf4	-12
107	0x3e	62
108	0x14	20
109	0x17	23
110	0x20	32
111	0x68	104
112	0x0d	13
113	0xe7	-25
114	0x31	49
115	0xd0	-48
116	0xe2	-30
117	0xd8	-40
118	0x4b	75
119	0x25	37
120	0x10	16
121	0x6f	111
122	0xca	-54
123	0x7a	122
124	0x7f	127
125	0xe8	-24
126	0xf7	-9
127	0x08	8
128	0x0d	13
129	0xf4	-12
130	0xf8	-8
131	0xb5	-75
132	0x1e	30
133	0x22	34
134	0x15	21
135	0xa4	-92
136	0x33	51
137	0xff	-1
138	0xf2	-14
139	0xef	-17
140	0xb1	-79
141	0xbf	-65
142	0xf1	-15
143	0x1a	26
144	0xf6	-10
145	0x39	57
146	0x1a	26
147	0xbe	-66
148	0xdd	-35
149	0x0e	14
150	0x39	57
151	0xd7	-41
152	0x70	112
153	0xdc	-36
154	0x4a	74
155	0xc9	-55
156	0x97	-105
157	0x27	39
158	0x08	8
159	0x55	85
160	0x17	23
161	0x45	69
162	0xff	-1
163	0xed	-19
164	0x2d	45
165	0x10	16
166	0x1d	29
167	0xf5	-11
168	0xb8	-72
169	0x22	34
170	0x3e	62
171	0x3d	61
172	0xf2	-14
173	0xdd	-35
174	0x2e	46
175	0xee	-18
176	0x1f	31
177	0x3e	62
178	0x25	37
179	0x13	19
180	0x29	41
181	0x0f	15
182	0xf2	-14
183	0xbb	-69
184	0x1c	28
185	0xf2	-14
186	0x04	4
187	0x35	53
188	0x7f	127
189	0x42	66
190	0xfe	-2
191	0x58	88
192	0x00	0
193	0xe8	-24
194	0xc4	-60
195	0x1e	30
196	0x47	71
197	0x0a	10
198	0x30	48
199	0x48	72
200	0x03	3
201	0x3e	62
202	0xb2	-78
203	0xc6	-58
204	0x20	32
205	0xf9	-7
206	0xd7	-41
207	0x0f	15
208	0x6f	111
209	0x2a	42
210	0x32	50
211	0x1f	31
212	0x49	73
213	0x63	99
214	0x1c	28
215	0xa6	-90
216	0x68	104
217	0x25	37
218	0x35	53
219	0x08	8
220	0x4c	76
221	0xe5	-27
222	0x1f	31
223	0xcb	-53
224	0x1e	30
225	0xfb	-5
226	0x57	87
227	0x1d	29
228	0xb0	-80
229	0xeb	-21
230	0xbf	-65
231	0xd0	-48
232	0xf8	-8
233	0x16	22
234	0x13	19
235	0x01	1
236	0xb9	-71
237	0x7f	127
238	0x16	22
239	0x0b	11
240	0xf3	-13
241	0x2f	47
242	0xe1	-31
243	0x32	50
244	0x51	81
245	0x01	1
246	0x00	0
247	0xd5	-43
248	0x5d	93
249	0xe5	-27
250	0xf2	-14
251	0x38	56
252	0xd6	-42
253	0x99	-103
254	0x76	118
255	0x52	82

tfl.pseudo_qconst15 i1 [1, 11, 1, 32]
0	0x2d	45
1	0x9c	-100
2	0xd9	-39
3	0x81	-127
4	0x6d	109
5	0x9d	-99
6	0xc7	-57
7	0x2a	42
8	0x07	7
9	0xf1	-15
10	0x32	50
11	0xaa	-86
12	0xc8	-56
13	0xea	-22
14	0xe4	-28
15	0x0d	13
16	0x51	81
17	0x15	21
18	0x19	25
19	0xc9	-55
20	0x18	24
21	0xc0	-64
22	0x1f	31
23	0x7f	127
24	0x62	98
25	0x7f	127
26	0xcf	-49
27	0x04	4
28	0x25	37
29	0x99	-103
30	0xf7	-9
31	0xc7	-57
32	0x3b	59
33	0xcb	-53
34	0xe0	-32
35	0xa0	-96
36	0x55	85
37	0x16	22
38	0x1e	30
39	0x68	104
40	0x48	72
41	0x6b	107
42	0x0b	11
43	0xdb	-37
44	0xce	-50
45	0xb1	-79
46	0xde	-34
47	0x23	35
48	0xb0	-80
49	0xaa	-86
50	0x9f	-97
51	0x15	21
52	0x23	35
53	0x3e	62
54	0xd5	-43
55	0x25	37
56	0x00	0
57	0xa4	-92
58	0xec	-20
59	0x2f	47
60	0xf3	-13
61	0xd0	-48
62	0x02	2
63	0x07	7
64	0x67	103
65	0xe2	-30
66	0xb6	-74
67	0xf5	-11
68	0xeb	-21
69	0x7c	124
70	0xdb	-37
71	0x27	39
72	0xf5	-11
73	0x0f	15
74	0x23	35
75	0x1c	28
76	0xc6	-58
77	0xc9	-55
78	0xbc	-68
79	0x7f	127
80	0xb7	-73
81	0xdf	-33
82	0xef	-17
83	0x81	-127
84	0x83	-125
85	0xdb	-37
86	0x79	121
87	0x4f	79
88	0x1c	28
89	0xd0	-48
90	0xb4	-76
91	0xd5	-43
92	0xdd	-35
93	0x18	24
94	0x0c	12
95	0x23	35
96	0x36	54
97	0x7f	127
98	0xce	-50
99	0x00	0
100	0x24	36
101	0x59	89
102	0x03	3
103	0x10	16
104	0x27	39
105	0x1d	29
106	0xa7	-89
107	0x88	-120
108	0xfe	-2
109	0x49	73
110	0x1b	27
111	0xd7	-41
112	0xdc	-36
113	0xbd	-67
114	0x61	97
115	0xad	-83
116	0x81	-127
117	0xef	-17
118	0x02	2
119	0xf9	-7
120	0x3a	58
121	0x28	40
122	0x5a	90
123	0xe5	-27
124	0x1d	29
125	0x7f	127
126	0x21	33
127	0xde	-34
128	0xb5	-75
129	0x41	65
130	0x16	22
131	0xd5	-43
132	0xc3	-61
133	0xdb	-37
134	0x2c	44
135	0xa2	-94
136	0x81	-127
137	0x81	-127
138	0x81	-127
139	0xb6	-74
140	0xeb	-21
141	0x6e	110
142	0x37	55
143	0xec	-20
144	0xf2	-14
145	0x75	117
146	0x02	2
147	0xc4	-60
148	0xd4	-44
149	0x07	7
150	0xc0	-64
151	0xc4	-60
152	0x7f	127
153	0x25	37
154	0xce	-50
155	0xc0	-64
156	0x14	20
157	0x1b	27
158	0x57	87
159	0xd5	-43
160	0x8e	-114
161	0x7d	125
162	0x30	48
163	0x04	4
164	0xaa	-86
165	0x8e	-114
166	0xca	-54
167	0x15	21
168	0x13	19
169	0xca	-54
170	0xb6	-74
171	0x02	2
172	0xef	-17
173	0x62	98
174	0x43	67
175	0xc0	-64
176	0x36	54
177	0x36	54
178	0xb7	-73
179	0xc9	-55
180	0x29	41
181	0x10	16
182	0x15	21
183	0xe9	-23
184	0x56	86
185	0xf2	-14
186	0x20	32
187	0xbd	-67
188	0xe5	-27
189	0xa2	-94
190	0x2e	46
191	0xf2	-14
192	0x7f	127
193	0x4a	74
194	0x4e	78
195	0x30	48
196	0xaf	-81
197	0x42	66
198	0xe1	-31
199	0x5b	91
200	0x92	-110
201	0xd6	-42
202	0xfd	-3
203	0xfb	-5
204	0x1d	29
205	0x7f	127
206	0x33	51
207	0x5a	90
208	0x61	97
209	0x17	23
210	0xdd	-35
211	0x6a	106
212	0xb3	-77
213	0xe3	-29
214	0x7f	127
215	0xbe	-66
216	0x68	104
217	0x0e	14
218	0x4a	74
219	0x07	7
220	0xe9	-23
221	0xeb	-21
222	0x14	20
223	0xfe	-2
224	0x6a	106
225	0xe6	-26
226	0xda	-38
227	0x00	0
228	0xcd	-51
229	0xdb	-37
230	0xce	-50
231	0x04	4
232	0x61	97
233	0x06	6
234	0x18	24
235	0x39	57
236	0x7f	127
237	0x0e	14
238	0x28	40
239	0x04	4
240	0xea	-22
241	0x02	2
242	0x7f	127
243	0x1d	29
244	0x2b	43
245	0x7f	127
246	0x3a	58
247	0xfc	-4
248	0x36	54
249	0x9d	-99
250	0x81	-127
251	0x31	49
252	0xc1	-63
253	0x4e	78
254	0xd8	-40
255	0x81	-127

tfl.pseudo_qconst17 i1 [1, 7, 1, 32]
0	0x20	32
1	0x7f	127
2	0x25	37
3	0x0b	11
4	0x7f	127
5	0x90	-112
6	0x51	81
7	0x07	7
8	0xb0	-80
9	0x35	53
10	0x2a	42
11	0x01	1
12	0x0c	12
13	0x73	115
14	0x3b	59
15	0xd7	-41
16	0xd9	-39
17	0x6e	110
18	0xe2	-30
19	0x7f	127
20	0xa1	-95
21	0xd4	-44
22	0x31	49
23	0xaf	-81
24	0x4b	75
25	0x19	25
26	0xd4	-44
27	0x7f	127
28	0x86	-122
29	0xb3	-77
30	0xd3	-45
31	0x45	69
32	0x48	72
33	0xe6	-26
34	0x7f	127
35	0x61	97
36	0xe5	-27
37	0x31	49
38	0xcf	-49
39	0xec	-20
40	0x47	71
41	0xad	-83
42	0xea	-22
43	0xfc	-4
44	0xf7	-9
45	0x7f	127
46	0xde	-34
47	0x7f	127
48	0x00	0
49	0x46	70
50	0xb0	-80
51	0x95	-107
52	0x25	37
53	0xaf	-81
54	0x71	113
55	0x3e	62
56	0x3e	62
57	0xbf	-65
58	0xc2	-62
59	0xfb	-5
60	0x88	-120
61	0x81	-127
62	0xd6	-42
63	0x81	-127
64	0x3f	63
65	0x95	-107
66	0x44	68
67	0x2b	43
68	0x34	52
69	0x76	118
70	0x02	2
71	0xef	-17
72	0x00	0
73	0x7f	127
74	0x53	83
75	0x4d	77
76	0x94	-108
77	0x73	115
78	0x81	-127
79	0x3c	60
80	0x2a	42
81	0x2a	42
82	0xc4	-60
83	0xa7	-89
84	0xc5	-59
85	0x5f	95
86	0xf9	-7
87	0xfc	-4
88	0x2f	47
89	0xfd	-3
90	0xd7	-41
91	0x9c	-100
92	0x6e	110
93	0x01	1
94	0x87	-121
95	0xfa	-6
96	0x6f	111
97	0x09	9
98	0xd6	-42
99	0x03	3
100	0x32	50
101	0x32	50
102	0x9e	-98
103	0x76	118
104	0xf8	-8
105	0xa1	-95
106	0x81	-127
107	0x53	83
108	0xcb	-53
109	0xd6	-42
110	0x6e	110
111	0x3e	62
112	0x13	19
113	0x8c	-116
114	0x55	85
115	0x3d	61
116	0x45	69
117	0x7f	127
118	0xa1	-95
119	0xf0	-16
120	0xf8	-8
121	0x0f	15
122	0x03	3
123	0x26	38
124	0x68	104
125	0x40	64
126	0x1d	29
127	0x1e	30
128	0x7b	123
129	0x44	68
130	0x19	25
131	0x48	72
132	0xa1	-95
133	0x41	65
134	0x87	-121
135	0xee	-18
136	0x01	1
137	0xdf	-33
138	0x0b	11
139	0xfc	-4
140	0xeb	-21
141	0x63	99
142	0x2e	46
143	0x36	54
144	0xa8	-88
145	0xab	-85
146	0xfd	-3
147	0x6a	106
148	0xcd	-51
149	0x20	32
150	0xdd	-35
151	0xeb	-21
152	0xdf	-33
153	0x7f	127
154	0x7f	127
155	0x40	64
156	0x81	-127
157	0x52	82
158	0x4a	74
159	0xdb	-37
160	0x27	39
161	0xa1	-95
162	0x01	1
163	0x7f	127
164	0x4c	76
165	0xc0	-64
166	0x81	-127
167	0xab	-85
168	0x7b	123
169	0x07	7
170	0xef	-17
171	0xb3	-77
172	0x81	-127
173	0x4b	75
174	0x41	65
175	0x4d	77
176	0xd9	-39
177	0x7f	127
178	0x81	-127
179	0xaf	-81
180	0x81	-127
181	0x9d	-99
182	0x81	-127
183	0x81	-127
184	0x93	-109
185	0x39	57
186	0x5d	93
187	0xdf	-33
188	0x03	3
189	0xd2	-46
190	0x7f	127
191	0xee	-18
192	0x7f	127
193	0xae	-82
194	0x50	80
195	0xc4	-60
196	0x0b	11
197	0x81	-127
198	0xfc	-4
199	0x7f	127
200	0x81	-127
201	0x27	39
202	0xcd	-51
203	0x81	-127
204	0xa5	-91
205	0x14	20
206	0xeb	-21
207	0x6b	107
208	0x7f	127
209	0xab	-85
210	0xbc	-68
211	0x5a	90
212	0x90	-112
213	0xa4	-92
214	0x59	89
215	0xdb	-37
216	0x81	-127
217	0xf5	-11
218	0xcd	-51
219	0xfa	-6
220	0x64	100
221	0xa1	-95
222	0x26	38
223	0xc0	-64

tfl.pseudo_qconst19 i1 [64, 1, 1, 32]
0	0x35	53
1	0xfd	-3
2	0xc7	-57
3	0x0b	11
4	0x68	104
5	0xbc	-68
6	0x25	37
7	0xf6	-10
8	0xe3	-29
9	0xee	-18
10	0xdd	-35
11	0xfc	-4
12	0xa0	-96
13	0xf4	-12
14	0x35	53
15	0x15	21
16	0x22	34
17	0x81	-127
18	0xe1	-31
19	0xc6	-58
20	0x3a	58
21	0x31	49
22	0xfd	-3
23	0x55	85
24	0xff	-1
25	0x41	65
26	0xe2	-30
27	0xe9	-23
28	0xf3	-13
29	0x29	41
30	0xbc	-68
31	0x2a	42
32	0x1b	27
33	0xf8	-8
34	0xd2	-46
35	0x95	-107
36	0x10	16
37	0xaf	-81
38	0xd4	-44
39	0x44	68
40	0xc2	-62
41	0x10	16
42	0xd0	-48
43	0x12	18
44	0x3e	62
45	0x81	-127
46	0xba	-70
47	0x43	67
48	0xb9	-71
49	0x13	19
50	0xd1	-47
51	0xd1	-47
52	0x9c	-100
53	0xfc	-4
54	0x98	-104
55	0x28	40
56	0xff	-1
57	0xe4	-28
58	0x45	69
59	0x2d	45
60	0x14	20
61	0x60	96
62	0x35	53
63	0xe9	-23
64	0xc1	-63
65	0xfd	-3
66	0x11	17
67	0x3a	58
68	0x81	-127
69	0x5c	92
70	0xec	-20
71	0x33	51
72	0x5e	94
73	0x16	22
74	0xbb	-69
75	0xef	-17
76	0xfb	-5
77	0xb8	-72
78	0x06	6
79	0x51	81
80	0x94	-108
81	0x52	82
82	0x11	17
83	0xe5	-27
84	0xbb	-69
85	0xbe	-66
86	0x13	19
87	0xf7	-9
88	0xcc	-52
89	0xc1	-63
90	0x1e	30
91	0x4a	74
92	0x23	35
93	0xeb	-21
94	0xf0	-16
95	0x75	117
96	0x2a	42
97	0xce	-50
98	0xde	-34
99	0x0e	14
100	0xd6	-42
101	0x96	-106
102	0x11	17
103	0xd0	-48
104	0xda	-38
105	0xf7	-9
106	0x11	17
107	0x09	9
108	0xaf	-81
109	0x6a	106
110	0x18	24
111	0x36	54
112	0xe8	-24
113	0x25	37
114	0x01	1
115	0x42	66
116	0x12	18
117	0x47	71
118	0x0f	15
119	0xba	-70
120	0x28	40
121	0x7f	127
122	0x12	18
123	0xd8	-40
124	0x1e	30
125	0x33	51
126	0x11	17
127	0x96	-106
128	0xd0	-48
129	0x42	66
130	0x4d	77
131	0x8b	-117
132	0x22	34
133	0x7b	123
134	0x99	-103
135	0x1a	26
136	0xd2	-46
137	0x38	56
138	0x1f	31
139	0xbe	-66
140	0x32	50
141	0xea	-22
142	0x85	-123
143	0x0c	12
144	0xf5	-11
145	0x07	7
146	0xbb	-69
147	0x9a	-102
148	0x9a	-102
149	0x0d	13
150	0x8d	-115
151	0x2b	43
152	0xe5	-27
153	0x6a	106
154	0x41	65
155	0xdd	-35
156	0x5f	95
157	0xda	-38
158	0x7f	127
159	0x25	37
160	0xd5	-43
161	0xff	-1
162	0x24	36
163	0xb3	-77
164	0xca	-54
165	0x17	23
166	0x0b	11
167	0xe8	-24
168	0x9f	-97
169	0x44	68
170	0x59	89
171	0xcb	-53
172	0xdd	-35
173	0xfd	-3
174	0x5a	90
175	0x26	38
176	0x23	35
177	0x7c	124
178	0x34	52
179	0xce	-50
180	0x06	6
181	0xe7	-25
182	0x50	80
183	0x0f	15
184	0x13	19
185	0xa4	-92
186	0xa0	-96
187	0xc3	-61
188	0x22	34
189	0x81	-127
190	0xbe	-66
191	0xb0	-80
192	0x0b	11
193	0x57	87
194	0x23	35
195	0x52	82
196	0xd5	-43
197	0xda	-38
198	0x30	48
199	0x51	81
200	0xae	-82
201	0xb1	-79
202	0xa5	-91
203	0x2b	43
204	0x73	115
205	0xaa	-86
206	0x81	-127
207	0x53	83
208	0x2a	42
209	0x56	86
210	0x3b	59
211	0xd2	-46
212	0xcb	-53
213	0x2c	44
214	0xd9	-39
215	0xdf	-33
216	0xff	-1
217	0x57	87
218	0x42	66
219	0x0b	11
220	0xf3	-13
221	0x33	51
222	0x5a	90
223	0xe0	-32
224	0x6c	108
225	0x50	80
226	0x76	118
227	0x21	33
228	0xf7	-9
229	0xa2	-94
230	0xe2	-30
231	0x9f	-97
232	0xa0	-96
233	0x87	-121
234	0xf1	-15
235	0xaa	-86
236	0x81	-127
237	0x48	72
238	0xd2	-46
239	0x74	116
240	0x22	34
241	0x27	39
242	0x15	21
243	0xc6	-58
244	0x46	70
245	0xbe	-66
246	0x82	-126
247	0xc4	-60
248	0x06	6
249	0x5a	90
250	0x11	17
251	0xde	-34
252	0xcf	-49
253	0x97	-105
254	0x50	80
255	0x86	-122

tfl.pseudo_qconst21 i1 [1, 5, 1, 32]
0	0x11	17
1	0x0d	13
2	0x01	1
3	0xb5	-75
4	0x81	-127
5	0x53	83
6	0x59	89
7	0x31	49
8	0x7f	127
9	0x81	-127
10	0x78	120
11	0x81	-127
12	0x27	39
13	0xbd	-67
14	0x81	-127
15	0xc2	-62
16	0x2d	45
17	0x62	98
18	0xf3	-13
19	0x22	34
20	0xe6	-26
21	0x10	16
22	0x81	-127
23	0x08	8
24	0x7f	127
25	0x2a	42
26	0xbb	-69
27	0x15	21
28	0x7f	127
29	0xa2	-94
30	0x46	70
31	0x34	52
32	0xce	-50
33	0x02	2
34	0xa8	-88
35	0xe1	-31
36	0xd1	-47
37	0xee	-18
38	0xb5	-75
39	0x81	-127
40	0x1d	29
41	0xe0	-32
42	0x37	55
43	0xb9	-71
44	0x23	35
45	0xe9	-23
46	0xc8	-56
47	0x79	121
48	0x81	-127
49	0x7a	122
50	0x82	-126
51	0x4f	79
52	0xf2	-14
53	0x81	-127
54	0x63	99
55	0x97	-105
56	0xc2	-62
57	0xdd	-35
58	0xee	-18
59	0x15	21
60	0x87	-121
61	0x85	-123
62	0x4e	78
63	0x1d	29
64	0xdf	-33
65	0x46	70
66	0x19	25
67	0xc7	-57
68	0xa1	-95
69	0x7f	127
70	0x2d	45
71	0x47	71
72	0xf9	-7
73	0xc3	-61
74	0xa5	-91
75	0x82	-126
76	0x7f	127
77	0x41	65
78	0x34	52
79	0xa4	-92
80	0xc9	-55
81	0x98	-104
82	0x81	-127
83	0x37	55
84	0xbc	-68
85	0xa1	-95
86	0xa3	-93
87	0x7f	127
88	0x9e	-98
89	0x81	-127
90	0x29	41
91	0xcc	-52
92	0x5c	92
93	0x3d	61
94	0xc9	-55
95	0xec	-20
96	0xdb	-37
97	0x81	-127
98	0x85	-123
99	0x5c	92
100	0x82	-126
101	0x99	-103
102	0x81	-127
103	0x06	6
104	0x75	117
105	0x54	84
106	0x81	-127
107	0xe0	-32
108	0xd9	-39
109	0x19	25
110	0xfa	-6
111	0xf8	-8
112	0xed	-19
113	0x7f	127
114	0xdf	-33
115	0xb1	-79
116	0x81	-127
117	0xae	-82
118	0xbd	-67
119	0x97	-105
120	0x9c	-100
121	0xf9	-7
122	0xea	-22
123	0xa3	-93
124	0x7d	125
125	0x7a	122
126	0x7c	124
127	0x81	-127
128	0x7f	127
129	0x29	41
130	0x81	-127
131	0x7f	127
132	0x02	2
133	0x83	-125
134	0xa0	-96
135	0x20	32
136	0x37	55
137	0xc1	-63
138	0xd4	-44
139	0x86	-122
140	0x87	-121
141	0x81	-127
142	0x5a	90
143	0x7f	127
144	0x7e	126
145	0x7c	124
146	0x90	-112
147	0x81	-127
148	0xf9	-7
149	0xf8	-8
150	0xd0	-48
151	0xfc	-4
152	0xd7	-41
153	0x20	32
154	0x81	-127
155	0x81	-127
156	0x7b	123
157	0x81	-127
158	0x7f	127
159	0x3e	62

tfl.pseudo_qconst23 i1 [32, 5, 1, 40]
0	0x64	100
1	0x17	23
2	0x44	68
3	0x3f	63
4	0x34	52
5	0x0c	12
6	0x3d	61
7	0xd2	-46
8	0x29	41
9	0xbc	-68
10	0x00	0
11	0x21	33
12	0x19	25
13	0xfe	-2
14	0xef	-17
15	0xea	-22
16	0x1e	30
17	0x10	16
18	0x21	33
19	0x2c	44
20	0x78	120
21	0xeb	-21
22	0x1e	30
23	0x21	33
24	0x21	33
25	0x13	19
26	0x2e	46
27	0xb7	-73
28	0x02	2
29	0x02	2
30	0x55	85
31	0xdc	-36
32	0x1f	31
33	0x11	17
34	0xd7	-41
35	0xe7	-25
36	0x81	-127
37	0x17	23
38	0xbf	-65
39	0x1a	26
40	0x5d	93
41	0x35	53
42	0x65	101
43	0x6a	106
44	0x42	66
45	0xf7	-9
46	0x21	33
47	0xeb	-21
48	0xd5	-43
49	0xd0	-48
50	0x13	19
51	0x10	16
52	0x1c	28
53	0xf8	-8
54	0xc8	-56
55	0xef	-17
56	0xfd	-3
57	0xec	-20
58	0x02	2
59	0xf0	-16
60	0x47	71
61	0x08	8
62	0x41	65
63	0x28	40
64	0x45	69
65	0xb0	-80
66	0xc4	-60
67	0xa2	-94
68	0x0f	15
69	0x2e	46
70	0xed	-19
71	0x9d	-99
72	0xed	-19
73	0xe1	-31
74	0x05	5
75	0xf9	-7
76	0xc1	-63
77	0xc5	-59
78	0x98	-104
79	0xee	-18
80	0x69	105
81	0x17	23
82	0x4f	79
83	0x1b	27
84	0x5a	90
85	0x20	32
86	0x40	64
87	0xe2	-30
88	0x29	41
89	0xf8	-8
90	0x57	87
91	0x23	35
92	0x48	72
93	0x0b	11
94	0xd5	-43
95	0xd7	-41
96	0x70	112
97	0x32	50
98	0x4a	74
99	0xf0	-16
100	0xf1	-15
101	0xb9	-71
102	0x39	57
103	0xef	-17
104	0x27	39
105	0x08	8
106	0xe1	-31
107	0x8c	-116
108	0x10	16
109	0x03	3
110	0xfd	-3
111	0x95	-107
112	0xc3	-61
113	0x14	20
114	0xb3	-77
115	0xc6	-58
116	0xb9	-71
117	0x03	3
118	0xef	-17
119	0xb6	-74
120	0x6b	107
121	0x2d	45
122	0x31	49
123	0xd7	-41
124	0x03	3
125	0x1f	31
126	0x09	9
127	0x05	5
128	0xeb	-21
129	0x1c	28
130	0x54	84
131	0x13	19
132	0x49	73
133	0x02	2
134	0xf1	-15
135	0x35	53
136	0x3c	60
137	0xe9	-23
138	0x2a	42
139	0x08	8
140	0x15	21
141	0xd1	-47
142	0x11	17
143	0xf5	-11
144	0xe5	-27
145	0xf1	-15
146	0xeb	-21
147	0xd1	-47
148	0x1c	28
149	0xad	-83
150	0x08	8
151	0xef	-17
152	0xec	-20
153	0x15	21
154	0xf1	-15
155	0x91	-111
156	0xdb	-37
157	0xb3	-77
158	0xd3	-45
159	0x88	-120
160	0x73	115
161	0xd2	-46
162	0xee	-18
163	0xbd	-67
164	0xeb	-21
165	0xe6	-26
166	0x29	41
167	0xf5	-11
168	0x37	55
169	0x02	2
170	0x45	69
171	0xf6	-10
172	0x52	82
173	0x15	21
174	0x2c	44
175	0x19	25
176	0x3e	62
177	0xf9	-7
178	0x38	56
179	0xf1	-15
180	0x1e	30
181	0xea	-22
182	0x33	51
183	0xed	-19
184	0xc8	-56
185	0xaa	-86
186	0x11	17
187	0xf1	-15
188	0xe4	-28
189	0x0e	14
190	0x33	51
191	0x90	-112
192	0x2c	44
193	0xcc	-52
194	0xe7	-25
195	0xe0	-32
196	0xf7	-9
197	0x99	-103
198	0xc2	-62
199	0xd3	-45
200	0x22	34
201	0x0d	13
202	0x29	41
203	0x2e	46
204	0xf9	-7
205	0xed	-19
206	0xe7	-25
207	0x1d	29
208	0x9f	-97
209	0xe2	-30
210	0xdd	-35
211	0xb9	-71
212	0xe1	-31
213	0x23	35
214	0xf8	-8
215	0xe3	-29
216	0x3f	63
217	0x3b	59
218	0x19	25
219	0xc6	-58
220	0x20	32
221	0x01	1
222	0x41	65
223	0xf4	-12
224	0x65	101
225	0x03	3
226	0x20	32
227	0x38	56
228	0x6b	107
229	0xfb	-5
230	0x60	96
231	0xa1	-95
232	0x1c	28
233	0x1c	28
234	0xd7	-41
235	0xea	-22
236	0x3a	58
237	0x1b	27
238	0xec	-20
239	0x17	23
240	0x27	39
241	0x0b	11
242	0x1e	30
243	0xfc	-4
244	0xd3	-45
245	0xd0	-48
246	0xe0	-32
247	0xf1	-15
248	0xf0	-16
249	0x2e	46
250	0xec	-20
251	0x0b	11
252	0x08	8
253	0xd3	-45
254	0x0b	11
255	0xbf	-65

arith.constant19 f4 [1, 14, 1, 64]
0	0x00000000	0.0
1	0x00000000	0.0
2	0x00000000	0.0
3	0x00000000	0.0
4	0x00000000	0.0
5	0x00000000	0.0
6	0x00000000	0.0
7	0x00000000	0.0
8	0x00000000	0.0
9	0x00000000	0.0
10	0x00000000	0.0
11	0x00000000	0.0
12	0x00000000	0.0
13	0x00000000	0.0
14	0x00000000	0.0
15	0x00000000	0.0
16	0x00000000	0.0
17	0x00000000	0.0
18	0x00000000	0.0
19	0x00000000	0.0
20	0x00000000	0.0
21	0x00000000	0.0
22	0x00000000	0.0
23	0x00000000	0.0
24	0x00000000	0.0
25	0x00000000	0.0
26	0x00000000	0.0
27	0x00000000	0.0
28	0x00000000	0.0
29	0x00000000	0.0
30	0x00000000	0.0
31	0x00000000	0.0
32	0x00000000	0.0
33	0x00000000	0.0
34	0x00000000	0.0
35	0x00000000	0.0
36	0x00000000	0.0
37	0x00000000	0.0
38	0x00000000	0.0
39	0x00000000	0.0
40	0x00000000	0.0
41	0x00000000	0.0
42	0x00000000	0.0
43	0x00000000	0.0
44	0x00000000	0.0
45	0x00000000	0.0
46	0x00000000	0.0
47	0x00000000	0.0
48	0x00000000	0.0
49	0x00000000	0.0
50	0x00000000	0.0
51	0x00000000	0.0
52	0x00000000	0.0
53	0x00000000	0.0
54	0x00000000	0.0
55	0x00000000	0.0
56	0x00000000	0.0
57	0x00000000	0.0
58	0x00000000	0.0
59	0x00000000	0.0
60	0x00000000	0.0
61	0x00000000	0.0
62	0x00000000	0.0
63	0x00000000	0.0
64	0x00000000	0.0
65	0x00000000	0.0
66	0x00000000	0.0
67	0x00000000	0.0
68	0x00000000	0.0
69	0x00000000	0.0
70	0x00000000	0.0
71	0x00000000	0.0
72	0x00000000	0.0
73	0x00000000	0.0
74	0x00000000	0.0
75	0x00000000	0.0
76	0x00000000	0.0
77	0x00000000	0.0
78	0x00000000	0.0
79	0x00000000	0.0
80	0x00000000	0.0
81	0x00000000	0.0
82	0x00000000	0.0
83	0x00000000	0.0
84	0x00000000	0.0
85	0x00000000	0.0
86	0x00000000	0.0
87	0x00000000	0.0
88	0x00000000	0.0
89	0x00000000	0.0
90	0x00000000	0.0
91	0x00000000	0.0
92	0x00000000	0.0
93	0x00000000	0.0
94	0x00000000	0.0
95	0x00000000	0.0
96	0x00000000	0.0
97	0x00000000	0.0
98	0x00000000	0.0
99	0x00000000	0.0
100	0x00000000	0.0
101	0x00000000	0.0
102	0x00000000	0.0
103	0x00000000	0.0
104	0x00000000	0.0
105	0x00000000	0.0
106	0x00000000	0.0
107	0x00000000	0.0
108	0x00000000	0.0
109	0x00000000	0.0
110	0x00000000	0.0
111	0x00000000	0.0
112	0x00000000	0.0
113	0x00000000	0.0
114	0x00000000	0.0
115	0x00000000	0.0
116	0x00000000	0.0
117	0x00000000	0.0
118	0x00000000	0.0
119	0x00000000	0.0
120	0x00000000	0.0
121	0x00000000	0.0
122	0x00000000	0.0
123	0x00000000	0.0
124	0x00000000	0.0
125	0x00000000	0.0
126	0x00000000	0.0
127	0x00000000	0.0
128	0x00000000	0.0
129	0x00000000	0.0
130	0x00000000	0.0
131	0x00000000	0.0
132	0x00000000	0.0
133	0x00000000	0.0
134	0x00000000	0.0
135	0x00000000	0.0
136	0x00000000	0.0
137	0x00000000	0.0
138	0x00000000	0.0
139	0x00000000	0.0
140	0x00000000	0.0
141	0x00000000	0.0
142	0x00000000	0.0
143	0x00000000	0.0
144	0x00000000	0.0
145	0x00000000	0.0
146	0x00000000	0.0
147	0x00000000	0.0
148	0x00000000	0.0
149	0x00000000	0.0
150	0x00000000	0.0
151	0x00000000	0.0
152	0x00000000	0.0
153	0x00000000	0.0
154	0x00000000	0.0
155	0x00000000	0.0
156	0x00000000	0.0
157	0x00000000	0.0
158	0x00000000	0.0
159	0x00000000	0.0
160	0x00000000	0.0
161	0x00000000	0.0
162	0x00000000	0.0
163	0x00000000	0.0
164	0x00000000	0.0
165	0x00000000	0.0
166	0x00000000	0.0
167	0x00000000	0.0
168	0x00000000	0.0
169	0x00000000	0.0
170	0x00000000	0.0
171	0x00000000	0.0
172	0x00000000	0.0
173	0x00000000	0.0
174	0x00000000	0.0
175	0x00000000	0.0
176	0x00000000	0.0
177	0x00000000	0.0
178	0x00000000	0.0
179	0x00000000	0.0
180	0x00000000	0.0
181	0x00000000	0.0
182	0x00000000	0.0
183	0x00000000	0.0
184	0x00000000	0.0
185	0x00000000	0.0
186	0x00000000	0.0
187	0x00000000	0.0
188	0x00000000	0.0
189	0x00000000	0.0
190	0x00000000	0.0
191	0x00000000	0.0
192	0x00000000	0.0
193	0x00000000	0.0
194	0x00000000	0.0
195	0x00000000	0.0
196	0x00000000	0.0
197	0x00000000	0.0
198	0x00000000	0.0
199	0x00000000	0.0
200	0x00000000	0.0
201	0x00000000	0.0
202	0x00000000	0.0
203	0x00000000	0.0
204	0x00000000	0.0
205	0x00000000	0.0
206	0x00000000	0.0
207	0x00000000	0.0
208	0x00000000	0.0
209	0x00000000	0.0
210	0x00000000	0.0
211	0x00000000	0.0
212	0x00000000	0.0
213	0x00000000	0.0
214	0x00000000	0.0
215	0x00000000	0.0
216	0x00000000	0.0
217	0x00000000	0.0
218	0x00000000	0.0
219	0x00000000	0.0
220	0x00000000	0.0
221	0x00000000	0.0
222	0x00000000	0.0
223	0x00000000	0.0
224	0x00000000	0.0
225	0x00000000	0.0
226	0x00000000	0.0
227	0x00000000	0.0
228	0x00000000	0.0
229	0x00000000	0.0
230	0x00000000	0.0
231	0x00000000	0.0
232	0x00000000	0.0
233	0x00000000	0.0
234	0x00000000	0.0
235	0x00000000	0.0
236	0x00000000	0.0
237	0x00000000	0.0
238	0x00000000	0.0
239	0x00000000	0.0
240	0x00000000	0.0
241	0x00000000	0.0
242	0x00000000	0.0
243	0x00000000	0.0
244	0x00000000	0.0
245	0x00000000	0.0
246	0x00000000	0.0
247	0x00000000	0.0
248	0x00000000	0.0
249	0x00000000	0.0
250	0x00000000	0.0
251	0x00000000	0.0
252	0x00000000	0.0
253	0x00000000	0.0
254	0x00000000	0.0
255	0x00000000	0.0

arith.constant20 f4 [1, 10, 1, 64]
0	0x00000000	0.0
1	0x00000000	0.0
2	0x00000000	0.0
3	0x00000000	0.0
4	0x00000000	0.0
5	0x00000000	0.0
6	0x00000000	0.0
7	0x00000000	0.0
8	0x00000000	0.0
9	0x00000000	0.0
10	0x00000000	0.0
11	0x00000000	0.0
12	0x00000000	0.0
13	0x00000000	0.0
14	0x00000000	0.0
15	0x00000000	0.0
16	0x00000000	0.0
17	0x00000000	0.0
18	0x00000000	0.0
19	0x00000000	0.0
20	0x00000000	0.0
21	0x00000000	0.0
22	0x00000000	0.0
23	0x00000000	0.0
24	0x00000000	0.0
25	0x00000000	0.0
26	0x00000000	0.0
27	0x00000000	0.0
28	0x00000000	0.0
29	0x00000000	0.0
30	0x00000000	0.0
31	0x00000000	0.0
32	0x00000000	0.0
33	0x00000000	0.0
34	0x00000000	0.0
35	0x00000000	0.0
36	0x00000000	0.0
37	0x00000000	0.0
38	0x00000000	0.0
39	0x00000000	0.0
40	0x00000000	0.0
41	0x00000000	0.0
42	0x00000000	0.0
43	0x00000000	0.0
44	0x00000000	0.0
45	0x00000000	0.0
46	0x00000000	0.0
47	0x00000000	0.0
48	0x00000000	0.0
49	0x00000000	0.0
50	0x00000000	0.0
51	0x00000000	0.0
52	0x00000000	0.0
53	0x00000000	0.0
54	0x00000000	0.0
55	0x00000000	0.0
56	0x00000000	0.0
57	0x00000000	0.0
58	0x00000000	0.0
59	0x00000000	0.0
60	0x00000000	0.0
61	0x00000000	0.0
62	0x00000000	0.0
63	0x00000000	0.0
64	0x00000000	0.0
65	0x00000000	0.0
66	0x00000000	0.0
67	0x00000000	0.0
68	0x00000000	0.0
69	0x00000000	0.0
70	0x00000000	0.0
71	0x00000000	0.0
72	0x00000000	0.0
73	0x00000000	0.0
74	0x00000000	0.0
75	0x00000000	0.0
76	0x00000000	0.0
77	0x00000000	0.0
78	0x00000000	0.0
79	0x00000000	0.0
80	0x00000000	0.0
81	0x00000000	0.0
82	0x00000000	0.0
83	0x00000000	0.0
84	0x00000000	0.0
85	0x00000000	0.0
86	0x00000000	0.0
87	0x00000000	0.0
88	0x00000000	0.0
89	0x00000000	0.0
90	0x00000000	0.0
91	0x00000000	0.0
92	0x00000000	0.0
93	0x00000000	0.0
94	0x00000000	0.0
95	0x00000000	0.0
96	0x00000000	0.0
97	0x00000000	0.0
98	0x00000000	0.0
99	0x00000000	0.0
100	0x00000000	0.0
101	0x00000000	0.0
102	0x00000000	0.0
103	0x00000000	0.0
104	0x00000000	0.0
105	0x00000000	0.0
106	0x00000000	0.0
107	0x00000000	0.0
108	0x00000000	0.0
109	0x00000000	0.0
110	0x00000000	0.0
111	0x00000000	0.0
112	0x00000000	0.0
113	0x00000000	0.0
114	0x00000000	0.0
115	0x00000000	0.0
116	0x00000000	0.0
117	0x00000000	0.0
118	0x00000000	0.0
119	0x00000000	0.0
120	0x00000000	0.0
121	0x00000000	0.0
122	0x00000000	0.0
123	0x00000000	0.0
124	0x00000000	0.0
125	0x00000000	0.0
126	0x00000000	0.0
127	0x00000000	0.0
128	0x00000000	0.0
129	0x00000000	0.0
130	0x00000000	0.0
131	0x00000000	0.0
132	0x00000000	0.0
133	0x00000000	0.0
134	0x00000000	0.0
135	0x00000000	0.0
136	0x00000000	0.0
137	0x00000000	0.0
138	0x00000000	0.0
139	0x00000000	0.0
140	0x00000000	0.0
141	0x00000000	0.0
142	0x00000000	0.0
143	0x00000000	0.0
144	0x00000000	0.0
145	0x00000000	0.0
146	0x00000000	0.0
147	0x00000000	0.0
148	0x00000000	0.0
149	0x00000000	0.0
150	0x00000000	0.0
151	0x00000000	0.0
152	0x00000000	0.0
153	0x00000000	0.0
154	0x00000000	0.0
155	0x00000000	0.0
156	0x00000000	0.0
157	0x00000000	0.0
158	0x00000000	0.0
159	0x00000000	0.0
160	0x00000000	0.0
161	0x00000000	0.0
162	0x00000000	0.0
163	0x00000000	0.0
164	0x00000000	0.0
165	0x00000000	0.0
166	0x00000000	0.0
167	0x00000000	0.0
168	0x00000000	0.0
169	0x00000000	0.0
170	0x00000000	0.0
171	0x00000000	0.0
172	0x00000000	0.0
173	0x00000000	0.0
174	0x00000000	0.0
175	0x00000000	0.0
176	0x00000000	0.0
177	0x00000000	0.0
178	0x00000000	0.0
179	0x00000000	0.0
180	0x00000000	0.0
181	0x00000000	0.0
182	0x00000000	0.0
183	0x00000000	0.0
184	0x00000000	0.0
185	0x00000000	0.0
186	0x00000000	0.0
187	0x00000000	0.0
188	0x00000000	0.0
189	0x00000000	0.0
190	0x00000000	0.0
191	0x00000000	0.0
192	0x00000000	0.0
193	0x00000000	0.0
194	0x00000000	0.0
195	0x00000000	0.0
196	0x00000000	0.0
197	0x00000000	0.0
198	0x00000000	0.0
199	0x00000000	0.0
200	0x00000000	0.0
201	0x00000000	0.0
202	0x00000000	0.0
203	0x00000000	0.0
204	0x00000000	0.0
205	0x00000000	0.0
206	0x00000000	0.0
207	0x00000000	0.0
208	0x00000000	0.0
209	0x00000000	0.0
210	0x00000000	0.0
211	0x00000000	0.0
212	0x00000000	0.0
213	0x00000000	0.0
214	0x00000000	0.0
215	0x00000000	0.0
216	0x00000000	0.0
217	0x00000000	0.0
218	0x00000000	0.0
219	0x00000000	0.0
220	0x00000000	0.0
221	0x00000000	0.0
222	0x00000000	0.0
223	0x00000000	0.0
224	0x00000000	0.0
225	0x00000000	0.0
226	0x00000000	0.0
227	0x00000000	0.0
228	0x00000000	0.0
229	0x00000000	0.0
230	0x00000000	0.0
231	0x00000000	0.0
232	0x00000000	0.0
233	0x00000000	0.0
234	0x00000000	0.0
235	0x00000000	0.0
236	0x00000000	0.0
237	0x00000000	0.0
238	0x00000000	0.0
239	0x00000000	0.0
240	0x00000000	0.0
241	0x00000000	0.0
242	0x00000000	0.0
243	0x00000000	0.0
244	0x00000000	0.0
245	0x00000000	0.0
246	0x00000000	0.0
247	0x00000000	0.0
248	0x00000000	0.0
249	0x00000000	0.0
250	0x00000000	0.0
251	0x00000000	0.0
252	0x00000000	0.0
253	0x00000000	0.0
254	0x00000000	0.0
255	0x00000000	0.0

arith.constant21 f4 [1, 4, 1, 32]
0	0x00000000	0.0
1	0x00000000	0.0
2	0x00000000	0.0
3	0x00000000	0.0
4	0x00000000	0.0
5	0x00000000	0.0
6	0x00000000	0.0
7	0x00000000	0.0
8	0x00000000	0.0
9	0x00000000	0.0
10	0x00000000	0.0
11	0x00000000	0.0
12	0x00000000	0.0
13	0x00000000	0.0
14	0x00000000	0.0
15	0x00000000	0.0
16	0x00000000	0.0
17	0x00000000	0.0
18	0x00000000	0.0
19	0x00000000	0.0
20	0x00000000	0.0
21	0x00000000	0.0
22	0x00000000	0.0
23	0x00000000	0.0
24	0x00000000	0.0
25	0x00000000	0.0
26	0x00000000	0.0
27	0x00000000	0.0
28	0x00000000	0.0
29	0x00000000	0.0
30	0x00000000	0.0
31	0x00000000	0.0
32	0x00000000	0.0
33	0x00000000	0.0
34	0x00000000	0.0
35	0x00000000	0.0
36	0x00000000	0.0
37	0x00000000	0.0
38	0x00000000	0.0
39	0x00000000	0.0
40	0x00000000	0.0
41	0x00000000	0.0
42	0x00000000	0.0
43	0x00000000	0.0
44	0x00000000	0.0
45	0x00000000	0.0
46	0x00000000	0.0
47	0x00000000	0.0
48	0x00000000	0.0
49	0x00000000	0.0
50	0x00000000	0.0
51	0x00000000	0.0
52	0x00000000	0.0
53	0x00000000	0.0
54	0x00000000	0.0
55	0x00000000	0.0
56	0x00000000	0.0
57	0x00000000	0.0
58	0x00000000	0.0
59	0x00000000	0.0
60	0x00000000	0.0
61	0x00000000	0.0
62	0x00000000	0.0
63	0x00000000	0.0
64	0x00000000	0.0
65	0x00000000	0.0
66	0x00000000	0.0
67	0x00000000	0.0
68	0x00000000	0.0
69	0x00000000	0.0
70	0x00000000	0.0
71	0x00000000	0.0
72	0x00000000	0.0
73	0x00000000	0.0
74	0x00000000	0.0
75	0x00000000	0.0
76	0x00000000	0.0
77	0x00000000	0.0
78	0x00000000	0.0
79	0x00000000	0.0
80	0x00000000	0.0
81	0x00000000	0.0
82	0x00000000	0.0
83	0x00000000	0.0
84	0x00000000	0.0
85	0x00000000	0.0
86	0x00000000	0.0
87	0x00000000	0.0
88	0x00000000	0.0
89	0x00000000	0.0
90	0x00000000	0.0
91	0x00000000	0.0
92	0x00000000	0.0
93	0x00000000	0.0
94	0x00000000	0.0
95	0x00000000	0.0
96	0x00000000	0.0
97	0x00000000	0.0
98	0x00000000	0.0
99	0x00000000	0.0
100	0x00000000	0.0
101	0x00000000	0.0
102	0x00000000	0.0
103	0x00000000	0.0
104	0x00000000	0.0
105	0x00000000	0.0
106	0x00000000	0.0
107	0x00000000	0.0
108	0x00000000	0.0
109	0x00000000	0.0
110	0x00000000	0.0
111	0x00000000	0.0
112	0x00000000	0.0
113	0x00000000	0.0
114	0x00000000	0.0
115	0x00000000	0.0
116	0x00000000	0.0
117	0x00000000	0.0
118	0x00000000	0.0
119	0x00000000	0.0
120	0x00000000	0.0
121	0x00000000	0.0
122	0x00000000	0.0
123	0x00000000	0.0
124	0x00000000	0.0
125	0x00000000	0.0
126	0x00000000	0.0
127	0x00000000	0.0
