pt-br/models/ei_sexta.tflite (tflite, 117704 bytes, 18 tensors)

tfl.pseudo_qconst1 i1 [1, 9472] scale=0.0006348779 zero_point=0
00000000: f4d5 d7f7 11d4 ecde d610 eee4 e111 07db
00000010: c704 0be7 cbfb 03e8 10d7 08e3 f1d3 d8bb
00000020: d4ea 08e3 d615 04c5 d4bc e8f0 f707 1806
00000030: 0ce3 d7cd c0ce fbe2 e7dd c5cb d705 06a0
00000040: 10c0 fab8 ed0e 1ddb 00fe 0de3 d300 12fa
00000050: 07fc eada 16f4 f70c f4fe 13e2 cded e1d4
00000060: ec00 dd07 ef19 0508 c7c1 05ee e3ce 03ce
00000070: 240c d4c4 d407 0f2b f3fd fafd bacd e8aa
00000080: f4f1 ebeb 0afe 1a08 0906 dcda d0ff 1519
00000090: 0cf8 19f3 f6f4 10d4 f501 d0f5 02e4 d3fc
000000a0: e00a f409 d7ff 09e2 f0d7 120a c9e0 d7e9
000000b0: fd08 d10a fce7 f50d bade 0905 0505 dfd1
000000c0: d10c d3e8 e300 da10 11d8 e415 edfd f8ef
000000d0: d5f7 000b 0bf5 e1e2 f2d0 e107 ccd7 1de6
000000e0: bc02 eae6 f0f2 fcf1 b8e9 0fec 07f8 f3e5
000000f0: eaec cae8 d313 ee1f e722 ff14 0801 e0f0
-0.0076185344 -0.027299749 -0.026029993 -0.005713901 0.010792924 -0.027934628 -0.012697558 -0.021585848
-0.026664872 0.010158046 -0.011427802 -0.01777658 -0.019681215 0.010792924 0.004444145 -0.023490481
-0.03618804 0.0025395115 0.006983657 -0.015871948 -0.03364853 -0.0031743895 0.0019046336 -0.015237069
0.010158046 -0.026029993 0.005079023 -0.01841146 -0.009523168 -0.028569505 -0.025395116 -0.043806575
-0.027934628 -0.013967314 0.005079023 -0.01841146 -0.026664872 0.013332436 0.0025395115 -0.037457794
-0.027934628 -0.043171696 -0.015237069 -0.010158046 -0.005713901 0.004444145 0.015237069 0.0038092672
0.0076185344 -0.01841146 -0.026029993 -0.03237877 -0.040632185 -0.031743895 -0.0031743895 -0.019046336
-0.015871948 -0.022220725 -0.037457794 -0.03364853 -0.026029993 0.0031743895 0.0038092672 -0.060948275
0.010158046 -0.040632185 -0.0038092672 -0.045711208 -0.01206268 0.00888829 0.01841146 -0.023490481
0.0 -0.0012697558 0.008253412 -0.01841146 -0.028569505 0.0 0.011427802 -0.0038092672
0.004444145 -0.0025395115 -0.013967314 -0.02412536 0.013967314 -0.0076185344 -0.005713901 0.0076185344
-0.0076185344 -0.0012697558 0.01206268 -0.019046336 -0.03237877 -0.01206268 -0.019681215 -0.027934628
-0.012697558 0.0 -0.022220725 0.004444145 -0.010792924 0.015871948 0.0031743895 0.005079023
-0.03618804 -0.039997306 0.0031743895 -0.011427802 -0.01841146 -0.031743895 0.0019046336 -0.031743895
0.022855604 0.0076185344 -0.027934628 -0.038092673 -0.027934628 0.004444145 0.009523168 0.027299749
-0.008253412 -0.0019046336 -0.0038092672 -0.0019046336 -0.04444145 -0.03237877 -0.015237069 -0.054599497
-0.0076185344 -0.009523168 -0.013332436 -0.013332436 0.006348779 -0.0012697558 0.016506825 0.005079023
0.005713901 0.0038092672 -0.022855604 -0.02412536 -0.030474138 -0.0006348779 0.013332436 0.015871948
0.0076185344 -0.005079023 0.015871948 -0.008253412 -0.006348779 -0.0076185344 0.010158046 -0.027934628
-0.006983657 0.0006348779 -0.030474138 -0.006983657 0.0012697558 -0.01777658 -0.028569505 -0.0025395115
-0.020316092 0.006348779 -0.0076185344 0.005713901 -0.026029993 -0.0006348779 0.005713901 -0.019046336
-0.010158046 -0.026029993 0.011427802 0.006348779 -0.034918282 -0.020316092 -0.026029993 -0.014602192
-0.0019046336 0.005079023 -0.02983926 0.006348779 -0.0025395115 -0.015871948 -0.006983657 0.008253412
-0.04444145 -0.021585848 0.005713901 0.0031743895 0.0031743895 0.0031743895 -0.02095097 -0.02983926
-0.02983926 0.0076185344 -0.028569505 -0.015237069 -0.01841146 0.0 -0.02412536 0.010158046
0.010792924 -0.025395116 -0.01777658 0.013332436 -0.01206268 -0.0019046336 -0.005079023 -0.010792924
-0.027299749 -0.005713901 0.0 0.006983657 0.006983657 -0.006983657 -0.019681215 -0.019046336
-0.00888829 -0.030474138 -0.019681215 0.004444145 -0.03301365 -0.026029993 0.01841146 -0.016506825
-0.043171696 0.0012697558 -0.013967314 -0.016506825 -0.010158046 -0.00888829 -0.0025395115 -0.009523168
-0.045711208 -0.014602192 0.009523168 -0.012697558 0.004444145 -0.005079023 -0.008253412 -0.017141704
-0.013967314 -0.012697558 -0.034283407 -0.015237069 -0.028569505 0.01206268 -0.011427802 0.019681215
-0.015871948 0.021585848 -0.0006348779 0.012697558 0.005079023 0.0006348779 -0.020316092 -0.010158046

tfl.pseudo_qconst3 i1 [64, 1, 1, 64]
00000000: f199 d5d4 bb51 e06b 3448 cef2 d9c4 13c7
00000010: 67f5 fb8a 3b6c ad37 d1d7 b5c6 8169 2a14
00000020: 4620 a3ca 03a0 c191 bd47 f06d bb6b b0b7
00000030: 0b0c 7e7d 7dfd 2d26 f15e aeea b309 622b
00000040: ed0a e0df e9fd f14a da30 4cb0 676f 3921
00000050: 8584 5884 dbf7 1f1a f2cc 09da f4d8 e359
00000060: 48a6 5058 a1c4 e738 9cc6 1ba0 81dd 6b27
00000070: 6f4b 1640 3e8c 0bae 768f 5a33 a6f7 67de
00000080: 0a64 6b48 33a7 9507 cd18 2846 555d 0b7f
00000090: c4c1 51ac afec 74b6 ff14 ecc7 4f2a 2af2
000000a0: fcf5 3020 410f d9b8 f2d3 dc51 f0fe a89f
000000b0: f0b4 5244 5467 354f 15f3 911e dfd7 d905
000000c0: 4143 7279 ffc5 9365 90d7 fe09 a551 4f0b
000000d0: 4d81 9c13 2635 9be2 f903 7225 10c4 db25
000000e0: 5bd0 783f ad0f 173a 1fab 784a 8afe 4b0d
000000f0: 0832 90f5 a612 8852 cd8f 36c4 d61c d238
-15 -103 -43 -44 -69 81 -32 107
52 72 -50 -14 -39 -60 19 -57
103 -11 -5 -118 59 108 -83 55
-47 -41 -75 -58 -127 105 42 20
70 32 -93 -54 3 -96 -63 -111
-67 71 -16 109 -69 107 -80 -73
11 12 126 125 125 -3 45 38
-15 94 -82 -22 -77 9 98 43
-19 10 -32 -33 -23 -3 -15 74
-38 48 76 -80 103 111 57 33
-123 -124 88 -124 -37 -9 31 26
-14 -52 9 -38 -12 -40 -29 89
72 -90 80 88 -95 -60 -25 56
-100 -58 27 -96 -127 -35 107 39
111 75 22 64 62 -116 11 -82
118 -113 90 51 -90 -9 103 -34
10 100 107 72 51 -89 -107 7
-51 24 40 70 85 93 11 127
-60 -63 81 -84 -81 -20 116 -74
-1 20 -20 -57 79 42 42 -14
-4 -11 48 32 65 15 -39 -72
-14 -45 -36 81 -16 -2 -88 -97
-16 -76 82 68 84 103 53 79
21 -13 -111 30 -33 -41 -39 5
65 67 114 121 -1 -59 -109 101
-112 -41 -2 9 -91 81 79 11
77 -127 -100 19 38 53 -101 -30
-7 3 114 37 16 -60 -37 37
91 -48 120 63 -83 15 23 58
31 -85 120 74 -118 -2 75 13
8 50 -112 -11 -90 18 -120 82
-51 -113 54 -60 -42 28 -46 56

tfl.pseudo_qconst5 i1 [1, 23, 1, 64]
00000000: 6fe7 29e6 a014 3592 4f1c bf7f 640d 4c62
00000010: 61f8 daf5 2fc3 9eb5 8142 fd41 0ee0 2d4e
00000020: b002 cfdd 35b6 902d 29d7 252f f045 07fe
00000030: 137f fc4a cde3 12cd c691 3358 3f5f 4aaa
00000040: 76e0 dae4 36d6 a928 1e1a 2245 2e40 d16f
00000050: f53e 7a51 1ca8 cfa8 1e36 0ac3 c8b8 e140
00000060: 19f1 3c7d 2224 9c43 4246 ae03 184c 2821
00000070: 370c 3a00 f8f5 f49d f082 1b5b fb73 5e55
00000080: 3372 cfe7 0cc3 d837 dd07 ffe2 7f56 001a
00000090: f5cd 7fde 34b7 6008 32cd 418b 11cc a8f2
000000a0: 0011 fe4d 06b9 d89c 23c3 c6e2 2055 d150
000000b0: ec06 ed79 1b09 dcc9 e8c1 322f 473f 2b2a
000000c0: 40ad d11e e34a f5cc b707 0a06 c9f8 2248
000000d0: 2c19 0a13 cd01 25d0 b8f3 3cfd 091a 8940
000000e0: cc41 d258 6c26 8f10 2111 a7c0 bc3c 1729
000000f0: cf72 cef2 bf2c db95 fa9e 35e1 b12b 33c3
111 -25 41 -26 -96 20 53 -110
79 28 -65 127 100 13 76 98
97 -8 -38 -11 47 -61 -98 -75
-127 66 -3 65 14 -32 45 78
-80 2 -49 -35 53 -74 -112 45
41 -41 37 47 -16 69 7 -2
19 127 -4 74 -51 -29 18 -51
-58 -111 51 88 63 95 74 -86
118 -32 -38 -28 54 -42 -87 40
30 26 34 69 46 64 -47 111
-11 62 122 81 28 -88 -49 -88
30 54 10 -61 -56 -72 -31 64
25 -15 60 125 34 36 -100 67
66 70 -82 3 24 76 40 33
55 12 58 0 -8 -11 -12 -99
-16 -126 27 91 -5 115 94 85
51 114 -49 -25 12 -61 -40 55
-35 7 -1 -30 127 86 0 26
-11 -51 127 -34 52 -73 96 8
50 -51 65 -117 17 -52 -88 -14
0 17 -2 77 6 -71 -40 -100
35 -61 -58 -30 32 85 -47 80
-20 6 -19 121 27 9 -36 -55
-24 -63 50 47 71 63 43 42
64 -83 -47 30 -29 74 -11 -52
-73 7 10 6 -55 -8 34 72
44 25 10 19 -51 1 37 -48
-72 -13 60 -3 9 26 -119 64
-52 65 -46 88 108 38 -113 16
33 17 -89 -64 -68 60 23 41
-49 114 -50 -14 -65 44 -37 -107
-6 -98 53 -31 -79 43 51 -61

tfl.pseudo_qconst7 i1 [64, 1, 1, 64]
00000000: c833 0db4 a20e 2697 0a07 d239 a133 85b9
00000010: 4448 0b60 05e4 8a11 b565 e4b9 eb29 c665
00000020: f791 56ed b1a9 0460 450d 2225 4420 a004
00000030: f881 de06 9a4d 0c3a a0f9 b5ad 1262 e328
00000040: 4f04 4afd f138 bd0d 2562 f3c6 b7db adb4
00000050: 86e6 9e35 2790 0a3d e053 08a0 0c3d 1c0e
00000060: 0ae1 c13b d02b ff60 4a2a c745 9e3f 712a
00000070: c69f 43ef b141 0c46 7fa9 b7c2 b8d6 b0fe
00000080: f8e9 031c c556 e65e 16c4 1ec0 7fff a2ca
00000090: 22ed cecd d6d3 d31f a770 32cc c79a c30b
000000a0: 43ff a0df ffed 02cd 2d08 b73f b327 aae8
000000b0: 29eb a06f b042 9cdc 4393 d059 14ff d932
000000c0: c2fe 2d09 5cb3 0441 00bf 37ce c6fe bfba
000000d0: 4b47 d623 b2bd 276f e8d9 a468 b3b2 979d
000000e0: 58b1 7f9b 40af 1a42 d568 0ad3 370f 01ad
000000f0: e421 a90d 3c53 d606 ebe2 359e fd67 0bff
-56 51 13 -76 -94 14 38 -105
10 7 -46 57 -95 51 -123 -71
68 72 11 96 5 -28 -118 17
-75 101 -28 -71 -21 41 -58 101
-9 -111 86 -19 -79 -87 4 96
69 13 34 37 68 32 -96 4
-8 -127 -34 6 -102 77 12 58
-96 -7 -75 -83 18 98 -29 40
79 4 74 -3 -15 56 -67 13
37 98 -13 -58 -73 -37 -83 -76
-122 -26 -98 53 39 -112 10 61
-32 83 8 -96 12 61 28 14
10 -31 -63 59 -48 43 -1 96
74 42 -57 69 -98 63 113 42
-58 -97 67 -17 -79 65 12 70
127 -87 -73 -62 -72 -42 -80 -2
-8 -23 3 28 -59 86 -26 94
22 -60 30 -64 127 -1 -94 -54
34 -19 -50 -51 -42 -45 -45 31
-89 112 50 -52 -57 -102 -61 11
67 -1 -96 -33 -1 -19 2 -51
45 8 -73 63 -77 39 -86 -24
41 -21 -96 111 -80 66 -100 -36
67 -109 -48 89 20 -1 -39 50
-62 -2 45 9 92 -77 4 65
0 -65 55 -50 -58 -2 -65 -70
75 71 -42 35 -78 -67 39 111
-24 -39 -92 104 -77 -78 -105 -99
88 -79 127 -101 64 -81 26 66
-43 104 10 -45 55 15 1 -83
-28 33 -87 13 60 83 -42 6
-21 -30 53 -98 -3 103 11 -1

tfl.pseudo_qconst9 i1 [1, 15, 1, 32]
00000000: 8404 7503 ac57 2a56 5190 d715 0474 e48d
00000010: dc86 d4f9 ffe0 a66f 2d50 6afa 6a3b f789
00000020: 2fd8 7fc0 c8ef 40ba 0485 a5e5 9746 11f8
00000030: 7945 e1ed 18cd a053 e583 8ceb 054e d9c0
00000040: 7560 50c8 3d1a 5fb6 0aa1 1233 d207 11a8
00000050: 0d0b d717 0b14 90ee 9b00 b2fb 2ef7 0400
00000060: 0f0e efef 907f c0af 9681 bb34 ac7f 2f2e
00000070: 6d6f 9e99 b486 e152 9051 ee44 7f64 c8a2
00000080: 5e37 41ea 43be e132 8181 201a f842 8125
00000090: e27f 3b0c 0081 20ea 27c4 b58d 60e4 2562
000000a0: b3e2 03d2 28cc 9b8b 2de0 3d39 0bd6 8f01
000000b0: 6d38 a1d1 81cd bffc ae2e 34ee 4379 47fe
000000c0: 1e57 12fe 28c9 81f3 c9d7 4911 e2f4 4132
000000d0: d90a d3bb 1de4 a4bf e05b 2fa3 fc7f 4000
000000e0: e0c4 1fd1 1fe1 fcee edd5 dc32 e927 610a
000000f0: 16ba 8481 9a38 4efd 2cce 7feb 28da 231d
-124 4 117 3 -84 87 42 86
81 -112 -41 21 4 116 -28 -115
-36 -122 -44 -7 -1 -32 -90 111
45 80 106 -6 106 59 -9 -119
47 -40 127 -64 -56 -17 64 -70
4 -123 -91 -27 -105 70 17 -8
121 69 -31 -19 24 -51 -96 83
-27 -125 -116 -21 5 78 -39 -64
117 96 80 -56 61 26 95 -74
10 -95 18 51 -46 7 17 -88
13 11 -41 23 11 20 -112 -18
-101 0 -78 -5 46 -9 4 0
15 14 -17 -17 -112 127 -64 -81
-106 -127 -69 52 -84 127 47 46
109 111 -98 -103 -76 -122 -31 82
-112 81 -18 68 127 100 -56 -94
94 55 65 -22 67 -66 -31 50
-127 -127 32 26 -8 66 -127 37
-30 127 59 12 0 -127 32 -22
39 -60 -75 -115 96 -28 37 98
-77 -30 3 -46 40 -52 -101 -117
45 -32 61 57 11 -42 -113 1
109 56 -95 -47 -127 -51 -65 -4
-82 46 52 -18 67 121 71 -2
30 87 18 -2 40 -55 -127 -13
-55 -41 73 17 -30 -12 65 50
-39 10 -45 -69 29 -28 -92 -65
-32 91 47 -93 -4 127 64 0
-32 -60 31 -47 31 -31 -4 -18
-19 -43 -36 50 -23 39 97 10
22 -70 -124 -127 -102 56 78 -3
44 -50 127 -21 40 -38 35 29

tfl.pseudo_qconst11 i1 [1, 9, 1, 32]
00000000: 5668 c613 f625 5ee2 6c81 f736 8126 83bf
00000010: 7e15 1bc9 9fbd f601 7fef 3342 60bc 0e29
00000020: 43bb 02b0 8cc2 c13f c4f3 2d44 c47b e996
00000030: 8f0b b875 3ff8 3060 f07f 853e 2be9 fbbf
00000040: 7fd2 cb5b 5181 c8d0 4cb7 5e2a b4b9 2bfe
00000050: 7f21 be45 7f87 be42 a9a7 0eb2 3173 12fa
00000060: 1940 7f57 e5f7 a381 24b9 89a1 dd15 f4dc
00000070: 75c1 9a60 cd33 cb35 5839 8197 0b75 7f65
00000080: 6c81 66d8 8198 5220 715b 6ae6 097f a734
00000090: 9627 914c 317f 9eca 3277 d681 56ba 60af
000000a0: 87a3 cb7f 363c 7f1c 3768 a3df 4229 c281
000000b0: 4632 bf09 29ac b27a 95fc cd8d 914f 651f
000000c0: e298 d239 23fc ae3c cc67 97bb abb6 2813
000000d0: 2e20 8166 819b 3c6b ac65 c3da 147f 553b
000000e0: 6ef1 af2d 2abc 06b9 1bcc 3f81 3190 81d7
000000f0: e41c 6ad9 4752 810a 4a3c 9c8e 92e5 1f7f
86 104 -58 19 -10 37 94 -30
108 -127 -9 54 -127 38 -125 -65
126 21 27 -55 -97 -67 -10 1
127 -17 51 66 96 -68 14 41
67 -69 2 -80 -116 -62 -63 63
-60 -13 45 68 -60 123 -23 -106
-113 11 -72 117 63 -8 48 96
-16 127 -123 62 43 -23 -5 -65
127 -46 -53 91 81 -127 -56 -48
76 -73 94 42 -76 -71 43 -2
127 33 -66 69 127 -121 -66 66
-87 -89 14 -78 49 115 18 -6
25 64 127 87 -27 -9 -93 -127
36 -71 -119 -95 -35 21 -12 -36
117 -63 -102 96 -51 51 -53 53
88 57 -127 -105 11 117 127 101
108 -127 102 -40 -127 -104 82 32
113 91 106 -26 9 127 -89 52
-106 39 -111 76 49 127 -98 -54
50 119 -42 -127 86 -70 96 -81
-121 -93 -53 127 54 60 127 28
55 104 -93 -33 66 41 -62 -127
70 50 -65 9 41 -84 -78 122
-107 -4 -51 -115 -111 79 101 31
-30 -104 -46 57 35 -4 -82 60
-52 103 -105 -69 -85 -74 40 19
46 32 -127 102 -127 -101 60 107
-84 101 -61 -38 20 127 85 59
110 -15 -81 45 42 -68 6 -71
27 -52 63 -127 49 -112 -127 -41
-28 28 106 -39 71 82 -127 10
74 60 -100 -114 -110 -27 31 127

tfl.pseudo_qconst13 i1 [64, 1, 1, 64]
00000000: aac5 0fd1 65c6 33a8 4947 db31 f8f6 5961
00000010: c0dc 7af0 a502 8116 ae4e ada6 c8dd 05fa
00000020: f878 2d3f 6bee 0513 bd6f 71a4 62e4 6be0
00000030: 605d 46b2 6f5c b83c ccda 23e2 7326 b2e2
00000040: 4b63 64d9 30fe e6d5 5dbf 513f dc61 abdb
00000050: 9c30 fcda 99cf 21f3 1730 f399 1da6 c7eb
00000060: 9c0e f78c 52c4 1fef 08c1 1a59 93eb 0808
00000070: ca2d 2849 0ac3 4512 8113 b6c2 d9e2 cf4a
00000080: 2d65 14a5 64e9 c423 c923 ba25 c809 086d
00000090: 47b9 646a d79f d738 c7d4 9f0c a3d3 67db
000000a0: ff4a b9df 1986 8da9 ec65 b0ce dbd2 f019
000000b0: 1d1c 5ee0 7644 b37f 3e1d e5e2 db6c 4509
000000c0: 93b5 9cad b9e6 ec90 a7e7 b3a9 8f5b 49eb
000000d0: 0b05 365a 7f19 166d 513c a4d8 da19 084e
000000e0: f4ba 62ef c93a 5e15 3a1f 9902 ff30 f452
000000f0: dc71 3d59 2229 c510 f69a 1e06 960e 1727
-86 -59 15 -47 101 -58 51 -88
73 71 -37 49 -8 -10 89 97
-64 -36 122 -16 -91 2 -127 22
-82 78 -83 -90 -56 -35 5 -6
-8 120 45 63 107 -18 5 19
-67 111 113 -92 98 -28 107 -32
96 93 70 -78 111 92 -72 60
-52 -38 35 -30 115 38 -78 -30
75 99 100 -39 48 -2 -26 -43
93 -65 81 63 -36 97 -85 -37
-100 48 -4 -38 -103 -49 33 -13
23 48 -13 -103 29 -90 -57 -21
-100 14 -9 -116 82 -60 31 -17
8 -63 26 89 -109 -21 8 8
-54 45 40 73 10 -61 69 18
-127 19 -74 -62 -39 -30 -49 74
45 101 20 -91 100 -23 -60 35
-55 35 -70 37 -56 9 8 109
71 -71 100 106 -41 -97 -41 56
-57 -44 -97 12 -93 -45 103 -37
-1 74 -71 -33 25 -122 -115 -87
-20 101 -80 -50 -37 -46 -16 25
29 28 94 -32 118 68 -77 127
62 29 -27 -30 -37 108 69 9
-109 -75 -100 -83 -71 -26 -20 -112
-89 -25 -77 -87 -113 91 73 -21
11 5 54 90 127 25 22 109
81 60 -92 -40 -38 25 8 78
-12 -70 98 -17 -55 58 94 21
58 31 -103 2 -1 48 -12 82
-36 113 61 89 34 41 -59 16
-10 -102 30 6 -106 14 23 39

tfl.pseudo_qconst15 i1 [1, 11, 1, 32]
00000000: 7f1d ed19 9609 f67f e35c 9d09 a466 52bb
00000010: ac83 71dc b281 7f96 df47 4778 7ec3 2501
00000020: df7f 2313 c112 8128 9f2d c356 7f2d b5ea
00000030: 2299 7ff7 2fa2 7581 e851 f2c3 edcd 815a
00000040: b7e9 58a5 4e5b aabd 3bd9 380a 3b7f 4720
00000050: 4c61 1581 96e9 c50d b65a 8d86 3881 cbd0
00000060: 0ab3 7f2e 5851 07c0 2234 052e 08da 8c47
00000070: 877c 94c7 619c d64b 2391 c1ed 1488 9ec1
00000080: c2c1 4c40 7fa3 eafd 8181 40e8 f484 9c9f
00000090: 3a7f 2398 026a c061 81cf 4b85 bb42 bd02
000000a0: bfc3 de6b d2e6 547d d032 a1ba a894 ee3f
000000b0: 874c c0a2 8188 2e6b 6fc4 ee19 7f40 c781
000000c0: 2d10 0510 b7a6 fd85 c3b6 8142 76d6 a8c7
000000d0: 4147 145c d14a bbca 7402 8193 cb0a 429e
000000e0: db09 967f eadd 9fa5 28da b43d c03d ff68
000000f0: 39da 420a a10c b0a9 4971 08ce 1726 d644
127 29 -19 25 -106 9 -10 127
-29 92 -99 9 -92 102 82 -69
-84 -125 113 -36 -78 -127 127 -106
-33 71 71 120 126 -61 37 1
-33 127 35 19 -63 18 -127 40
-97 45 -61 86 127 45 -75 -22
34 -103 127 -9 47 -94 117 -127
-24 81 -14 -61 -19 -51 -127 90
-73 -23 88 -91 78 91 -86 -67
59 -39 56 10 59 127 71 32
76 97 21 -127 -106 -23 -59 13
-74 90 -115 -122 56 -127 -53 -48
10 -77 127 46 88 81 7 -64
34 52 5 46 8 -38 -116 71
-121 124 -108 -57 97 -100 -42 75
35 -111 -63 -19 20 -120 -98 -63
-62 -63 76 64 127 -93 -22 -3
-127 -127 64 -24 -12 -124 -100 -97
58 127 35 -104 2 106 -64 97
-127 -49 75 -123 -69 66 -67 2
-65 -61 -34 107 -46 -26 84 125
-48 50 -95 -70 -88 -108 -18 63
-121 76 -64 -94 -127 -120 46 107
111 -60 -18 25 127 64 -57 -127
45 16 5 16 -73 -90 -3 -123
-61 -74 -127 66 118 -42 -88 -57
65 71 20 92 -47 74 -69 -54
116 2 -127 -109 -53 10 66 -98
-37 9 -106 127 -22 -35 -97 -91
40 -38 -76 61 -64 61 -1 104
57 -38 66 10 -95 12 -80 -87
73 113 8 -50 23 38 -42 68

tfl.pseudo_qconst17 i1 [1, 7, 1, 32]
00000000: 9b4a 7f7f bfd2 8e4b 8181 05a4 7f3d 5ef5
00000010: e489 683d 7f5b 940f 26b8 8126 9c78 b4da
00000020: edcc 17ee ecec 8167 c9c5 2ef6 610b 75e7
00000030: 08ff 299f 282b 6b7f 1981 a1ec 2f85 59a7
00000040: 2581 e2aa 7f21 f57f dc03 e5bb d599 4be3
00000050: fdeb adf2 fbf9 7f4c 54bc 904d 9481 9a34
00000060: e71f c477 5822 2d65 0f0c 7ffd 0264 59fe
00000070: 03df 7f7e 56f4 4a4f 2d78 61ff 819c 817f
00000080: 3d92 6f36 34f7 8840 40c5 227f a57f 11c8
00000090: 1202 0d50 d181 fedb 32d2 7ff8 9637 6213
000000a0: 57b2 cce3 327f 49bc b2ea ad42 aaa1 81fb
000000b0: 9d23 eb7f cbd8 5faf 3f54 32c8 d46d 13dc
000000c0: 7fb8 b3be 2031 d738 fac1 16e8 e274 c181
000000d0: 7f7f d046 88ae 7ccf 7fbd 6281 e076 add1
-101 74 127 127 -65 -46 -114 75
-127 -127 5 -92 127 61 94 -11
-28 -119 104 61 127 91 -108 15
38 -72 -127 38 -100 120 -76 -38
-19 -52 23 -18 -20 -20 -127 103
-55 -59 46 -10 97 11 117 -25
8 -1 41 -97 40 43 107 127
25 -127 -95 -20 47 -123 89 -89
37 -127 -30 -86 127 33 -11 127
-36 3 -27 -69 -43 -103 75 -29
-3 -21 -83 -14 -5 -7 127 76
84 -68 -112 77 -108 -127 -102 52
-25 31 -60 119 88 34 45 101
15 12 127 -3 2 100 89 -2
3 -33 127 126 86 -12 74 79
45 120 97 -1 -127 -100 -127 127
61 -110 111 54 52 -9 -120 64
64 -59 34 127 -91 127 17 -56
18 2 13 80 -47 -127 -2 -37
50 -46 127 -8 -106 55 98 19
87 -78 -52 -29 50 127 73 -68
-78 -22 -83 66 -86 -95 -127 -5
-99 35 -21 127 -53 -40 95 -81
63 84 50 -56 -44 109 19 -36
127 -72 -77 -66 32 49 -41 56
-6 -63 22 -24 -30 116 -63 -127
127 127 -48 70 -120 -82 124 -49
127 -67 98 -127 -32 118 -83 -47

tfl.pseudo_qconst19 i1 [64, 1, 1, 32]
00000000: e4ca 7fcd 7788 9ca4 66ba 19ba 8efb afba
00000010: fdd7 6be7 a3a4 6eba c998 4bc7 427f f5b1
00000020: 5b7a f755 dcac 2bca d039 ebcd 5fdd 7f27
00000030: d4cb 4aa6 bb94 2fe0 8b1a 9bb0 2cac fb90
00000040: 3c90 b881 3497 6b3e c493 a4cc b8d5 fa32
00000050: e1b9 0f13 f461 fc36 c55c 03cf c89a 6eef
00000060: d020 8e71 c528 10da 4059 126a c5b2 f130
00000070: 36d5 35dc 1d81 3054 099a a1de 5e00 f444
00000080: 2ab8 b5f6 410b 1bca afb4 d758 dcc8 024a
00000090: 2eaf 2cbc 39df dce2 ad54 0cac 9d11 2381
000000a0: c187 e428 1dad 03f3 4bc8 9d9a 444d 205a
000000b0: b067 cb4f 81e3 6841 3667 c102 9c2c 3e12
000000c0: a6c6 19db d4db dc65 28bd aa44 062b 0ae1
000000d0: f6b7 8ffd e281 97a8 15b4 6c46 493b 6e70
000000e0: 03cb 043f abe5 1ab7 ce42 d839 9d60 0551
000000f0: 3457 d057 44f7 44f9 3c18 81f3 e5e6 4003
-28 -54 127 -51 119 -120 -100 -92
102 -70 25 -70 -114 -5 -81 -70
-3 -41 107 -25 -93 -92 110 -70
-55 -104 75 -57 66 127 -11 -79
91 122 -9 85 -36 -84 43 -54
-48 57 -21 -51 95 -35 127 39
-44 -53 74 -90 -69 -108 47 -32
-117 26 -101 -80 44 -84 -5 -112
60 -112 -72 -127 52 -105 107 62
-60 -109 -92 -52 -72 -43 -6 50
-31 -71 15 19 -12 97 -4 54
-59 92 3 -49 -56 -102 110 -17
-48 32 -114 113 -59 40 16 -38
64 89 18 106 -59 -78 -15 48
54 -43 53 -36 29 -127 48 84
9 -102 -95 -34 94 0 -12 68
42 -72 -75 -10 65 11 27 -54
-81 -76 -41 88 -36 -56 2 74
46 -81 44 -68 57 -33 -36 -30
-83 84 12 -84 -99 17 35 -127
-63 -121 -28 40 29 -83 3 -13
75 -56 -99 -102 68 77 32 90
-80 103 -53 79 -127 -29 104 65
54 103 -63 2 -100 44 62 18
-90 -58 25 -37 -44 -37 -36 101
40 -67 -86 68 6 43 10 -31
-10 -73 -113 -3 -30 -127 -105 -88
21 -76 108 70 73 59 110 112
3 -53 4 63 -85 -27 26 -73
-50 66 -40 57 -99 96 5 81
52 87 -48 87 68 -9 68 -7
60 24 -127 -13 -27 -26 64 3

tfl.pseudo_qconst21 i1 [1, 5, 1, 32]
00000000: c4d2 817f 5274 0a0d 7d23 ba29 5076 7f6a
00000010: 817f a926 d2cf 5053 4e5c ab7f 7f88 263f
00000020: 7f32 6a3c b477 549a 4c7e dd9c 9d48 1f7f
00000030: d36a f12d 87c2 4866 fa11 03ba 233c 6f35
00000040: c5ff c910 7fd9 8137 917f 7ce3 39c1 183e
00000050: 4803 7f9f 667e 7fdd 19c1 b2d2 cf4c a657
00000060: 3c81 d9b8 2d81 b29e d7de 8d12 f27f 45ba
00000070: 1543 6a7f 557f aa81 9081 81a1 49b4 1cc0
00000080: 36a0 e4d5 61b5 077f 7f37 817f 7f26 99fc
00000090: 8b53 f317 7fe6 1635 8124 e787 267f 7f81
-60 -46 -127 127 82 116 10 13
125 35 -70 41 80 118 127 106
-127 127 -87 38 -46 -49 80 83
78 92 -85 127 127 -120 38 63
127 50 106 60 -76 119 84 -102
76 126 -35 -100 -99 72 31 127
-45 106 -15 45 -121 -62 72 102
-6 17 3 -70 35 60 111 53
-59 -1 -55 16 127 -39 -127 55
-111 127 124 -29 57 -63 24 62
72 3 127 -97 102 126 127 -35
25 -63 -78 -46 -49 76 -90 87
60 -127 -39 -72 45 -127 -78 -98
-41 -34 -115 18 -14 127 69 -70
21 67 106 127 85 127 -86 -127
-112 -127 -127 -95 73 -76 28 -64
54 -96 -28 -43 97 -75 7 127
127 55 -127 127 127 38 -103 -4
-117 83 -13 23 127 -26 22 53
-127 36 -25 -121 38 127 127 -127

tfl.pseudo_qconst23 i1 [32, 5, 1, 40]
00000000: f2ce f2ca 2156 33a7 0039 ca14 c7a6 f405
00000010: 30fc 3d70 17b1 b5fb 13fd 9db0 ecbd 1e52
00000020: 8ec2 81a7 bdcf c023 abf6 bfc7 340c 4a57
00000030: 25b4 b49d 4146 5739 ae58 6105 3a3a 60c0
00000040: e635 f728 b825 3e48 a8bf 058a dfa7 20d2
00000050: 0cc8 583d d52a 9fbb d0c1 fcbc 2720 fab8
00000060: 0c60 be5e 3a9e e6b3 fed4 c50f e4de ca3e
00000070: 20c1 55a7 22ab 6633 aaa3 5dda 0aa1 9df8
00000080: 05ec b71c 4ea9 e42a 1616 b1b1 fcf5 0d3c
00000090: abf3 2910 b2f0 5646 2f2f b734 6c25 15e4
000000a0: 5e37 40a5 ffbe 2b51 1803 0ee3 8a03 1820
000000b0: f139 10c8 8afe eaf5 c609 f993 2191 4eaf
000000c0: 33f2 0ebe 45fb 36e8 d33a cd0f 0760 2b47
000000d0: 0011 26d5 fe32 0946 ea03 e9b9 42f6 4f5f
000000e0: 4d39 fade 3bbf b14b e5cc d9df da16 b540
000000f0: cebd 0129 c9ea 3aea f5f2 d055 b53d 274f
-14 -50 -14 -54 33 86 51 -89
0 57 -54 20 -57 -90 -12 5
48 -4 61 112 23 -79 -75 -5
19 -3 -99 -80 -20 -67 30 82
-114 -62 -127 -89 -67 -49 -64 35
-85 -10 -65 -57 52 12 74 87
37 -76 -76 -99 65 70 87 57
-82 88 97 5 58 58 96 -64
-26 53 -9 40 -72 37 62 72
-88 -65 5 -118 -33 -89 32 -46
12 -56 88 61 -43 42 -97 -69
-48 -63 -4 -68 39 32 -6 -72
12 96 -66 94 58 -98 -26 -77
-2 -44 -59 15 -28 -34 -54 62
32 -63 85 -89 34 -85 102 51
-86 -93 93 -38 10 -95 -99 -8
5 -20 -73 28 78 -87 -28 42
22 22 -79 -79 -4 -11 13 60
-85 -13 41 16 -78 -16 86 70
47 47 -73 52 108 37 21 -28
94 55 64 -91 -1 -66 43 81
24 3 14 -29 -118 3 24 32
-15 57 16 -56 -118 -2 -22 -11
-58 9 -7 -109 33 -111 78 -81
51 -14 14 -66 69 -5 54 -24
-45 58 -51 15 7 96 43 71
0 17 38 -43 -2 50 9 70
-22 3 -23 -71 66 -10 79 95
77 57 -6 -34 59 -65 -79 75
-27 -52 -39 -33 -38 22 -75 64
-50 -67 1 41 -55 -22 58 -22
-11 -14 -48 85 -75 61 39 79

arith.constant18 f4 [1, 14, 1, 64]
00000000: 0000 0000 0000 0000 0000 0000 0000 0000
00000010: 0000 0000 0000 0000 0000 0000 0000 0000
00000020: 0000 0000 0000 0000 0000 0000 0000 0000
00000030: 0000 0000 0000 0000 0000 0000 0000 0000
00000040: 0000 0000 0000 0000 0000 0000 0000 0000
00000050: 0000 0000 0000 0000 0000 0000 0000 0000
00000060: 0000 0000 0000 0000 0000 0000 0000 0000
00000070: 0000 0000 0000 0000 0000 0000 0000 0000
00000080: 0000 0000 0000 0000 0000 0000 0000 0000
00000090: 0000 0000 0000 0000 0000 0000 0000 0000
000000a0: 0000 0000 0000 0000 0000 0000 0000 0000
000000b0: 0000 0000 0000 0000 0000 0000 0000 0000
000000c0: 0000 0000 0000 0000 0000 0000 0000 0000
000000d0: 0000 0000 0000 0000 0000 0000 0000 0000
000000e0: 0000 0000 0000 0000 0000 0000 0000 0000
000000f0: 0000 0000 0000 0000 0000 0000 0000 0000
00000100: 0000 0000 0000 0000 0000 0000 0000 0000
00000110: 0000 0000 0000 0000 0000 0000 0000 0000
00000120: 0000 0000 0000 0000 0000 0000 0000 0000
00000130: 0000 0000 0000 0000 0000 0000 0000 0000
00000140: 0000 0000 0000 0000 0000 0000 0000 0000
00000150: 0000 0000 0000 0000 0000 0000 0000 0000
00000160: 0000 0000 0000 0000 0000 0000 0000 0000
00000170: 0000 0000 0000 0000 0000 0000 0000 0000
00000180: 0000 0000 0000 0000 0000 0000 0000 0000
00000190: 0000 0000 0000 0000 0000 0000 0000 0000
000001a0: 0000 0000 0000 0000 0000 0000 0000 0000
000001b0: 0000 0000 0000 0000 0000 0000 0000 0000
000001c0: 0000 0000 0000 0000 0000 0000 0000 0000
000001d0: 0000 0000 0000 0000 0000 0000 0000 0000
000001e0: 0000 0000 0000 0000 0000 0000 0000 0000
000001f0: 0000 0000 0000 0000 0000 0000 0000 0000
00000200: 0000 0000 0000 0000 0000 0000 0000 0000
00000210: 0000 0000 0000 0000 0000 0000 0000 0000
00000220: 0000 0000 0000 0000 0000 0000 0000 0000
00000230: 0000 0000 0000 0000 0000 0000 0000 0000
00000240: 0000 0000 0000 0000 0000 0000 0000 0000
00000250: 0000 0000 0000 0000 0000 0000 0000 0000
00000260: 0000 0000 0000 0000 0000 0000 0000 0000
00000270: 0000 0000 0000 0000 0000 0000 0000 0000
00000280: 0000 0000 0000 0000 0000 0000 0000 0000
00000290: 0000 0000 0000 0000 0000 0000 0000 0000
000002a0: 0000 0000 0000 0000 0000 0000 0000 0000
000002b0: 0000 0000 0000 0000 0000 0000 0000 0000
000002c0: 0000 0000 0000 0000 0000 0000 0000 0000
000002d0: 0000 0000 0000 0000 0000 0000 0000 0000
000002e0: 0000 0000 0000 0000 0000 0000 0000 0000
000002f0: 0000 0000 0000 0000 0000 0000 0000 0000
00000300: 0000 0000 0000 0000 0000 0000 0000 0000
00000310: 0000 0000 0000 0000 0000 0000 0000 0000
00000320: 0000 0000 0000 0000 0000 0000 0000 0000
00000330: 0000 0000 0000 0000 0000 0000 0000 0000
00000340: 0000 0000 0000 0000 0000 0000 0000 0000
00000350: 0000 0000 0000 0000 0000 0000 0000 0000
00000360: 0000 0000 0000 0000 0000 0000 0000 0000
00000370: 0000 0000 0000 0000 0000 0000 0000 0000
00000380: 0000 0000 0000 0000 0000 0000 0000 0000
00000390: 0000 0000 0000 0000 0000 0000 0000 0000
000003a0: 0000 0000 0000 0000 0000 0000 0000 0000
000003b0: 0000 0000 0000 0000 0000 0000 0000 0000
000003c0: 0000 0000 0000 0000 0000 0000 0000 0000
000003d0: 0000 0000 0000 0000 0000 0000 0000 0000
000003e0: 0000 0000 0000 0000 0000 0000 0000 0000
000003f0: 0000 0000 0000 0000 0000 0000 0000 0000
0.0 0.0 0.0 0.0 0.0 0.0 0.0 0.0
0.0 0.0 0.0 0.0 0.0 0.0 0.0 0.0
0.0 0.0 0.0 0.0 0.0 0.0 0.0 0.0
0.0 0.0 0.0 0.0 0.0 0.0 0.0 0.0
0.0 0.0 0.0 0.0 0.0 0.0 0.0 0.0
0.0 0.0 0.0 0.0 0.0 0.0 0.0 0.0
0.0 0.0 0.0 0.0 0.0 0.0 0.0 0.0
0.0 0.0 0.0 0.0 0.0 0.0 0.0 0.0
0.0 0.0 0.0 0.0 0.0 0.0 0.0 0.0
0.0 0.0 0.0 0.0 0.0 0.0 0.0 0.0
0.0 0.0 0.0 0.0 0.0 0.0 0.0 0.0
0.0 0.0 0.0 0.0 0.0 0.0 0.0 0.0
0.0 0.0 0.0 0.0 0.0 0.0 0.0 0.0
0.0 0.0 0.0 0.0 0.0 0.0 0.0 0.0
0.0 0.0 0.0 0.0 0.0 0.0 0.0 0.0
0.0 0.0 0.0 0.0 0.0 0.0 0.0 0.0
0.0 0.0 0.0 0.0 0.0 0.0 0.0 0.0
0.0 0.0 0.0 0.0 0.0 0.0 0.0 0.0
0.0 0.0 0.0 0.0 0.0 0.0 0.0 0.0
0.0 0.0 0.0 0.0 0.0 0.0 0.0 0.0
0.0 0.0 0.0 0.0 0.0 0.0 0.0 0.0
0.0 0.0 0.0 0.0 0.0 0.0 0.0 0.0
0.0 0.0 0.0 0.0 0.0 0.0 0.0 0.0
0.0 0.0 0.0 0.0 0.0 0.0 0.0 0.0
0.0 0.0 0.0 0.0 0.0 0.0 0.0 0.0
0.0 0.0 0.0 0.0 0.0 0.0 0.0 0.0
0.0 0.0 0.0 0.0 0.0 0.0 0.0 0.0
0.0 0.0 0.0 0.0 0.0 0.0 0.0 0.0
0.0 0.0 0.0 0.0 0.0 0.0 0.0 0.0
0.0 0.0 0.0 0.0 0.0 0.0 0.0 0.0
0.0 0.0 0.0 0.0 0.0 0.0 0.0 0.0
0.0 0.0 0.0 0.0 0.0 0.0 0.0 0.0

arith.constant19 f4 [1, 10, 1, 64]
00000000: 0000 0000 0000 0000 0000 0000 0000 0000
00000010: 0000 0000 0000 0000 0000 0000 0000 0000
00000020: 0000 0000 0000 0000 0000 0000 0000 0000
00000030: 0000 0000 0000 0000 0000 0000 0000 0000
00000040: 0000 0000 0000 0000 0000 0000 0000 0000
00000050: 0000 0000 0000 0000 0000 0000 0000 0000
00000060: 0000 0000 0000 0000 0000 0000 0000 0000
00000070: 0000 0000 0000 0000 0000 0000 0000 0000
00000080: 0000 0000 0000 0000 0000 0000 0000 0000
00000090: 0000 0000 0000 0000 0000 0000 0000 0000
000000a0: 0000 0000 0000 0000 0000 0000 0000 0000
000000b0: 0000 0000 0000 0000 0000 0000 0000 0000
000000c0: 0000 0000 0000 0000 0000 0000 0000 0000
000000d0: 0000 0000 0000 0000 0000 0000 0000 0000
000000e0: 0000 0000 0000 0000 0000 0000 0000 0000
000000f0: 0000 0000 0000 0000 0000 0000 0000 0000
00000100: 0000 0000 0000 0000 0000 0000 0000 0000
00000110: 0000 0000 0000 0000 0000 0000 0000 0000
00000120: 0000 0000 0000 0000 0000 0000 0000 0000
00000130: 0000 0000 0000 0000 0000 0000 0000 0000
00000140: 0000 0000 0000 0000 0000 0000 0000 0000
00000150: 0000 0000 0000 0000 0000 0000 0000 0000
00000160: 0000 0000 0000 0000 0000 0000 0000 0000
00000170: 0000 0000 0000 0000 0000 0000 0000 0000
00000180: 0000 0000 0000 0000 0000 0000 0000 0000
00000190: 0000 0000 0000 0000 0000 0000 0000 0000
000001a0: 0000 0000 0000 0000 0000 0000 0000 0000
000001b0: 0000 0000 0000 0000 0000 0000 0000 0000
000001c0: 0000 0000 0000 0000 0000 0000 0000 0000
000001d0: 0000 0000 0000 0000 0000 0000 0000 0000
000001e0: 0000 0000 0000 0000 0000 0000 0000 0000
000001f0: 0000 0000 0000 0000 0000 0000 0000 0000
00000200: 0000 0000 0000 0000 0000 0000 0000 0000
00000210: 0000 0000 0000 0000 0000 0000 0000 0000
00000220: 0000 0000 0000 0000 0000 0000 0000 0000
00000230: 0000 0000 0000 0000 0000 0000 0000 0000
00000240: 0000 0000 0000 0000 0000 0000 0000 0000
00000250: 0000 0000 0000 0000 0000 0000 0000 0000
00000260: 0000 0000 0000 0000 0000 0000 0000 0000
00000270: 0000 0000 0000 0000 0000 0000 0000 0000
00000280: 0000 0000 0000 0000 0000 0000 0000 0000
00000290: 0000 0000 0000 0000 0000 0000 0000 0000
000002a0: 0000 0000 0000 0000 0000 0000 0000 0000
000002b0: 0000 0000 0000 0000 0000 0000 0000 0000
000002c0: 0000 0000 0000 0000 0000 0000 0000 0000
000002d0: 0000 0000 0000 0000 0000 0000 0000 0000
000002e0: 0000 0000 0000 0000 0000 0000 0000 0000
000002f0: 0000 0000 0000 0000 0000 0000 0000 0000
00000300: 0000 0000 0000 0000 0000 0000 0000 0000
00000310: 0000 0000 0000 0000 0000 0000 0000 0000
00000320: 0000 0000 0000 0000 0000 0000 0000 0000
00000330: 0000 0000 0000 0000 0000 0000 0000 0000
00000340: 0000 0000 0000 0000 0000 0000 0000 0000
00000350: 0000 0000 0000 0000 0000 0000 0000 0000
00000360: 0000 0000 0000 0000 0000 0000 0000 0000
00000370: 0000 0000 0000 0000 0000 0000 0000 0000
00000380: 0000 0000 0000 0000 0000 0000 0000 0000
00000390: 0000 0000 0000 0000 0000 0000 0000 0000
000003a0: 0000 0000 0000 0000 0000 0000 0000 0000
000003b0: 0000 0000 0000 0000 0000 0000 0000 0000
000003c0: 0000 0000 0000 0000 0000 0000 0000 0000
000003d0: 0000 0000 0000 0000 0000 0000 0000 0000
000003e0: 0000 0000 0000 0000 0000 0000 0000 0000
000003f0: 0000 0000 0000 0000 0000 0000 0000 0000
0.0 0.0 0.0 0.0 0.0 0.0 0.0 0.0
0.0 0.0 0.0 0.0 0.0 0.0 0.0 0.0
0.0 0.0 0.0 0.0 0.0 0.0 0.0 0.0
0.0 0.0 0.0 0.0 0.0 0.0 0.0 0.0
0.0 0.0 0.0 0.0 0.0 0.0 0.0 0.0
0.0 0.0 0.0 0.0 0.0 0.0 0.0 0.0
0.0 0.0 0.0 0.0 0.0 0.0 0.0 0.0
0.0 0.0 0.0 0.0 0.0 0.0 0.0 0.0
0.0 0.0 0.0 0.0 0.0 0.0 0.0 0.0
0.0 0.0 0.0 0.0 0.0 0.0 0.0 0.0
0.0 0.0 0.0 0.0 0.0 0.0 0.0 0.0
0.0 0.0 0.0 0.0 0.0 0.0 0.0 0.0
0.0 0.0 0.0 0.0 0.0 0.0 0.0 0.0
0.0 0.0 0.0 0.0 0.0 0.0 0.0 0.0
0.0 0.0 0.0 0.0 0.0 0.0 0.0 0.0
0.0 0.0 0.0 0.0 0.0 0.0 0.0 0.0
0.0 0.0 0.0 0.0 0.0 0.0 0.0 0.0
0.0 0.0 0.0 0.0 0.0 0.0 0.0 0.0
0.0 0.0 0.0 0.0 0.0 0.0 0.0 0.0
0.0 0.0 0.0 0.0 0.0 0.0 0.0 0.0
0.0 0.0 0.0 0.0 0.0 0.0 0.0 0.0
0.0 0.0 0.0 0.0 0.0 0.0 0.0 0.0
0.0 0.0 0.0 0.0 0.0 0.0 0.0 0.0
0.0 0.0 0.0 0.0 0.0 0.0 0.0 0.0
0.0 0.0 0.0 0.0 0.0 0.0 0.0 0.0
0.0 0.0 0.0 0.0 0.0 0.0 0.0 0.0
0.0 0.0 0.0 0.0 0.0 0.0 0.0 0.0
0.0 0.0 0.0 0.0 0.0 0.0 0.0 0.0
0.0 0.0 0.0 0.0 0.0 0.0 0.0 0.0
0.0 0.0 0.0 0.0 0.0 0.0 0.0 0.0
0.0 0.0 0.0 0.0 0.0 0.0 0.0 0.0
0.0 0.0 0.0 0.0 0.0 0.0 0.0 0.0

arith.constant20 f4 [1, 4, 1, 32]
00000000: 0000 0000 0000 0000 0000 0000 0000 0000
00000010: 0000 0000 0000 0000 0000 0000 0000 0000
00000020: 0000 0000 0000 0000 0000 0000 0000 0000
00000030: 0000 0000 0000 0000 0000 0000 0000 0000
00000040: 0000 0000 0000 0000 0000 0000 0000 0000
00000050: 0000 0000 0000 0000 0000 0000 0000 0000
00000060: 0000 0000 0000 0000 0000 0000 0000 0000
00000070: 0000 0000 0000 0000 0000 0000 0000 0000
00000080: 0000 0000 0000 0000 0000 0000 0000 0000
00000090: 0000 0000 0000 0000 0000 0000 0000 0000
000000a0: 0000 0000 0000 0000 0000 0000 0000 0000
000000b0: 0000 0000 0000 0000 0000 0000 0000 0000
000000c0: 0000 0000 0000 0000 0000 0000 0000 0000
000000d0: 0000 0000 0000 0000 0000 0000 0000 0000
000000e0: 0000 0000 0000 0000 0000 0000 0000 0000
000000f0: 0000 0000 0000 0000 0000 0000 0000 0000
00000100: 0000 0000 0000 0000 0000 0000 0000 0000
00000110: 0000 0000 0000 0000 0000 0000 0000 0000
00000120: 0000 0000 0000 0000 0000 0000 0000 0000
00000130: 0000 0000 0000 0000 0000 0000 0000 0000
00000140: 0000 0000 0000 0000 0000 0000 0000 0000
00000150: 0000 0000 0000 0000 0000 0000 0000 0000
00000160: 0000 0000 0000 0000 0000 0000 0000 0000
00000170: 0000 0000 0000 0000 0000 0000 0000 0000
00000180: 0000 0000 0000 0000 0000 0000 0000 0000
00000190: 0000 0000 0000 0000 0000 0000 0000 0000
000001a0: 0000 0000 0000 0000 0000 0000 0000 0000
000001b0: 0000 0000 0000 0000 0000 0000 0000 0000
000001c0: 0000 0000 0000 0000 0000 0000 0000 0000
000001d0: 0000 0000 0000 0000 0000 0000 0000 0000
000001e0: 0000 0000 0000 0000 0000 0000 0000 0000
000001f0: 0000 0000 0000 0000 0000 0000 0000 0000
0.0 0.0 0.0 0.0 0.0 0.0 0.0 0.0
0.0 0.0 0.0 0.0 0.0 0.0 0.0 0.0
0.0 0.0 0.0 0.0 0.0 0.0 0.0 0.0
0.0 0.0 0.0 0.0 0.0 0.0 0.0 0.0
0.0 0.0 0.0 0.0 0.0 0.0 0.0 0.0
0.0 0.0 0.0 0.0 0.0 0.0 0.0 0.0
0.0 0.0 0.0 0.0 0.0 0.0 0.0 0.0
0.0 0.0 0.0 0.0 0.0 0.0 0.0 0.0
0.0 0.0 0.0 0.0 0.0 0.0 0.0 0.0
0.0 0.0 0.0 0.0 0.0 0.0 0.0 0.0
0.0 0.0 0.0 0.0 0.0 0.0 0.0 0.0
0.0 0.0 0.0 0.0 0.0 0.0 0.0 0.0
0.0 0.0 0.0 0.0 0.0 0.0 0.0 0.0
0.0 0.0 0.0 0.0 0.0 0.0 0.0 0.0
0.0 0.0 0.0 0.0 0.0 0.0 0.0 0.0
0.0 0.0 0.0 0.0 0.0 0.0 0.0 0.0

arith.constant21 f4 [1, 4, 1, 40]
00000000: 0000 0000 0000 0000 0000 0000 0000 0000
00000010: 0000 0000 0000 0000 0000 0000 0000 0000
00000020: 0000 0000 0000 0000 0000 0000 0000 0000
00000030: 0000 0000 0000 0000 0000 0000 0000 0000
00000040: 0000 0000 0000 0000 0000 0000 0000 0000
00000050: 0000 0000 0000 0000 0000 0000 0000 0000
00000060: 0000 0000 0000 0000 0000 0000 0000 0000
00000070: 0000 0000 0000 0000 0000 0000 0000 0000
00000080: 0000 0000 0000 0000 0000 0000 0000 0000
00000090: 0000 0000 0000 0000 0000 0000 0000 0000
000000a0: 0000 0000 0000 0000 0000 0000 0000 0000
000000b0: 0000 0000 0000 0000 0000 0000 0000 0000
000000c0: 0000 0000 0000 0000 0000 0000 0000 0000
000000d0: 0000 0000 0000 0000 0000 0000 0000 0000
000000e0: 0000 0000 0000 0000 0000 0000 0000 0000
000000f0: 0000 0000 0000 0000 0000 0000 0000 0000
00000100: 0000 0000 0000 0000 0000 0000 0000 0000
00000110: 0000 0000 0000 0000 0000 0000 0000 0000
00000120: 0000 0000 0000 0000 0000 0000 0000 0000
00000130: 0000 0000 0000 0000 0000 0000 0000 0000
00000140: 0000 0000 0000 0000 0000 0000 0000 0000
00000150: 0000 0000 0000 0000 0000 0000 0000 0000
00000160: 0000 0000 0000 0000 0000 0000 0000 0000
00000170: 0000 0000 0000 0000 0000 0000 0000 0000
00000180: 0000 0000 0000 0000 0000 0000 0000 0000
00000190: 0000 0000 0000 0000 0000 0000 0000 0000
000001a0: 0000 0000 0000 0000 0000 0000 0000 0000
000001b0: 0000 0000 0000 0000 0000 0000 0000 0000
000001c0: 0000 0000 0000 0000 0000 0000 0000 0000
000001d0: 0000 0000 0000 0000 0000 0000 0000 0000
000001e0: 0000 0000 0000 0000 0000 0000 0000 0000
000001f0: 0000 0000 0000 0000 0000 0000 0000 0000
00000200: 0000 0000 0000 0000 0000 0000 0000 0000
00000210: 0000 0000 0000 0000 0000 0000 0000 0000
00000220: 0000 0000 0000 0000 0000 0000 0000 0000
00000230: 0000 0000 0000 0000 0000 0000 0000 0000
00000240: 0000 0000 0000 0000 0000 0000 0000 0000
00000250: 0000 0000 0000 0000 0000 0000 0000 0000
00000260: 0000 0000 0000 0000 0000 0000 0000 0000
00000270: 0000 0000 0000 0000 0000 0000 0000 0000
0.0 0.0 0.0 0.0 0.0 0.0 0.0 0.0
0.0 0.0 0.0 0.0 0.0 0.0 0.0 0.0
0.0 0.0 0.0 0.0 0.0 0.0 0.0 0.0
0.0 0.0 0.0 0.0 0.0 0.0 0.0 0.0
0.0 0.0 0.0 0.0 0.0 0.0 0.0 0.0
0.0 0.0 0.0 0.0 0.0 0.0 0.0 0.0
0.0 0.0 0.0 0.0 0.0 0.0 0.0 0.0
0.0 0.0 0.0 0.0 0.0 0.0 0.0 0.0
0.0 0.0 0.0 0.0 0.0 0.0 0.0 0.0
0.0 0.0 0.0 0.0 0.0 0.0 0.0 0.0
0.0 0.0 0.0 0.0 0.0 0.0 0.0 0.0
0.0 0.0 0.0 0.0 0.0 0.0 0.0 0.0
0.0 0.0 0.0 0.0 0.0 0.0 0.0 0.0
0.0 0.0 0.0 0.0 0.0 0.0 0.0 0.0
0.0 0.0 0.0 0.0 0.0 0.0 0.0 0.0
0.0 0.0 0.0 0.0 0.0 0.0 0.0 0.0
0.0 0.0 0.0 0.0 0.0 0.0 0.0 0.0
0.0 0.0 0.0 0.0 0.0 0.0 0.0 0.0
0.0 0.0 0.0 0.0 0.0 0.0 0.0 0.0
0.0 0.0 0.0 0.0 0.0 0.0 0.0 0.0

arith.constant22 f4 [1, 147, 1, 64]
00000000: 0000 0000 0000 0000 0000 0000 0000 0000
00000010: 0000 0000 0000 0000 0000 0000 0000 0000
00000020: 0000 0000 0000 0000 0000 0000 0000 0000
00000030: 0000 0000 0000 0000 0000 0000 0000 0000
00000040: 0000 0000 0000 0000 0000 0000 0000 0000
00000050: 0000 0000 0000 0000 0000 0000 0000 0000
00000060: 0000 0000 0000 0000 0000 0000 0000 0000
00000070: 0000 0000 0000 0000 0000 0000 0000 0000
00000080: 0000 0000 0000 0000 0000 0000 0000 0000
00000090: 0000 0000 0000 0000 0000 0000 0000 0000
000000a0: 0000 0000 0000 0000 0000 0000 0000 0000
000000b0: 0000 0000 0000 0000 0000 0000 0000 0000
000000c0: 0000 0000 0000 0000 0000 0000 0000 0000
000000d0: 0000 0000 0000 0000 0000 0000 0000 0000
000000e0: 0000 0000 0000 0000 0000 0000 0000 0000
000000f0: 0000 0000 0000 0000 0000 0000 0000 0000
00000100: 0000 0000 0000 0000 0000 0000 0000 0000
00000110: 0000 0000 0000 0000 0000 0000 0000 0000
00000120: 0000 0000 0000 0000 0000 0000 0000 0000
00000130: 0000 0000 0000 0000 0000 0000 0000 0000
00000140: 0000 0000 0000 0000 0000 0000 0000 0000
00000150: 0000 0000 0000 0000 0000 0000 0000 0000
00000160: 0000 0000 0000 0000 0000 0000 0000 0000
00000170: 0000 0000 0000 0000 0000 0000 0000 0000
00000180: 0000 0000 0000 0000 0000 0000 0000 0000
00000190: 0000 0000 0000 0000 0000 0000 0000 0000
000001a0: 0000 0000 0000 0000 0000 0000 0000 0000
000001b0: 0000 0000 0000 0000 0000 0000 0000 0000
000001c0: 0000 0000 0000 0000 0000 0000 0000 0000
000001d0: 0000 0000 0000 0000 0000 0000 0000 0000
000001e0: 0000 0000 0000 0000 0000 0000 0000 0000
000001f0: 0000 0000 0000 0000 0000 0000 0000 0000
00000200: 0000 0000 0000 0000 0000 0000 0000 0000
00000210: 0000 0000 0000 0000 0000 0000 0000 0000
00000220: 0000 0000 0000 0000 0000 0000 0000 0000
00000230: 0000 0000 0000 0000 0000 0000 0000 0000
00000240: 0000 0000 0000 0000 0000 0000 0000 0000
00000250: 0000 0000 0000 0000 0000 0000 0000 0000
00000260: 0000 0000 0000 0000 0000 0000 0000 0000
00000270: 0000 0000 0000 0000 0000 0000 0000 0000
00000280: 0000 0000 0000 0000 0000 0000 0000 0000
00000290: 0000 0000 0000 0000 0000 0000 0000 0000
000002a0: 0000 0000 0000 0000 0000 0000 0000 0000
000002b0: 0000 0000 0000 0000 0000 0000 0000 0000
000002c0: 0000 0000 0000 0000 0000 0000 0000 0000
000002d0: 0000 0000 0000 0000 0000 0000 0000 0000
000002e0: 0000 0000 0000 0000 0000 0000 0000 0000
000002f0: 0000 0000 0000 0000 0000 0000 0000 0000
00000300: 0000 0000 0000 0000 0000 0000 0000 0000
00000310: 0000 0000 0000 0000 0000 0000 0000 0000
00000320: 0000 0000 0000 0000 0000 0000 0000 0000
00000330: 0000 0000 0000 0000 0000 0000 0000 0000
00000340: 0000 0000 0000 0000 0000 0000 0000 0000
00000350: 0000 0000 0000 0000 0000 0000 0000 0000
00000360: 0000 0000 0000 0000 0000 0000 0000 0000
00000370: 0000 0000 0000 0000 0000 0000 0000 0000
00000380: 0000 0000 0000 0000 0000 0000 0000 0000
00000390: 0000 0000 0000 0000 0000 0000 0000 0000
000003a0: 0000 0000 0000 0000 0000 0000 0000 0000
000003b0: 0000 0000 0000 0000 0000 0000 0000 0000
000003c0: 0000 0000 0000 0000 0000 0000 0000 0000
000003d0: 0000 0000 0000 0000 0000 0000 0000 0000
000003e0: 0000 0000 0000 0000 0000 0000 0000 0000
000003f0: 0000 0000 0000 0000 0000 0000 0000 0000
0.0 0.0 0.0 0.0 0.0 0.0 0.0 0.0
0.0 0.0 0.0 0.0 0.0 0.0 0.0 0.0
0.0 0.0 0.0 0.0 0.0 0.0 0.0 0.0
0.0 0.0 0.0 0.0 0.0 0.0 0.0 0.0
0.0 0.0 0.0 0.0 0.0 0.0 0.0 0.0
0.0 0.0 0.0 0.0 0.0 0.0 0.0 0.0
0.0 0.0 0.0 0.0 0.0 0.0 0.0 0.0
0.0 0.0 0.0 0.0 0.0 0.0 0.0 0.0
0.0 0.0 0.0 0.0 0.0 0.0 0.0 0.0
0.0 0.0 0.0 0.0 0.0 0.0 0.0 0.0
0.0 0.0 0.0 0.0 0.0 0.0 0.0 0.0
0.0 0.0 0.0 0.0 0.0 0.0 0.0 0.0
0.0 0.0 0.0 0.0 0.0 0.0 0.0 0.0
0.0 0.0 0.0 0.0 0.0 0.0 0.0 0.0
0.0 0.0 0.0 0.0 0.0 0.0 0.0 0.0
0.0 0.0 0.0 0.0 0.0 0.0 0.0 0.0
0.0 0.0 0.0 0.0 0.0 0.0 0.0 0.0
0.0 0.0 0.0 0.0 0.0 0.0 0.0 0.0
0.0 0.0 0.0 0.0 0.0 0.0 0.0 0.0
0.0 0.0 0.0 0.0 0.0 0.0 0.0 0.0
0.0 0.0 0.0 0.0 0.0 0.0 0.0 0.0
0.0 0.0 0.0 0.0 0.0 0.0 0.0 0.0
0.0 0.0 0.0 0.0 0.0 0.0 0.0 0.0
0.0 0.0 0.0 0.0 0.0 0.0 0.0 0.0
0.0 0.0 0.0 0.0 0.0 0.0 0.0 0.0
0.0 0.0 0.0 0.0 0.0 0.0 0.0 0.0
0.0 0.0 0.0 0.0 0.0 0.0 0.0 0.0
0.0 0.0 0.0 0.0 0.0 0.0 0.0 0.0
0.0 0.0 0.0 0.0 0.0 0.0 0.0 0.0
0.0 0.0 0.0 0.0 0.0 0.0 0.0 0.0
0.0 0.0 0.0 0.0 0.0 0.0 0.0 0.0
0.0 0.0 0.0 0.0 0.0 0.0 0.0 0.0

arith.constant23 f4 [1, 22, 1, 64]
00000000: 0000 0000 0000 0000 0000 0000 0000 0000
00000010: 0000 0000 0000 0000 0000 0000 0000 0000
00000020: 0000 0000 0000 0000 0000 0000 0000 0000
00000030: 0000 0000 0000 0000 0000 0000 0000 0000
00000040: 0000 0000 0000 0000 0000 0000 0000 0000
00000050: 0000 0000 0000 0000 0000 0000 0000 0000
00000060: 0000 0000 0000 0000 0000 0000 0000 0000
00000070: 0000 0000 0000 0000 0000 0000 0000 0000
00000080: 0000 0000 0000 0000 0000 0000 0000 0000
00000090: 0000 0000 0000 0000 0000 0000 0000 0000
000000a0: 0000 0000 0000 0000 0000 0000 0000 0000
000000b0: 0000 0000 0000 0000 0000 0000 0000 0000
000000c0: 0000 0000 0000 0000 0000 0000 0000 0000
000000d0: 0000 0000 0000 0000 0000 0000 0000 0000
000000e0: 0000 0000 0000 0000 0000 0000 0000 0000
000000f0: 0000 0000 0000 0000 0000 0000 0000 0000
00000100: 0000 0000 0000 0000 0000 0000 0000 0000
00000110: 0000 0000 0000 0000 0000 0000 0000 0000
00000120: 0000 0000 0000 0000 0000 0000 0000 0000
00000130: 0000 0000 0000 0000 0000 0000 0000 0000
00000140: 0000 0000 0000 0000 0000 0000 0000 0000
00000150: 0000 0000 0000 0000 0000 0000 0000 0000
00000160: 0000 0000 0000 0000 0000 0000 0000 0000
00000170: 0000 0000 0000 0000 0000 0000 0000 0000
00000180: 0000 0000 0000 0000 0000 0000 0000 0000
00000190: 0000 0000 0000 0000 0000 0000 0000 0000
000001a0: 0000 0000 0000 0000 0000 0000 0000 0000
000001b0: 0000 0000 0000 0000 0000 0000 0000 0000
000001c0: 0000 0000 0000 0000 0000 0000 0000 0000
000001d0: 0000 0000 0000 0000 0000 0000 0000 0000
000001e0: 0000 0000 0000 0000 0000 0000 0000 0000
000001f0: 0000 0000 0000 0000 0000 0000 0000 0000
00000200: 0000 0000 0000 0000 0000 0000 0000 0000
00000210: 0000 0000 0000 0000 0000 0000 0000 0000
00000220: 0000 0000 0000 0000 0000 0000 0000 0000
00000230: 0000 0000 0000 0000 0000 0000 0000 0000
00000240: 0000 0000 0000 0000 0000 0000 0000 0000
00000250: 0000 0000 0000 0000 0000 0000 0000 0000
00000260: 0000 0000 0000 0000 0000 0000 0000 0000
00000270: 0000 0000 0000 0000 0000 0000 0000 0000
00000280: 0000 0000 0000 0000 0000 0000 0000 0000
00000290: 0000 0000 0000 0000 0000 0000 0000 0000
000002a0: 0000 0000 0000 0000 0000 0000 0000 0000
000002b0: 0000 0000 0000 0000 0000 0000 0000 0000
000002c0: 0000 0000 0000 0000 0000 0000 0000 0000
000002d0: 0000 0000 0000 0000 0000 0000 0000 0000
000002e0: 0000 0000 0000 0000 0000 0000 0000 0000
000002f0: 0000 0000 0000 0000 0000 0000 0000 0000
00000300: 0000 0000 0000 0000 0000 0000 0000 0000
00000310: 0000 0000 0000 0000 0000 0000 0000 0000
00000320: 0000 0000 0000 0000 0000 0000 0000 0000
00000330: 0000 0000 0000 0000 0000 0000 0000 0000
00000340: 0000 0000 0000 0000 0000 0000 0000 0000
00000350: 0000 0000 0000 0000 0000 0000 0000 0000
00000360: 0000 0000 0000 0000 0000 0000 0000 0000
00000370: 0000 0000 0000 0000 0000 0000 0000 0000
00000380: 0000 0000 0000 0000 0000 0000 0000 0000
00000390: 0000 0000 0000 0000 0000 0000 0000 0000
000003a0: 0000 0000 0000 0000 0000 0000 0000 0000
000003b0: 0000 0000 0000 0000 0000 0000 0000 0000
000003c0: 0000 0000 0000 0000 0000 0000 0000 0000
000003d0: 0000 0000 0000 0000 0000 0000 0000 0000
000003e0: 0000 0000 0000 0000 0000 0000 0000 0000
000003f0: 0000 0000 0000 0000 0000 0000 0000 0000
0.0 0.0 0.0 0.0 0.0 0.0 0.0 0.0
0.0 0.0 0.0 0.0 0.0 0.0 0.0 0.0
0.0 0.0 0.0 0.0 0.0 0.0 0.0 0.0
0.0 0.0 0.0 0.0 0.0 0.0 0.0 0.0
0.0 0.0 0.0 0.0 0.0 0.0 0.0 0.0
0.0 0.0 0.0 0.0 0.0 0.0 0.0 0.0
0.0 0.0 0.0 0.0 0.0 0.0 0.0 0.0
0.0 0.0 0.0 0.0 0.0 0.0 0.0 0.0
0.0 0.0 0.0 0.0 0.0 0.0 0.0 0.0
0.0 0.0 0.0 0.0 0.0 0.0 0.0 0.0
0.0 0.0 0.0 0.0 0.0 0.0 0.0 0.0
0.0 0.0 0.0 0.0 0.0 0.0 0.0 0.0
0.0 0.0 0.0 0.0 0.0 0.0 0.0 0.0
0.0 0.0 0.0 0.0 0.0 0.0 0.0 0.0
0.0 0.0 0.0 0.0 0.0 0.0 0.0 0.0
0.0 0.0 0.0 0.0 0.0 0.0 0.0 0.0
0.0 0.0 0.0 0.0 0.0 0.0 0.0 0.0
0.0 0.0 0.0 0.0 0.0 0.0 0.0 0.0
0.0 0.0 0.0 0.0 0.0 0.0 0.0 0.0
0.0 0.0 0.0 0.0 0.0 0.0 0.0 0.0
0.0 0.0 0.0 0.0 0.0 0.0 0.0 0.0
0.0 0.0 0.0 0.0 0.0 0.0 0.0 0.0
0.0 0.0 0.0 0.0 0.0 0.0 0.0 0.0
0.0 0.0 0.0 0.0 0.0 0.0 0.0 0.0
0.0 0.0 0.0 0.0 0.0 0.0 0.0 0.0
0.0 0.0 0.0 0.0 0.0 0.0 0.0 0.0
0.0 0.0 0.0 0.0 0.0 0.0 0.0 0.0
0.0 0.0 0.0 0.0 0.0 0.0 0.0 0.0
0.0 0.0 0.0 0.0 0.0 0.0 0.0 0.0
0.0 0.0 0.0 0.0 0.0 0.0 0.0 0.0
0.0 0.0 0.0 0.0 0.0 0.0 0.0 0.0
0.0 0.0 0.0 0.0 0.0 0.0 0.0 0.0
