pt-br/models/ei_sexta.tflite (tflite, 63496 bytes, 18 tensors)

tfl.pseudo_qconst1 i1 [1, 2368] scale=0.002139727 zero_point=0
000000 b1 f6 cf ce f2 f1 e3 bd 0e f6 0a 23 14 24 d6 f4
       -0.16903843 -0.021397268 -0.10484662 -0.106986344 -0.029956177 -0.0320959 -0.06205208 -0.1433617 0.029956177 -0.021397268 0.021397268 0.07489044 0.042794537 0.07703017 -0.08986853 -0.025676724
000010 b3 f1 e9 cf 1e f5 f1 e3 da d7 d6 19 c0 ef f1 ea
       -0.16475897 -0.0320959 -0.04921372 -0.10484662 0.0641918 -0.023536995 -0.0320959 -0.06205208 -0.081309624 -0.087728806 -0.08986853 0.053493172 -0.13694252 -0.03637536 -0.0320959 -0.04707399
000020 db e5 ed d7 b5 e6 e0 1f b2 c6 e8 19 f3 e0 f3 e5
       -0.07916989 -0.057772625 -0.040654812 -0.087728806 -0.16047952 -0.0556329 -0.06847126 0.066331536 -0.1668987 -0.12410416 -0.051353447 0.053493172 -0.02781645 -0.06847126 -0.02781645 -0.057772625
000030 f9 06 ef da d4 f0 e9 ef f3 a1 14 f1 a2 ef 04 01
       -0.014978088 0.012838362 -0.03637536 -0.081309624 -0.09414798 -0.03423563 -0.04921372 -0.03637536 -0.02781645 -0.20327406 0.042794537 -0.0320959 -0.20113432 -0.03637536 0.008558908 0.002139727
000040 c4 18 e8 f2 d2 00 fb ca f1 db f9 08 18 15 df fc
       -0.1283836 0.051353447 -0.051353447 -0.029956177 -0.09842744 0.0 -0.010698634 -0.11554525 -0.0320959 -0.07916989 -0.014978088 0.017117815 0.051353447 0.044934265 -0.070610985 -0.008558908
000050 c3 f7 ee eb fe 02 e4 f5 09 ef fd 12 cb fc f3 dd
       -0.13052334 -0.019257542 -0.038515083 -0.044934265 -0.004279454 0.004279454 -0.059912354 -0.023536995 0.019257542 -0.03637536 -0.006419181 0.038515083 -0.113405526 -0.008558908 -0.02781645 -0.07489044
000060 fc f6 e8 be d0 ec 06 21 bc c6 fa 13 e5 e6 1b f4
       -0.008558908 -0.021397268 -0.051353447 -0.14122197 -0.102706894 -0.042794537 0.012838362 0.070610985 -0.14550143 -0.12410416 -0.012838362 0.040654812 -0.057772625 -0.0556329 0.057772625 -0.025676724
000070 12 dd ee 04 d9 f7 f4 07 f7 b6 00 e3 99 d9 ee ff
       0.038515083 -0.07489044 -0.038515083 0.008558908 -0.08344935 -0.019257542 -0.025676724 0.014978088 -0.019257542 -0.15833978 0.0 -0.06205208 -0.22039187 -0.08344935 -0.038515083 -0.002139727
000080 e5 fe f0 e8 f8 ec 08 d2 ed f3 f1 30 0f 17 d6 d5
       -0.057772625 -0.004279454 -0.03423563 -0.051353447 -0.017117815 -0.042794537 0.017117815 -0.09842744 -0.040654812 -0.02781645 -0.0320959 0.102706894 0.0320959 0.04921372 -0.08986853 -0.092008255
000090 c9 f7 11 06 0e 04 fa f4 f7 05 f9 15 e2 11 f2 01
       -0.117684975 -0.019257542 0.03637536 0.012838362 0.029956177 0.008558908 -0.012838362 -0.025676724 -0.019257542 0.010698634 -0.014978088 0.044934265 -0.0641918 0.03637536 -0.029956177 0.002139727
0000a0 ff 0c de e2 f1 01 ef 08 d8 db dc f8 f9 bb f4 dd
       -0.002139727 0.025676724 -0.07275072 -0.0641918 -0.0320959 0.002139727 -0.03637536 0.017117815 -0.08558907 -0.07916989 -0.07703017 -0.017117815 -0.014978088 -0.14764115 -0.025676724 -0.07489044
0000b0 e3 df e7 ef ca de fc 14 0c e1 04 f4 cf ec 05 f3
       -0.06205208 -0.070610985 -0.053493172 -0.03637536 -0.11554525 -0.07275072 -0.008558908 0.042794537 0.025676724 -0.066331536 0.008558908 -0.025676724 -0.10484662 -0.042794537 0.010698634 -0.02781645
0000c0 e9 07 ea 01 fe 16 0a f5 fc 23 f8 28 f6 e8 02 ca
       -0.04921372 0.014978088 -0.04707399 0.002139727 -0.004279454 0.04707399 0.021397268 -0.023536995 -0.008558908 0.07489044 -0.017117815 0.08558907 -0.021397268 -0.051353447 0.004279454 -0.11554525
0000d0 da e9 f3 07 19 f9 e2 09 fd 02 ec f8 0e d8 01 ce
       -0.081309624 -0.04921372 -0.02781645 0.014978088 0.053493172 -0.014978088 -0.0641918 0.019257542 -0.006419181 0.004279454 -0.042794537 -0.017117815 0.029956177 -0.08558907 0.002139727 -0.106986344
0000e0 0a 26 0a ef eb 18 f2 17 e9 e7 12 fa 1d cd f7 ee
       0.021397268 0.081309624 0.021397268 -0.03637536 -0.044934265 0.051353447 -0.029956177 0.04921372 -0.04921372 -0.053493172 0.038515083 -0.012838362 0.06205208 -0.10912607 -0.019257542 -0.038515083
0000f0 c6 02 da 04 e1 e3 fa 02 03 f2 f0 ea e0 e6 08 f2
       -0.12410416 0.004279454 -0.081309624 0.008558908 -0.066331536 -0.06205208 -0.012838362 0.004279454 0.006419181 -0.029956177 -0.03423563 -0.04707399 -0.06847126 -0.0556329 0.017117815 -0.029956177

tfl.pseudo_qconst3 i1 [64, 1, 1, 64]
000000 25 f1 11 0d 25 eb 01 e1 f5 f9 3e 23 00 31 da 20
       37 -15 17 13 37 -21 1 -31 -11 -7 62 35 0 49 -38 32
000010 f7 19 20 2b 2a 1d e7 dd 30 fe 3c 28 c2 56 b8 fb
       -9 25 32 43 42 29 -25 -35 48 -2 60 40 -62 86 -72 -5
000020 f6 14 ea 81 34 29 2a dc 0b 35 14 44 f5 aa e5 1c
       -10 20 -22 -127 52 41 42 -36 11 53 20 68 -11 -86 -27 28
000030 09 1e de 3f eb d7 e0 13 4d 07 e1 fe 14 0f d4 ee
       9 30 -34 63 -21 -41 -32 19 77 7 -31 -2 20 15 -44 -18
000040 0a c0 00 24 1f 19 fc 10 c3 5e 01 ec 0f 12 03 9e
       10 -64 0 36 31 25 -4 16 -61 94 1 -20 15 18 3 -98
000050 d6 fd c4 1f d6 c8 ea 53 f7 d5 0f 63 1f 26 cc 06
       -42 -3 -60 31 -42 -56 -22 83 -9 -43 15 99 31 38 -52 6
000060 c9 db fa e6 15 08 05 3e 2d 34 99 05 01 b1 de 49
       -55 -37 -6 -26 21 8 5 62 45 52 -103 5 1 -79 -34 73
000070 d3 d9 c9 5b 09 07 81 11 25 34 30 bb fd 4d 1f 1c
       -45 -39 -55 91 9 7 -127 17 37 52 48 -69 -3 77 31 28
000080 ff 1a 1b b8 c4 d9 27 30 89 d8 f5 4c 14 0e 1d af
       -1 26 27 -72 -60 -39 39 48 -119 -40 -11 76 20 14 29 -81
000090 47 c9 de b6 12 47 a9 c2 88 06 f3 7f b9 aa c3 e9
       71 -55 -34 -74 18 71 -87 -62 -120 6 -13 127 -71 -86 -61 -23
0000a0 dd d4 c9 f8 bc cd ca 0c e7 e1 37 fa d6 26 ee c4
       -35 -44 -55 -8 -68 -51 -54 12 -25 -31 55 -6 -42 38 -18 -60
0000b0 ed d3 41 f1 e6 9e 1e 2a ae d5 62 50 0a 23 33 d8
       -19 -45 65 -15 -26 -98 30 42 -82 -43 98 80 10 35 51 -40
0000c0 10 fa cc 28 e7 e6 4f 19 f2 31 e8 4b 3a fb d6 e5
       16 -6 -52 40 -25 -26 79 25 -14 49 -24 75 58 -5 -42 -27
0000d0 12 e7 05 e4 16 fb d3 fe e2 04 f1 b4 13 bb 01 ee
       18 -25 5 -28 22 -5 -45 -2 -30 4 -15 -76 19 -69 1 -18
0000e0 23 08 ed 5b 08 01 fa 1f 2b df ff 16 15 fd 27 ce
       35 8 -19 91 8 1 -6 31 43 -33 -1 22 21 -3 39 -50
0000f0 d8 2a c1 e7 e4 e7 81 f0 e8 ba ec a5 f2 e1 ec 39
       -40 42 -63 -25 -28 -25 -127 -16 -24 -70 -20 -91 -14 -31 -20 57

tfl.pseudo_qconst5 i1 [1, 23, 1, 64]
000000 c3 cc d9 f2 1c a0 eb 7f 23 db 81 2c ee e0 81 fa
       -61 -52 -39 -14 28 -96 -21 127 35 -37 -127 44 -18 -32 -127 -6
000010 7f 4a 01 58 9c 10 2d 53 7f 81 ff d9 c3 6d 81 81
       127 74 1 88 -100 16 45 83 127 -127 -1 -39 -61 109 -127 -127
000020 af b5 a2 9c 1d c5 0a b5 f3 70 14 7f 10 e6 08 e5
       -81 -75 -94 -100 29 -59 10 -75 -13 112 20 127 16 -26 8 -27
000030 74 db fa 2e 44 1d 3d 53 cf 62 c9 69 17 f4 81 07
       116 -37 -6 46 68 29 61 83 -49 98 -55 105 23 -12 -127 7
000040 ff ae f9 ee 64 ca 14 4a 63 0f 9d 35 d1 81 8c 0b
       -1 -82 -7 -18 100 -54 20 74 99 15 -99 53 -47 -127 -116 11
000050 75 33 f2 11 eb 40 6b f5 57 bd f2 f0 bb 59 b4 ec
       117 51 -14 17 -21 64 107 -11 87 -67 -14 -16 -69 89 -76 -20
000060 bb ca fd 9a ef 1e 1c 98 26 67 09 2d 21 e5 7d f5
       -69 -54 -3 -102 -17 30 28 -104 38 103 9 45 33 -27 125 -11
000070 59 81 e4 2b 2b 25 59 41 99 71 cf 77 2e 0d 86 ff
       89 -127 -28 43 43 37 89 65 -103 113 -49 119 46 13 -122 -1
000080 cd d2 c8 1c 51 2e d7 a3 38 fa a4 ed fe c9 ac 32
       -51 -46 -56 28 81 46 -41 -93 56 -6 -92 -19 -2 -55 -84 50
000090 56 3a 49 04 d2 0b 23 7e 77 c7 ff fa ec 79 d7 ee
       86 58 73 4 -46 11 35 126 119 -57 -1 -6 -20 121 -41 -18
0000a0 dc db cc c9 f9 4c 53 95 ec 6d 20 26 2e d9 5b ff
       -36 -37 -52 -55 -7 76 83 -107 -20 109 32 38 46 -39 91 -1
0000b0 28 e2 e1 f9 e9 3a 4a 59 81 7f a3 39 2b 15 f7 c3
       40 -30 -31 -7 -23 58 74 89 -127 127 -93 57 43 21 -9 -61
0000c0 96 da e5 f8 0d 12 f0 a4 28 e0 ab b1 21 fe e7 23
       -106 -38 -27 -8 13 18 -16 -92 40 -32 -85 -79 33 -2 -25 35
0000d0 5b 23 5e 7f a3 02 3c 13 55 c1 fc e2 9f 6d a4 e3
       91 35 94 127 -93 2 60 19 85 -63 -4 -30 -97 109 -92 -29
0000e0 95 bc 01 fc 1d cf 69 9b a3 26 25 26 16 de 37 0b
       -107 -68 1 -4 29 -49 105 -101 -93 38 37 38 22 -34 55 11
0000f0 ee 2c 39 f8 c8 21 29 7f ac 1e a3 0f 30 e9 dc ab
       -18 44 57 -8 -56 33 41 127 -84 30 -93 15 48 -23 -36 -85

tfl.pseudo_qconst7 i1 [64, 1, 1, 64]
000000 2f b8 8e a1 fc 73 f3 f6 3d 65 07 04 b7 a7 18 f1
       47 -72 -114 -95 -4 115 -13 -10 61 101 7 4 -73 -89 24 -15
000010 1b 0a 6e e9 1e 2d 0a 23 10 3a b5 3d 13 81 1e ef
       27 10 110 -23 30 45 10 35 16 58 -75 61 19 -127 30 -17
000020 11 9c e1 23 04 54 42 d2 2b 1d 46 86 3f 50 29 1b
       17 -100 -31 35 4 84 66 -46 43 29 70 -122 63 80 41 27
000030 22 c3 bd be b3 8e d8 56 cd d0 4a fc ac 57 5f d6
       34 -61 -67 -66 -77 -114 -40 86 -51 -48 74 -4 -84 87 95 -42
000040 f5 03 cd 34 c8 16 db 11 8c 23 35 ad 3d 5f e6 2e
       -11 3 -51 52 -56 22 -37 17 -116 35 53 -83 61 95 -26 46
000050 1b 2e 42 2b 69 45 07 6e 3a 81 d3 eb d2 ae b4 2e
       27 46 66 43 105 69 7 110 58 -127 -45 -21 -46 -82 -76 46
000060 16 e2 26 f2 e6 03 01 fc fe 23 ff fc df 03 cd d3
       22 -30 38 -14 -26 3 1 -4 -2 35 -1 -4 -33 3 -51 -45
000070 b7 cf c0 c4 3c e0 1e 29 b4 26 d8 2f 4b 14 1a 9b
       -73 -49 -64 -60 60 -32 30 41 -76 38 -40 47 75 20 26 -101
000080 54 41 3a 06 f0 1b ed a0 d1 14 99 0d 68 44 d5 b9
       84 65 58 6 -16 27 -19 -96 -47 20 -103 13 104 68 -43 -71
000090 9b a0 0c ea c2 4d 3f e8 08 d5 c7 2f 9b 0c ba 1c
       -101 -96 12 -22 -62 77 63 -24 8 -43 -57 47 -101 12 -70 28
0000a0 9f f5 2d 2e 99 e5 65 0d 28 b1 de 99 5a 4c ec ec
       -97 -11 45 46 -103 -27 101 13 40 -79 -34 -103 90 76 -20 -20
0000b0 4c 4d 5b b5 b4 e5 d6 4a 34 10 7f 63 e2 23 52 04
       76 77 91 -75 -76 -27 -42 74 52 16 127 99 -30 35 82 4
0000c0 b5 e9 aa 00 a7 99 cd 26 b4 6f 58 cd 25 df 1a 3f
       -75 -23 -86 0 -89 -103 -51 38 -76 111 88 -51 37 -33 26 63
0000d0 4f c2 40 ab 05 c7 c4 0f 41 bf 81 03 36 15 de ef
       79 -62 64 -85 5 -57 -60 15 65 -65 -127 3 54 21 -34 -17
0000e0 3d 1f cf 47 13 ce c8 e2 e6 a3 f8 11 b1 d4 ad ee
       61 31 -49 71 19 -50 -56 -30 -26 -93 -8 17 -79 -44 -83 -18
0000f0 e7 20 03 fd d6 e9 fc 07 02 1f b9 f2 36 9a ce 66
       -25 32 3 -3 -42 -23 -4 7 2 31 -71 -14 54 -102 -50 102

tfl.pseudo_qconst9 i1 [1, 15, 1, 32]
000000 4b 58 e8 f9 7e f1 32 a1 58 45 ce 91 5a 0b 0c 4c
       75 88 -24 -7 126 -15 50 -95 88 69 -50 -111 90 11 12 76
000010 d0 ee 4b db 41 ec d8 7f d7 5a ce 7f 45 5e a8 00
       -48 -18 75 -37 65 -20 -40 127 -41 90 -50 127 69 94 -88 0
000020 42 23 82 cc 7f 8c a1 81 da e5 cb 49 7f 25 d5 38
       66 35 -126 -52 127 -116 -95 -127 -38 -27 -53 73 127 37 -43 56
000030 a3 6b 4f d9 aa f8 7f 67 f0 7f 96 e3 35 2b d6 d1
       -93 107 79 -39 -86 -8 127 103 -16 127 -106 -29 53 43 -42 -47
000040 dc d9 37 81 69 b0 b3 cd 24 4e f9 21 63 25 d5 f7
       -36 -39 55 -127 105 -80 -77 -51 36 78 -7 33 99 37 -43 -9
000050 81 4b 5b 04 d1 22 33 fb b2 68 97 51 0f fe 81 0c
       -127 75 91 4 -47 34 51 -5 -78 104 -105 81 15 -2 -127 12
000060 dd df fe df 1b 25 ee 26 59 0f a6 a2 1d 17 0e ed
       -35 -33 -2 -33 27 37 -18 38 89 15 -90 -94 29 23 14 -19
000070 95 40 7f 14 bc 4a 0f 1b 93 11 81 3f 33 32 1a be
       -107 64 127 20 -68 74 15 27 -109 17 -127 63 51 50 26 -66
000080 df 3f 25 ee 26 c5 d9 29 ea 46 40 81 28 e8 ef ee
       -33 63 37 -18 38 -59 -39 41 -22 70 64 -127 40 -24 -17 -18
000090 ec 7f 01 27 db f2 2c ca c5 06 94 f2 fe fa 97 9a
       -20 127 1 39 -37 -14 44 -54 -59 6 -108 -14 -2 -6 -105 -102
0000a0 02 34 50 d0 5e b3 f9 f4 14 45 f5 c1 c3 e5 cf a3
       2 52 80 -48 94 -77 -7 -12 20 69 -11 -63 -61 -27 -49 -93
0000b0 a1 0d f0 16 fe b7 68 1a ea 65 af a1 26 eb cb d9
       -95 13 -16 22 -2 -73 104 26 -22 101 -81 -95 38 -21 -53 -39
0000c0 09 c0 31 00 76 cb 81 6a 39 fe d2 f3 21 dd e0 d6
       9 -64 49 0 118 -53 -127 106 57 -2 -46 -13 33 -35 -32 -42
0000d0 fc ee a0 eb 21 b4 e1 73 1c 47 02 16 fd 2b 9c 90
       -4 -18 -96 -21 33 -76 -31 115 28 71 2 22 -3 43 -100 -112
0000e0 0d 9f 4a 15 28 ab c0 25 0f 42 04 ce 26 11 e4 28
       13 -97 74 21 40 -85 -64 37 15 66 4 -50 38 17 -28 40
0000f0 4d ee a0 e5 a8 ba 16 62 0b db d3 b1 07 0b d9 9c
       77 -18 -96 -27 -88 -70 22 98 11 -37 -45 -79 7 11 -39 -100

tfl.pseudo_qconst11 i1 [1, 9, 1, 32]
000000 30 68 64 4f 34 cb 20 0c 28 f0 6e f5 df 19 78 81
       48 104 100 79 52 -53 32 12 40 -16 110 -11 -33 25 120 -127
000010 c9 bc 32 0e e9 54 1a ec 60 08 be 04 3b 01 d7 0c
       -55 -68 50 14 -23 84 26 -20 96 8 -66 4 59 1 -41 12
000020 62 fd 71 2f c6 cf fe 7f 8b c2 c4 7f ed 24 7f 35
       98 -3 113 47 -58 -49 -2 127 -117 -62 -60 127 -19 36 127 53
000030 62 ae a9 69 e3 01 58 eb ab 25 e6 35 1f 11 8e ae
       98 -82 -87 105 -29 1 88 -21 -85 37 -26 53 31 17 -114 -82
000040 62 7f 47 48 c1 06 2e 52 20 b4 ba 4f 00 ec 57 18
       98 127 71 72 -63 6 46 82 32 -76 -70 79 0 -20 87 24
000050 50 8c 8f 7f 42 35 4d b2 42 d3 3d 7f e2 2e c8 da
       80 -116 -113 127 66 53 77 -78 66 -45 61 127 -30 46 -56 -38
000060 36 b7 44 29 ef d8 c5 f1 81 81 44 1c 03 2d 5a 1c
       54 -73 68 41 -17 -40 -59 -15 -127 -127 68 28 3 45 90 28
000070 ab 0f bf 4f 7f 4d 7f d6 61 d4 3e 31 d0 39 81 d8
       -85 15 -65 79 127 77 127 -42 97 -44 62 49 -48 57 -127 -40
000080 1a 02 2a 2c 23 fc 7f 0d 33 93 7f 0d f1 6a 24 44
       26 2 42 44 35 -4 127 13 51 -109 127 13 -15 106 36 68
000090 81 05 7f 1d f8 17 c1 47 eb 2d 7f 4c c5 db d2 19
       -127 5 127 29 -8 23 -63 71 -21 45 127 76 -59 -37 -46 25
0000a0 21 a4 aa 78 ca 9f e4 51 f4 9f b8 55 92 36 8c ee
       33 -92 -86 120 -54 -97 -28 81 -12 -97 -72 85 -110 54 -116 -18
0000b0 16 d3 7c 0e fb f9 50 45 c9 f3 73 e8 81 7f c4 de
       22 -45 124 14 -5 -7 80 69 -55 -13 115 -24 -127 127 -60 -34
0000c0 c0 26 9b 7f 4a 04 b7 f8 67 da b6 12 bf ed d2 ef
       -64 38 -101 127 74 4 -73 -8 103 -38 -74 18 -65 -19 -46 -17
0000d0 51 23 65 76 56 db fc 6c 88 1c 68 c2 e5 ff ce 49
       81 35 101 118 86 -37 -4 108 -120 28 104 -62 -27 -1 -50 73
0000e0 1f ee 81 28 7f 97 f1 62 25 95 c5 a9 89 cf ed 8e
       31 -18 -127 40 127 -105 -15 98 37 -107 -59 -87 -119 -49 -19 -114
0000f0 bf 61 12 d1 99 c5 17 14 7f 3b 12 89 ae 3f be 7f
       -65 97 18 -47 -103 -59 23 20 127 59 18 -119 -82 63 -66 127

tfl.pseudo_qconst13 i1 [64, 1, 1, 64]
000000 49 cd cd cb 4e 4f d5 43 3e f7 6a d9 e6 28 8e 40
       73 -51 -51 -53 78 79 -43 67 62 -9 106 -39 -26 40 -114 64
000010 b3 7f 0a e7 22 ef f2 e8 3e fc 52 d6 34 32 ef be
       -77 127 10 -25 34 -17 -14 -24 62 -4 82 -42 52 50 -17 -66
000020 26 0e e8 ca da 20 bb 0f 32 40 11 b2 eb 40 e0 b9
       38 14 -24 -54 -38 32 -69 15 50 64 17 -78 -21 64 -32 -71
000030 27 2e e7 aa 39 4e c2 2b e8 c0 23 28 f1 0e b3 fb
       39 46 -25 -86 57 78 -62 43 -24 -64 35 40 -15 14 -77 -5
000040 c5 05 15 27 bd 0a 19 c8 2d 01 1f e9 11 1a fe e2
       -59 5 21 39 -67 10 25 -56 45 1 31 -23 17 26 -2 -30
000050 df bb 2d 1b 2b 4f 2c f5 15 c4 e8 03 fa dd 18 2c
       -33 -69 45 27 43 79 44 -11 21 -60 -24 3 -6 -35 24 44
000060 00 eb d0 c8 1e 32 ec 14 bc d2 35 12 fb b7 16 5b
       0 -21 -48 -56 30 50 -20 20 -68 -46 53 18 -5 -73 22 91
000070 3f 4a 22 3c f3 e6 3e e1 3b 3a df 27 7f ee f7 19
       63 74 34 60 -13 -26 62 -31 59 58 -33 39 127 -18 -9 25
000080 2e 11 10 0b 11 d4 05 15 c2 f7 2e 29 24 4c e6 0c
       46 17 16 11 17 -44 5 21 -62 -9 46 41 36 76 -26 12
000090 c1 d5 37 f5 f0 1a ca 1e fc 4c 33 31 0b 42 c1 22
       -63 -43 55 -11 -16 26 -54 30 -4 76 51 49 11 66 -63 34
0000a0 5a f1 1e 9f fc 24 7f d3 ea bc 27 f2 b3 fd 48 fe
       90 -15 30 -97 -4 36 127 -45 -22 -68 39 -14 -77 -3 72 -2
0000b0 40 11 20 d8 10 22 f3 01 0c 3e f4 ca ff 4b 48 27
       64 17 32 -40 16 34 -13 1 12 62 -12 -54 -1 75 72 39
0000c0 09 1f 48 d9 ac fe fa 3f c9 04 3f 2c c1 1b 30 d2
       9 31 72 -39 -84 -2 -6 63 -55 4 63 44 -63 27 48 -46
0000d0 b9 c9 f2 2d e7 e0 33 0c 7f 34 f1 d1 17 1d df 15
       -71 -55 -14 45 -25 -32 51 12 127 52 -15 -47 23 29 -33 21
0000e0 39 20 26 e3 2d ca 3c 56 1c 3c 16 f4 52 33 dc 04
       57 32 38 -29 45 -54 60 86 28 60 22 -12 82 51 -36 4
0000f0 f6 1c 29 56 09 e9 ee e3 d9 34 f9 e8 cf fa ae ee
       -10 28 41 86 9 -23 -18 -29 -39 52 -7 -24 -49 -6 -82 -18

tfl.pseudo_qconst15 i1 [1, 11, 1, 32]
000000 29 56 e4 6f 07 f1 eb b5 e1 f7 46 cf 48 68 eb 7f
       41 86 -28 111 7 -15 -21 -75 -31 -9 70 -49 72 104 -21 127
000010 45 1e 24 24 1b 51 31 7f dd 53 7f 41 41 7f c9 37
       69 30 36 36 27 81 49 127 -35 83 127 65 65 127 -55 55
000020 f9 72 32 0f 21 33 f5 09 5b 17 08 04 2d 1e ec 64
       -7 114 50 15 33 51 -11 9 91 23 8 4 45 30 -20 100
000030 43 36 7f 6f f9 19 cf 49 e5 0f b8 7f d8 cb b3 20
       67 54 127 111 -7 25 -49 73 -27 15 -72 127 -40 -53 -77 32
000040 e1 c2 59 38 9e c7 df 40 10 e0 ef de 3d b3 13 bc
       -31 -62 89 56 -98 -57 -33 64 16 -32 -17 -34 61 -77 19 -68
000050 58 b1 14 0c f0 4b f9 11 ff c3 32 e4 09 f3 9e dd
       88 -79 20 12 -16 75 -7 17 -1 -61 50 -28 9 -13 -98 -35
000060 2c 4d 7f 19 9a 16 9d a3 c1 df 81 df cd 7f 2e b7
       44 77 127 25 -102 22 -99 -93 -63 -33 -127 -33 -51 127 46 -73
000070 e4 3c ee a5 c1 6d 01 42 be 24 0c dd bd a3 a5 f2
       -28 60 -18 -91 -63 109 1 66 -66 36 12 -35 -67 -93 -91 -14
000080 2f 7f 21 d1 f9 40 8c 82 ec 05 e7 2c bb 75 fd f4
       47 127 33 -47 -7 64 -116 -126 -20 5 -25 44 -69 117 -3 -12
000090 64 7f d8 1a 38 a7 36 43 b8 6d 1e d6 89 ea 0b 9e
       100 127 -40 26 56 -89 54 67 -72 109 30 -42 -119 -22 11 -98
0000a0 23 e0 d4 45 e8 17 a2 a3 5f ed 60 d7 c6 a3 e0 d3
       35 -32 -44 69 -24 23 -94 -93 95 -19 96 -41 -58 -93 -32 -45
0000b0 d9 c5 fc 9a 15 68 03 0e 31 0d 4a cf 03 15 74 81
       -39 -59 -4 -102 21 104 3 14 49 13 74 -49 3 21 116 -127
0000c0 98 45 c8 fe 6f 15 9f ac d5 61 f8 d5 f0 ec 96 4f
       -104 69 -56 -2 111 21 -97 -84 -43 97 -8 -43 -16 -20 -106 79
0000d0 9a 0d c7 81 e8 4d 51 c8 2f 7f 79 51 2d 1b 7f ed
       -102 13 -57 -127 -24 77 81 -56 47 127 121 81 45 27 127 -19
0000e0 b2 26 c0 cb 7f 36 05 a1 e9 68 e0 c3 20 06 7f 24
       -78 38 -64 -53 127 54 5 -95 -23 104 -32 -61 32 6 127 36
0000f0 81 20 e6 83 7f 81 75 aa f9 8f d9 22 34 ee fd 2c
       -127 32 -26 -125 127 -127 117 -86 -7 -113 -39 34 52 -18 -3 44

tfl.pseudo_qconst17 i1 [1, 7, 1, 32]
000000 3a 7f 27 b4 bc 81 77 b7 6f 81 73 7f 77 3c 82 7f
       58 127 39 -76 -68 -127 119 -73 111 -127 115 127 119 60 -126 127
000010 7d cc 59 81 36 98 ea a1 1b f1 7f 38 29 c5 9b 0b
       125 -52 89 -127 54 -104 -22 -95 27 -15 127 56 41 -59 -101 11
000020 7c dc b9 7f e7 99 81 81 37 84 d4 1e b2 55 81 4a
       124 -36 -71 127 -25 -103 -127 -127 55 -124 -44 30 -78 85 -127 74
000030 67 1c 4b 23 83 1c f7 c7 b1 7f b2 7f 81 33 7f 81
       103 28 75 35 -125 28 -9 -57 -79 127 -78 127 -127 51 127 -127
000040 f9 b2 d8 e9 c8 e5 33 48 d4 b6 21 28 81 20 85 39
       -7 -78 -40 -23 -56 -27 51 72 -44 -74 33 40 -127 32 -123 57
000050 ea ef 7f 50 5c 81 23 7f ee 2a 69 5a 9f 8c 31 a9
       -22 -17 127 80 92 -127 35 127 -18 42 105 90 -97 -116 49 -87
000060 b0 0d 81 43 51 85 c4 53 ad fd f6 e1 aa da 87 21
       -80 13 -127 67 81 -123 -60 83 -83 -3 -10 -31 -86 -38 -121 33
000070 fc 65 33 40 3f c2 81 5f 9e 3e b9 0d 3d 21 0b 0c
       -4 101 51 64 63 -62 -127 95 -98 62 -71 13 61 33 11 12
000080 d4 64 df 1d 7c 25 c8 65 ab cf 1f 8f 17 81 e0 25
       -44 100 -33 29 124 37 -56 101 -85 -49 31 -113 23 -127 -32 37
000090 c0 7f 22 11 7d a3 ca ea f1 ae d0 1d d0 c2 d9 7c
       -64 127 34 17 125 -93 -54 -22 -15 -82 -48 29 -48 -62 -39 124
0000a0 81 b3 d1 3f 7f 5f 8c 26 81 ba 81 12 9e 18 8f 38
       -127 -77 -47 63 127 95 -116 38 -127 -70 -127 18 -98 24 -113 56
0000b0 7f 59 d0 e0 7f a7 f3 dc 81 c4 64 4c 3b 0a d4 38
       127 89 -48 -32 127 -89 -13 -36 -127 -60 100 76 59 10 -44 56
0000c0 ad e8 c5 11 6c c5 97 b7 82 e4 c6 64 6b f9 c4 46
       -83 -24 -59 17 108 -59 -105 -73 -126 -28 -58 100 107 -7 -60 70
0000d0 ef a1 8f 65 dd e2 66 3b 8b ca 18 75 d8 81 33 2e
       -17 -95 -113 101 -35 -30 102 59 -117 -54 24 117 -40 -127 51 46

tfl.pseudo_qconst19 i1 [64, 1, 1, 32]
000000 41 0c cd 7f 2e c7 e5 e6 4b b9 38 9a 16 09 7a aa
       65 12 -51 127 46 -57 -27 -26 75 -71 56 -102 22 9 122 -86
000010 f8 65 3f 20 fb 0e b2 bb 1b 67 22 29 bb e1 a7 fc
       -8 101 63 32 -5 14 -78 -69 27 103 34 41 -69 -31 -89 -4
000020 e8 4f e9 b2 12 06 c4 eb c4 10 b6 29 3c 2e 3e 3b
       -24 79 -23 -78 18 6 -60 -21 -60 16 -74 41 60 46 62 59
000030 fb f7 15 4c e9 af 04 3c e8 81 d0 cd 6d c4 2d 31
       -5 -9 21 76 -23 -81 4 60 -24 -127 -48 -51 109 -60 45 49
000040 e1 32 d2 0a a1 36 8e b3 1c a2 c5 06 26 ef 83 e2
       -31 50 -46 10 -95 54 -114 -77 28 -94 -59 6 38 -17 -125 -30
000050 3c a1 c9 7f 91 db 94 5d c0 db 55 1b 17 a7 65 cb
       60 -95 -55 127 -111 -37 -108 93 -64 -37 85 27 23 -89 101 -53
000060 d1 47 dc ec 0b 08 d5 07 42 c3 34 f2 4f 81 d5 22
       -47 71 -36 -20 11 8 -43 7 66 -61 52 -14 79 -127 -43 34
000070 06 eb 0d 35 d4 1e ae 99 6d 3d c3 26 d5 37 ae ed
       6 -21 13 53 -44 30 -82 -103 109 61 -61 38 -43 55 -82 -19
000080 17 ef 16 e8 25 77 0b fe 14 ed 2b 35 2e 1f 00 d6
       23 -17 22 -24 37 119 11 -2 20 -19 43 53 46 31 0 -42
000090 17 f4 0f 1a 55 22 d5 7f f7 4c c6 b3 16 03 a7 63
       23 -12 15 26 85 34 -43 127 -9 76 -58 -77 22 3 -89 99
0000a0 83 c3 3e fb 68 04 df 12 a8 7f 26 5e 21 0b e2 aa
       -125 -61 62 -5 104 4 -33 18 -88 127 38 94 33 11 -30 -86
0000b0 cf 10 f6 2b 12 e8 f4 44 41 db bf dd 08 f5 33 9b
       -49 16 -10 43 18 -24 -12 68 65 -37 -65 -35 8 -11 51 -101
0000c0 cf 17 6e e0 66 f6 37 0c 46 7f b9 07 c5 24 09 b7
       -49 23 110 -32 102 -10 55 12 70 127 -71 7 -59 36 9 -73
0000d0 14 b2 a9 6a 45 fd ed d4 ca 48 f1 f4 3b ca dd 43
       20 -78 -87 106 69 -3 -19 -44 -54 72 -15 -12 59 -54 -35 67
0000e0 8e 28 b0 8f f9 48 d7 1c 3b cf de 25 19 9a f2 11
       -114 40 -80 -113 -7 72 -41 28 59 -49 -34 37 25 -102 -14 17
0000f0 76 f4 fb e9 9e d3 1a 5b ec e2 41 35 07 2f 7f 8f
       118 -12 -5 -23 -98 -45 26 91 -20 -30 65 53 7 47 127 -113

tfl.pseudo_qconst21 i1 [1, 5, 1, 32]
000000 8d f6 68 73 81 28 2c ea 30 50 81 23 81 26 a9 32
       -115 -10 104 115 -127 40 44 -22 48 80 -127 35 -127 38 -87 50
000010 a0 a9 0e 81 a2 7f 45 fc 04 bc 33 08 9f f1 1e b9
       -96 -87 14 -127 -94 127 69 -4 4 -68 51 8 -97 -15 30 -71
000020 ee cd fe ac 85 fb 7f 0a eb 53 4f 41 db 21 a4 81
       -18 -51 -2 -84 -123 -5 127 10 -21 83 79 65 -37 33 -92 -127
000030 56 da 81 0d a2 2f ac 52 7f 07 af 91 df 73 57 66
       86 -38 -127 13 -94 47 -84 82 127 7 -81 -111 -33 115 87 102
000040 e5 dc 33 7f c6 5c 9d 63 e7 a2 30 4b ef 4d c0 a6
       -27 -36 51 127 -58 92 -99 99 -25 -94 48 75 -17 77 -64 -90
000050 7f 2b 11 24 81 fc 81 4b 56 58 1a f8 2b 7f 1c 7f
       127 43 17 36 -127 -4 -127 75 86 88 26 -8 43 127 28 127
000060 7f 44 7f 5b be d4 49 81 6f 81 11 85 bd c7 19 2b
       127 68 127 91 -66 -44 73 -127 111 -127 17 -123 -67 -57 25 43
000070 60 81 e4 87 e8 cb 32 64 09 7f 55 db 2c 22 88 da
       96 -127 -28 -121 -24 -53 50 100 9 127 85 -37 44 34 -120 -38
000080 65 7f 5a a8 31 81 a9 60 7f c6 df 81 a8 7f 7f d6
       101 127 90 -88 49 -127 -87 96 127 -58 -33 -127 -88 127 127 -42
000090 11 e4 e6 1a ff f0 40 81 20 a8 7f 81 81 b7 81 1d
       17 -28 -26 26 -1 -16 64 -127 32 -88 127 -127 -127 -73 -127 29

tfl.pseudo_qconst23 i1 [32, 5, 1, 40]
000000 cd fe fc fa 22 d3 35 f1 14 05 22 04 3e f6 3e 0d
       -51 -2 -4 -6 34 -45 53 -15 20 5 34 4 62 -10 62 13
000010 1e c5 3a b7 de fb d2 fb fa e4 2f 38 1f 1f 43 24
       30 -59 58 -73 -34 -5 -46 -5 -6 -28 47 56 31 31 67 36
000020 76 54 59 58 74 59 7f 54 d1 fc 03 31 df 05 11 f2
       118 84 89 88 116 89 127 84 -47 -4 3 49 -33 5 17 -14
000030 e7 f7 d7 11 55 18 13 da db 12 dd b0 08 fa 38 1d
       -25 -9 -41 17 85 24 19 -38 -37 18 -35 -80 8 -6 56 29
000040 fa ea 2a 34 22 41 d5 3b 2d 44 47 18 69 62 1f 31
       -6 -22 42 52 34 65 -43 59 45 68 71 24 105 98 31 49
000050 2f 39 40 fa 2d 06 f4 04 f0 c8 10 f4 5f 24 28 f9
       47 57 64 -6 45 6 -12 4 -16 -56 16 -12 95 36 40 -7
000060 1a fa e1 d7 3b f8 01 f6 fe 02 0c ef f4 3a 2c 1c
       26 -6 -31 -41 59 -8 1 -10 -2 2 12 -17 -12 58 44 28
000070 03 fa 09 25 fe 1d e3 21 07 21 1a 23 09 2d f1 20
       3 -6 9 37 -2 29 -29 33 7 33 26 35 9 45 -15 32
000080 36 f8 32 2b 1a 52 1c 22 fd a3 f9 d3 51 e5 26 32
       54 -8 50 43 26 82 28 34 -3 -93 -7 -45 81 -27 38 50
000090 57 f3 1a 2a 19 de 11 f2 d9 a3 1d c1 eb d5 fb 1e
       87 -13 26 42 25 -34 17 -14 -39 -93 29 -63 -21 -43 -5 30
0000a0 47 1e 42 40 5d f9 6a 6e 6b 35 1a 40 4e 0a 2a 07
       71 30 66 64 93 -7 106 110 107 53 26 64 78 10 42 7
0000b0 fd 15 14 33 44 3b 73 3e 4d 0b 22 f7 37 34 3d 0e
       -3 21 20 51 68 59 115 62 77 11 34 -9 55 52 61 14
0000c0 d8 9a ba a7 92 09 f1 eb 38 f3 55 18 1c 06 38 12
       -40 -102 -70 -89 -110 9 -15 -21 56 -13 85 24 28 6 56 18
0000d0 f1 11 12 06 16 d2 e8 e4 eb 27 17 f2 db 04 00 00
       -15 17 18 6 22 -46 -24 -28 -21 39 23 -14 -37 4 0 0
0000e0 e6 18 07 18 1b 24 0b ef 15 06 4a 28 5d 3f 5b 3d
       -26 24 7 24 27 36 11 -17 21 6 74 40 93 63 91 61
0000f0 42 04 1c 56 1f 08 02 0c f9 05 fc ea 33 ea 0a 19
       66 4 28 86 31 8 2 12 -7 5 -4 -22 51 -22 10 25

tfl.pseudo_qconst24 i1 [1, 22, 1, 64] scale=0.0433179 zero_point=-128
000000 80 80 80 80 80 80 80 80 80 80 80 80 80 80 80 80
       0.0 0.0 0.0 0.0 0.0 0.0 0.0 0.0 0.0 0.0 0.0 0.0 0.0 0.0 0.0 0.0
000010 80 80 80 80 80 80 80 80 80 80 80 80 80 80 80 80
       0.0 0.0 0.0 0.0 0.0 0.0 0.0 0.0 0.0 0.0 0.0 0.0 0.0 0.0 0.0 0.0
000020 80 80 80 80 80 80 80 80 80 80 80 80 80 80 80 80
       0.0 0.0 0.0 0.0 0.0 0.0 0.0 0.0 0.0 0.0 0.0 0.0 0.0 0.0 0.0 0.0
000030 80 80 80 80 80 80 80 80 80 80 80 80 80 80 80 80
       0.0 0.0 0.0 0.0 0.0 0.0 0.0 0.0 0.0 0.0 0.0 0.0 0.0 0.0 0.0 0.0
000040 80 80 80 80 80 80 80 80 80 80 80 80 80 80 80 80
       0.0 0.0 0.0 0.0 0.0 0.0 0.0 0.0 0.0 0.0 0.0 0.0 0.0 0.0 0.0 0.0
000050 80 80 80 80 80 80 80 80 80 80 80 80 80 80 80 80
       0.0 0.0 0.0 0.0 0.0 0.0 0.0 0.0 0.0 0.0 0.0 0.0 0.0 0.0 0.0 0.0
000060 80 80 80 80 80 80 80 80 80 80 80 80 80 80 80 80
       0.0 0.0 0.0 0.0 0.0 0.0 0.0 0.0 0.0 0.0 0.0 0.0 0.0 0.0 0.0 0.0
000070 80 80 80 80 80 80 80 80 80 80 80 80 80 80 80 80
       0.0 0.0 0.0 0.0 0.0 0.0 0.0 0.0 0.0 0.0 0.0 0.0 0.0 0.0 0.0 0.0
000080 80 80 80 80 80 80 80 80 80 80 80 80 80 80 80 80
       0.0 0.0 0.0 0.0 0.0 0.0 0.0 0.0 0.0 0.0 0.0 0.0 0.0 0.0 0.0 0.0
000090 80 80 80 80 80 80 80 80 80 80 80 80 80 80 80 80
       0.0 0.0 0.0 0.0 0.0 0.0 0.0 0.0 0.0 0.0 0.0 0.0 0.0 0.0 0.0 0.0
0000a0 80 80 80 80 80 80 80 80 80 80 80 80 80 80 80 80
       0.0 0.0 0.0 0.0 0.0 0.0 0.0 0.0 0.0 0.0 0.0 0.0 0.0 0.0 0.0 0.0
0000b0 80 80 80 80 80 80 80 80 80 80 80 80 80 80 80 80
       0.0 0.0 0.0 0.0 0.0 0.0 0.0 0.0 0.0 0.0 0.0 0.0 0.0 0.0 0.0 0.0
0000c0 80 80 80 80 80 80 80 80 80 80 80 80 80 80 80 80
       0.0 0.0 0.0 0.0 0.0 0.0 0.0 0.0 0.0 0.0 0.0 0.0 0.0 0.0 0.0 0.0
0000d0 80 80 80 80 80 80 80 80 80 80 80 80 80 80 80 80
       0.0 0.0 0.0 0.0 0.0 0.0 0.0 0.0 0.0 0.0 0.0 0.0 0.0 0.0 0.0 0.0
0000e0 80 80 80 80 80 80 80 80 80 80 80 80 80 80 80 80
       0.0 0.0 0.0 0.0 0.0 0.0 0.0 0.0 0.0 0.0 0.0 0.0 0.0 0.0 0.0 0.0
0000f0 80 80 80 80 80 80 80 80 80 80 80 80 80 80 80 80
       0.0 0.0 0.0 0.0 0.0 0.0 0.0 0.0 0.0 0.0 0.0 0.0 0.0 0.0 0.0 0.0

tfl.pseudo_qconst25 i1 [1, 36, 1, 64] scale=0.030449621 zero_point=-128
000000 80 80 80 80 80 80 80 80 80 80 80 80 80 80 80 80
       0.0 0.0 0.0 0.0 0.0 0.0 0.0 0.0 0.0 0.0 0.0 0.0 0.0 0.0 0.0 0.0
000010 80 80 80 80 80 80 80 80 80 80 80 80 80 80 80 80
       0.0 0.0 0.0 0.0 0.0 0.0 0.0 0.0 0.0 0.0 0.0 0.0 0.0 0.0 0.0 0.0
000020 80 80 80 80 80 80 80 80 80 80 80 80 80 80 80 80
       0.0 0.0 0.0 0.0 0.0 0.0 0.0 0.0 0.0 0.0 0.0 0.0 0.0 0.0 0.0 0.0
000030 80 80 80 80 80 80 80 80 80 80 80 80 80 80 80 80
       0.0 0.0 0.0 0.0 0.0 0.0 0.0 0.0 0.0 0.0 0.0 0.0 0.0 0.0 0.0 0.0
000040 80 80 80 80 80 80 80 80 80 80 80 80 80 80 80 80
       0.0 0.0 0.0 0.0 0.0 0.0 0.0 0.0 0.0 0.0 0.0 0.0 0.0 0.0 0.0 0.0
000050 80 80 80 80 80 80 80 80 80 80 80 80 80 80 80 80
       0.0 0.0 0.0 0.0 0.0 0.0 0.0 0.0 0.0 0.0 0.0 0.0 0.0 0.0 0.0 0.0
000060 80 80 80 80 80 80 80 80 80 80 80 80 80 80 80 80
       0.0 0.0 0.0 0.0 0.0 0.0 0.0 0.0 0.0 0.0 0.0 0.0 0.0 0.0 0.0 0.0
000070 80 80 80 80 80 80 80 80 80 80 80 80 80 80 80 80
       0.0 0.0 0.0 0.0 0.0 0.0 0.0 0.0 0.0 0.0 0.0 0.0 0.0 0.0 0.0 0.0
000080 80 80 80 80 80 80 80 80 80 80 80 80 80 80 80 80
       0.0 0.0 0.0 0.0 0.0 0.0 0.0 0.0 0.0 0.0 0.0 0.0 0.0 0.0 0.0 0.0
000090 80 80 80 80 80 80 80 80 80 80 80 80 80 80 80 80
       0.0 0.0 0.0 0.0 0.0 0.0 0.0 0.0 0.0 0.0 0.0 0.0 0.0 0.0 0.0 0.0
0000a0 80 80 80 80 80 80 80 80 80 80 80 80 80 80 80 80
       0.0 0.0 0.0 0.0 0.0 0.0 0.0 0.0 0.0 0.0 0.0 0.0 0.0 0.0 0.0 0.0
0000b0 80 80 80 80 80 80 80 80 80 80 80 80 80 80 80 80
       0.0 0.0 0.0 0.0 0.0 0.0 0.0 0.0 0.0 0.0 0.0 0.0 0.0 0.0 0.0 0.0
0000c0 80 80 80 80 80 80 80 80 80 80 80 80 80 80 80 80
       0.0 0.0 0.0 0.0 0.0 0.0 0.0 0.0 0.0 0.0 0.0 0.0 0.0 0.0 0.0 0.0
0000d0 80 80 80 80 80 80 80 80 80 80 80 80 80 80 80 80
       0.0 0.0 0.0 0.0 0.0 0.0 0.0 0.0 0.0 0.0 0.0 0.0 0.0 0.0 0.0 0.0
0000e0 80 80 80 80 80 80 80 80 80 80 80 80 80 80 80 80
       0.0 0.0 0.0 0.0 0.0 0.0 0.0 0.0 0.0 0.0 0.0 0.0 0.0 0.0 0.0 0.0
0000f0 80 80 80 80 80 80 80 80 80 80 80 80 80 80 80 80
       0.0 0.0 0.0 0.0 0.0 0.0 0.0 0.0 0.0 0.0 0.0 0.0 0.0 0.0 0.0 0.0

tfl.pseudo_qconst26 i1 [1, 3, 1, 40] scale=0.101960786 zero_point=-128
000000 80 80 80 80 80 80 80 80 80 80 80 80 80 80 80 80
       0.0 0.0 0.0 0.0 0.0 0.0 0.0 0.0 0.0 0.0 0.0 0.0 0.0 0.0 0.0 0.0
000010 80 80 80 80 80 80 80 80 80 80 80 80 80 80 80 80
       0.0 0.0 0.0 0.0 0.0 0.0 0.0 0.0 0.0 0.0 0.0 0.0 0.0 0.0 0.0 0.0
000020 80 80 80 80 80 80 80 80 80 80 80 80 80 80 80 80
       0.0 0.0 0.0 0.0 0.0 0.0 0.0 0.0 0.0 0.0 0.0 0.0 0.0 0.0 0.0 0.0
000030 80 80 80 80 80 80 80 80 80 80 80 80 80 80 80 80
       0.0 0.0 0.0 0.0 0.0 0.0 0.0 0.0 0.0 0.0 0.0 0.0 0.0 0.0 0.0 0.0
000040 80 80 80 80 80 80 80 80 80 80 80 80 80 80 80 80
       0.0 0.0 0.0 0.0 0.0 0.0 0.0 0.0 0.0 0.0 0.0 0.0 0.0 0.0 0.0 0.0
000050 80 80 80 80 80 80 80 80 80 80 80 80 80 80 80 80
       0.0 0.0 0.0 0.0 0.0 0.0 0.0 0.0 0.0 0.0 0.0 0.0 0.0 0.0 0.0 0.0
000060 80 80 80 80 80 80 80 80 80 80 80 80 80 80 80 80
       0.0 0.0 0.0 0.0 0.0 0.0 0.0 0.0 0.0 0.0 0.0 0.0 0.0 0.0 0.0 0.0
000070 80 80 80 80 80 80 80 80
       0.0 0.0 0.0 0.0 0.0 0.0 0.0 0.0

tfl.pseudo_qconst27 i1 [1, 4, 1, 32] scale=0.85158604 zero_point=-128
000000 80 80 80 80 80 80 80 80 80 80 80 80 80 80 80 80
       0.0 0.0 0.0 0.0 0.0 0.0 0.0 0.0 0.0 0.0 0.0 0.0 0.0 0.0 0.0 0.0
000010 80 80 80 80 80 80 80 80 80 80 80 80 80 80 80 80
       0.0 0.0 0.0 0.0 0.0 0.0 0.0 0.0 0.0 0.0 0.0 0.0 0.0 0.0 0.0 0.0
000020 80 80 80 80 80 80 80 80 80 80 80 80 80 80 80 80
       0.0 0.0 0.0 0.0 0.0 0.0 0.0 0.0 0.0 0.0 0.0 0.0 0.0 0.0 0.0 0.0
000030 80 80 80 80 80 80 80 80 80 80 80 80 80 80 80 80
       0.0 0.0 0.0 0.0 0.0 0.0 0.0 0.0 0.0 0.0 0.0 0.0 0.0 0.0 0.0 0.0
000040 80 80 80 80 80 80 80 80 80 80 80 80 80 80 80 80
       0.0 0.0 0.0 0.0 0.0 0.0 0.0 0.0 0.0 0.0 0.0 0.0 0.0 0.0 0.0 0.0
000050 80 80 80 80 80 80 80 80 80 80 80 80 80 80 80 80
       0.0 0.0 0.0 0.0 0.0 0.0 0.0 0.0 0.0 0.0 0.0 0.0 0.0 0.0 0.0 0.0
000060 80 80 80 80 80 80 80 80 80 80 80 80 80 80 80 80
       0.0 0.0 0.0 0.0 0.0 0.0 0.0 0.0 0.0 0.0 0.0 0.0 0.0 0.0 0.0 0.0
000070 80 80 80 80 80 80 80 80 80 80 80 80 80 80 80 80
       0.0 0.0 0.0 0.0 0.0 0.0 0.0 0.0 0.0 0.0 0.0 0.0 0.0 0.0 0.0 0.0

tfl.pseudo_qconst28 i1 [1, 10, 1, 64] scale=0.034530543 zero_point=-128
000000 80 80 80 80 80 80 80 80 80 80 80 80 80 80 80 80
       0.0 0.0 0.0 0.0 0.0 0.0 0.0 0.0 0.0 0.0 0.0 0.0 0.0 0.0 0.0 0.0
000010 80 80 80 80 80 80 80 80 80 80 80 80 80 80 80 80
       0.0 0.0 0.0 0.0 0.0 0.0 0.0 0.0 0.0 0.0 0.0 0.0 0.0 0.0 0.0 0.0
000020 80 80 80 80 80 80 80 80 80 80 80 80 80 80 80 80
       0.0 0.0 0.0 0.0 0.0 0.0 0.0 0.0 0.0 0.0 0.0 0.0 0.0 0.0 0.0 0.0
000030 80 80 80 80 80 80 80 80 80 80 80 80 80 80 80 80
       0.0 0.0 0.0 0.0 0.0 0.0 0.0 0.0 0.0 0.0 0.0 0.0 0.0 0.0 0.0 0.0
000040 80 80 80 80 80 80 80 80 80 80 80 80 80 80 80 80
       0.0 0.0 0.0 0.0 0.0 0.0 0.0 0.0 0.0 0.0 0.0 0.0 0.0 0.0 0.0 0.0
000050 80 80 80 80 80 80 80 80 80 80 80 80 80 80 80 80
       0.0 0.0 0.0 0.0 0.0 0.0 0.0 0.0 0.0 0.0 0.0 0.0 0.0 0.0 0.0 0.0
000060 80 80 80 80 80 80 80 80 80 80 80 80 80 80 80 80
       0.0 0.0 0.0 0.0 0.0 0.0 0.0 0.0 0.0 0.0 0.0 0.0 0.0 0.0 0.0 0.0
000070 80 80 80 80 80 80 80 80 80 80 80 80 80 80 80 80
       0.0 0.0 0.0 0.0 0.0 0.0 0.0 0.0 0.0 0.0 0.0 0.0 0.0 0.0 0.0 0.0
000080 80 80 80 80 80 80 80 80 80 80 80 80 80 80 80 80
       0.0 0.0 0.0 0.0 0.0 0.0 0.0 0.0 0.0 0.0 0.0 0.0 0.0 0.0 0.0 0.0
000090 80 80 80 80 80 80 80 80 80 80 80 80 80 80 80 80
       0.0 0.0 0.0 0.0 0.0 0.0 0.0 0.0 0.0 0.0 0.0 0.0 0.0 0.0 0.0 0.0
0000a0 80 80 80 80 80 80 80 80 80 80 80 80 80 80 80 80
       0.0 0.0 0.0 0.0 0.0 0.0 0.0 0.0 0.0 0.0 0.0 0.0 0.0 0.0 0.0 0.0
0000b0 80 80 80 80 80 80 80 80 80 80 80 80 80 80 80 80
       0.0 0.0 0.0 0.0 0.0 0.0 0.0 0.0 0.0 0.0 0.0 0.0 0.0 0.0 0.0 0.0
0000c0 80 80 80 80 80 80 80 80 80 80 80 80 80 80 80 80
       0.0 0.0 0.0 0.0 0.0 0.0 0.0 0.0 0.0 0.0 0.0 0.0 0.0 0.0 0.0 0.0
0000d0 80 80 80 80 80 80 80 80 80 80 80 80 80 80 80 80
       0.0 0.0 0.0 0.0 0.0 0.0 0.0 0.0 0.0 0.0 0.0 0.0 0.0 0.0 0.0 0.0
0000e0 80 80 80 80 80 80 80 80 80 80 80 80 80 80 80 80
       0.0 0.0 0.0 0.0 0.0 0.0 0.0 0.0 0.0 0.0 0.0 0.0 0.0 0.0 0.0 0.0
0000f0 80 80 80 80 80 80 80 80 80 80 80 80 80 80 80 80
       0.0 0.0 0.0 0.0 0.0 0.0 0.0 0.0 0.0 0.0 0.0 0.0 0.0 0.0 0.0 0.0

tfl.pseudo_qconst29 i1 [1, 14, 1, 64] scale=0.040452402 zero_point=-128
000000 80 80 80 80 80 80 80 80 80 80 80 80 80 80 80 80
       0.0 0.0 0.0 0.0 0.0 0.0 0.0 0.0 0.0 0.0 0.0 0.0 0.0 0.0 0.0 0.0
000010 80 80 80 80 80 80 80 80 80 80 80 80 80 80 80 80
       0.0 0.0 0.0 0.0 0.0 0.0 0.0 0.0 0.0 0.0 0.0 0.0 0.0 0.0 0.0 0.0
000020 80 80 80 80 80 80 80 80 80 80 80 80 80 80 80 80
       0.0 0.0 0.0 0.0 0.0 0.0 0.0 0.0 0.0 0.0 0.0 0.0 0.0 0.0 0.0 0.0
000030 80 80 80 80 80 80 80 80 80 80 80 80 80 80 80 80
       0.0 0.0 0.0 0.0 0.0 0.0 0.0 0.0 0.0 0.0 0.0 0.0 0.0 0.0 0.0 0.0
000040 80 80 80 80 80 80 80 80 80 80 80 80 80 80 80 80
       0.0 0.0 0.0 0.0 0.0 0.0 0.0 0.0 0.0 0.0 0.0 0.0 0.0 0.0 0.0 0.0
000050 80 80 80 80 80 80 80 80 80 80 80 80 80 80 80 80
       0.0 0.0 0.0 0.0 0.0 0.0 0.0 0.0 0.0 0.0 0.0 0.0 0.0 0.0 0.0 0.0
000060 80 80 80 80 80 80 80 80 80 80 80 80 80 80 80 80
       0.0 0.0 0.0 0.0 0.0 0.0 0.0 0.0 0.0 0.0 0.0 0.0 0.0 0.0 0.0 0.0
000070 80 80 80 80 80 80 80 80 80 80 80 80 80 80 80 80
       0.0 0.0 0.0 0.0 0.0 0.0 0.0 0.0 0.0 0.0 0.0 0.0 0.0 0.0 0.0 0.0
000080 80 80 80 80 80 80 80 80 80 80 80 80 80 80 80 80
       0.0 0.0 0.0 0.0 0.0 0.0 0.0 0.0 0.0 0.0 0.0 0.0 0.0 0.0 0.0 0.0
000090 80 80 80 80 80 80 80 80 80 80 80 80 80 80 80 80
       0.0 0.0 0.0 0.0 0.0 0.0 0.0 0.0 0.0 0.0 0.0 0.0 0.0 0.0 0.0 0.0
0000a0 80 80 80 80 80 80 80 80 80 80 80 80 80 80 80 80
       0.0 0.0 0.0 0.0 0.0 0.0 0.0 0.0 0.0 0.0 0.0 0.0 0.0 0.0 0.0 0.0
0000b0 80 80 80 80 80 80 80 80 80 80 80 80 80 80 80 80
       0.0 0.0 0.0 0.0 0.0 0.0 0.0 0.0 0.0 0.0 0.0 0.0 0.0 0.0 0.0 0.0
0000c0 80 80 80 80 80 80 80 80 80 80 80 80 80 80 80 80
       0.0 0.0 0.0 0.0 0.0 0.0 0.0 0.0 0.0 0.0 0.0 0.0 0.0 0.0 0.0 0.0
0000d0 80 80 80 80 80 80 80 80 80 80 80 80 80 80 80 80
       0.0 0.0 0.0 0.0 0.0 0.0 0.0 0.0 0.0 0.0 0.0 0.0 0.0 0.0 0.0 0.0
0000e0 80 80 80 80 80 80 80 80 80 80 80 80 80 80 80 80
       0.0 0.0 0.0 0.0 0.0 0.0 0.0 0.0 0.0 0.0 0.0 0.0 0.0 0.0 0.0 0.0
0000f0 80 80 80 80 80 80 80 80 80 80 80 80 80 80 80 80
       0.0 0.0 0.0 0.0 0.0 0.0 0.0 0.0 0.0 0.0 0.0 0.0 0.0 0.0 0.0 0.0
