pt-br/models/ei_sexta.tflite (tflite, 82128 bytes, 18 tensors)

tfl.pseudo_qconst1 i1 [1, 2368] scale=0.0015599596 zero_point=0
00000000: afe7 bde5 f0ee bdbd fb13 db2e 0e08 ebfc
00000010: aefa c7d8 15e8 f7ec e3c9 cb0d b4e8 d4de
00000020: c0b6 f1da bbd0 a813 86de be0a f9ed e9e4
00000030: 06fd cad8 ecf1 e7df dbb2 f1db 9910 f0f0
00000040: ce0b d4fd bdf8 ebcc e5dd cc09 1aee 0306
00000050: c201 d4ea ede8 dffd 13ee fe04 b7f7 ecd2
00000060: e9cf deb7 d0d6 e10e 9ed6 eef2 d4ef 14ff
00000070: 36c2 cf0c e804 f5f0 eac9 f3cf 81df d7e2
00000080: f6ed e6e7 f2c7 fdc9 edec d33c 13f9 fbc8
00000090: c7fa 0805 00e0 f7f2 eb12 fc08 e21b e607
000000a0: eef7 d1e5 f0fe ce01 d4fb d0e0 e8b3 e8dc
000000b0: fab5 cdeb bde6 f90d 10e3 0be1 b9e9 ecd5
000000c0: ec02 d10b ff04 fef2 0f2f eb37 e7bd 19b3
000000d0: e5e7 ec04 0dcf da13 eb07 fce1 13de f8bc
000000e0: 0b2d 08f6 e71b d71e f80c fbfd 1dcd 07d9
000000f0: d3e7 be09 c8f3 fef9 18f1 eed8 d2d8 e9d5
-0.12635672 -0.03899899 -0.104517296 -0.04211891 -0.024959354 -0.028079273 -0.104517296 -0.104517296
-0.007799798 0.029639233 -0.057718504 0.07175814 0.021839434 0.012479677 -0.032759152 -0.0062398384
-0.1279167 -0.009359757 -0.088917695 -0.062398385 0.032759152 -0.03743903 -0.014039637 -0.031199193
-0.04523883 -0.08579778 -0.082677856 0.020279475 -0.11855693 -0.03743903 -0.06863822 -0.053038627
-0.099837415 -0.11543701 -0.023399394 -0.059278466 -0.10763721 -0.07487806 -0.13727644 0.029639233
-0.19031507 -0.053038627 -0.10295733 0.015599596 -0.010919717 -0.029639233 -0.03587907 -0.04367887
0.009359757 -0.0046798787 -0.08423782 -0.062398385 -0.031199193 -0.023399394 -0.03899899 -0.051478665
-0.057718504 -0.12167685 -0.023399394 -0.057718504 -0.16067584 0.024959354 -0.024959354 -0.024959354
-0.07799798 0.017159555 -0.06863822 -0.0046798787 -0.104517296 -0.012479677 -0.032759152 -0.0811179
-0.04211891 -0.054598585 -0.0811179 0.014039637 0.04055895 -0.028079273 0.0046798787 0.009359757
-0.0967175 0.0015599596 -0.06863822 -0.03431911 -0.029639233 -0.03743903 -0.051478665 -0.0046798787
0.029639233 -0.028079273 -0.0031199192 0.0062398384 -0.11387705 -0.014039637 -0.031199193 -0.07175814
-0.03587907 -0.07643802 -0.053038627 -0.11387705 -0.07487806 -0.065518305 -0.04835875 0.021839434
-0.15287603 -0.065518305 -0.028079273 -0.021839434 -0.06863822 -0.026519313 0.031199193 -0.0015599596
0.08423782 -0.0967175 -0.07643802 0.018719515 -0.03743903 0.0062398384 -0.017159555 -0.024959354
-0.03431911 -0.08579778 -0.020279475 -0.07643802 -0.19811487 -0.051478665 -0.06395835 -0.046798788
-0.015599596 -0.029639233 -0.04055895 -0.03899899 -0.021839434 -0.088917695 -0.0046798787 -0.08579778
-0.029639233 -0.031199193 -0.070198186 0.093597576 0.029639233 -0.010919717 -0.007799798 -0.08735774
-0.088917695 -0.009359757 0.012479677 0.007799798 0.0 -0.049918707 -0.014039637 -0.021839434
-0.032759152 0.028079273 -0.0062398384 0.012479677 -0.046798788 0.04211891 -0.04055895 0.010919717
-0.028079273 -0.014039637 -0.0733181 -0.04211891 -0.024959354 -0.0031199192 -0.07799798 0.0015599596
-0.06863822 -0.007799798 -0.07487806 -0.049918707 -0.03743903 -0.12011689 -0.03743903 -0.056158546
-0.009359757 -0.116996974 -0.07955794 -0.032759152 -0.104517296 -0.04055895 -0.010919717 0.020279475
0.024959354 -0.04523883 0.017159555 -0.04835875 -0.110757135 -0.03587907 -0.031199193 -0.06707826
-0.031199193 0.0031199192 -0.0733181 0.017159555 -0.0015599596 0.0062398384 -0.0031199192 -0.021839434
0.023399394 0.0733181 -0.032759152 0.08579778 -0.03899899 -0.104517296 0.03899899 -0.12011689
-0.04211891 -0.03899899 -0.031199193 0.0062398384 0.020279475 -0.07643802 -0.059278466 0.029639233
-0.032759152 0.010919717 -0.0062398384 -0.04835875 0.029639233 -0.053038627 -0.012479677 -0.106077254
0.017159555 0.070198186 0.012479677 -0.015599596 -0.03899899 0.04211891 -0.06395835 0.046798788
-0.012479677 0.018719515 -0.007799798 -0.0046798787 0.04523883 -0.07955794 0.010919717 -0.060838424
-0.070198186 -0.03899899 -0.10295733 0.014039637 -0.08735774 -0.020279475 -0.0031199192 -0.010919717
0.03743903 -0.023399394 -0.028079273 -0.062398385 -0.07175814 -0.062398385 -0.03587907 -0.06707826

tfl.pseudo_qconst3 i1 [64, 1, 1, 64]
00000000: 39f9 1e0d 2bd3 03d0 00e9 4805 033c c929
00000010: f323 0a44 1d11 e4d7 27f0 4b20 d14b bbd5
00000020: 10df da81 4138 3de2 0432 1e3c f0a9 d131
00000030: fe28 d736 dad8 d104 5ffd e5f2 2411 d9e4
00000040: 1b82 0328 0722 1625 c069 e7f1 17f7 d98d
00000050: cf04 a156 daac 0072 09ca 167c 2c4e ccf8
00000060: d9be f7de 1f0c 193a 5451 8308 0496 de58
00000070: bdd9 a47f f222 9809 4447 26b9 0059 4122
00000080: f90e 20ae b7e6 0f28 accd da56 1112 18b7
00000090: 5ecc d2d2 f563 b6cc c207 ef7f aac7 accf
000000a0: cfcd bc02 cee0 db27 fcd8 13f0 d62d ddcc
000000b0: e1cd 4614 c2ae 0530 c1f5 4a5b 1335 30ce
000000c0: 09e7 c81e 06c1 4d35 f817 f32f 3ff3 d3e7
000000d0: 28eb 1bdf 17f1 ce01 fde9 edb6 0cbc e1e5
000000e0: 2604 e652 16fb 1103 25f4 0016 34fc 27e4
000000f0: d02f ced1 dde6 81ee f8b5 eaa9 e4ec eb38
57 -7 30 13 43 -45 3 -48
0 -23 72 5 3 60 -55 41
-13 35 10 68 29 17 -28 -41
39 -16 75 32 -47 75 -69 -43
16 -33 -38 -127 65 56 61 -30
4 50 30 60 -16 -87 -47 49
-2 40 -41 54 -38 -40 -47 4
95 -3 -27 -14 36 17 -39 -28
27 -126 3 40 7 34 22 37
-64 105 -25 -15 23 -9 -39 -115
-49 4 -95 86 -38 -84 0 114
9 -54 22 124 44 78 -52 -8
-39 -66 -9 -34 31 12 25 58
84 81 -125 8 4 -106 -34 88
-67 -39 -92 127 -14 34 -104 9
68 71 38 -71 0 89 65 34
-7 14 32 -82 -73 -26 15 40
-84 -51 -38 86 17 18 24 -73
94 -52 -46 -46 -11 99 -74 -52
-62 7 -17 127 -86 -57 -84 -49
-49 -51 -68 2 -50 -32 -37 39
-4 -40 19 -16 -42 45 -35 -52
-31 -51 70 20 -62 -82 5 48
-63 -11 74 91 19 53 48 -50
9 -25 -56 30 6 -63 77 53
-8 23 -13 47 63 -13 -45 -25
40 -21 27 -33 23 -15 -50 1
-3 -23 -19 -74 12 -68 -31 -27
38 4 -26 82 22 -5 17 3
37 -12 0 22 52 -4 39 -28
-48 47 -50 -47 -35 -26 -127 -18
-8 -75 -22 -87 -28 -20 -21 56

tfl.pseudo_qconst5 i1 [1, 23, 1, 64]
00000000: b9da 0316 fce9 eb7f 17a0 8153 19e0 81ec
00000010: 604a 282a eb1f 0740 7f81 e4d7 c02c 8182
00000020: c6a8 ee9f 28e0 f2ca 285e fd69 1fe2 0be0
00000030: 7122 f612 4216 3878 e87f de5b e0c6 8e0e
00000040: fa9a 23fd 61ee 4160 77d3 eb7f df81 8e03
00000050: 6327 32d7 475a 5bd9 40cc e3f7 a617 b4ec
00000060: c8cb 3794 f12d 0ea2 5a63 07ec 1be3 7ffa
00000070: 3dc0 e51a 2c1f 6017 cc75 e379 fbe9 8115
00000080: bfaf e836 790a 0be9 2aca 011a fcc1 ae31
00000090: 5a39 7fbd 090a 027f 6de7 f505 df5e ddfc
000000a0: ecda f6c5 fe6f 4d9c 0d77 2bf2 20d1 6309
000000b0: 0d0e d6f2 d235 502d be77 bd3b 10fb ffe3
000000c0: 81b9 fcf5 40d7 38dc fbc3 facb 04e9 fd0e
000000d0: 7526 7431 b603 1e41 40f3 eee7 816e ae07
000000e0: 81ba 2df8 20fa 579c b62b 2902 02d0 4614
000000f0: d409 1f01 a314 267e dc0f d010 24d0 e7cb
-71 -38 3 22 -4 -23 -21 127
23 -96 -127 83 25 -32 -127 -20
96 74 40 42 -21 31 7 64
127 -127 -28 -41 -64 44 -127 -126
-58 -88 -18 -97 40 -32 -14 -54
40 94 -3 105 31 -30 11 -32
113 34 -10 18 66 22 56 120
-24 127 -34 91 -32 -58 -114 14
-6 -102 35 -3 97 -18 65 96
119 -45 -21 127 -33 -127 -114 3
99 39 50 -41 71 90 91 -39
64 -52 -29 -9 -90 23 -76 -20
-56 -53 55 -108 -15 45 14 -94
90 99 7 -20 27 -29 127 -6
61 -64 -27 26 44 31 96 23
-52 117 -29 121 -5 -23 -127 21
-65 -81 -24 54 121 10 11 -23
42 -54 1 26 -4 -63 -82 49
90 57 127 -67 9 10 2 127
109 -25 -11 5 -33 94 -35 -4
-20 -38 -10 -59 -2 111 77 -100
13 119 43 -14 32 -47 99 9
13 14 -42 -14 -46 53 80 45
-66 119 -67 59 16 -5 -1 -29
-127 -71 -4 -11 64 -41 56 -36
-5 -61 -6 -53 4 -23 -3 14
117 38 116 49 -74 3 30 65
64 -13 -18 -25 -127 110 -82 7
-127 -70 45 -8 32 -6 87 -100
-74 43 41 2 2 -48 70 20
-44 9 31 1 -93 20 38 126
-36 15 -48 16 36 -48 -25 -53

tfl.pseudo_qconst7 i1 [64, 1, 1, 64]
00000000: 42b0 a7a3 f870 f9f0 3e5c 10fe a0b4 13f8
00000010: fc12 72ec f643 f34a 1c45 b05a 188a 1001
00000020: 208f d423 f022 51f2 fe1c 4490 1742 102a
00000030: 27ad 81cc cb81 c84a d2d0 4e2e d53e 55c9
00000040: e70e c544 d302 e905 8138 37b8 2b4e f540
00000050: 3540 3a34 5549 e77b 5492 bbe2 e5ad b132
00000060: 10f4 12e4 f9cc 0af0 0012 04e5 eb09 efc0
00000070: bcd5 c9ba 2fe9 3940 b041 ec3c 501f 2fbd
00000080: 5254 4efb f920 e2a7 dc1d 9d32 7f41 eecc
00000090: a2a8 e9ca a81b 35de 07be cc3b 9527 d50f
000000a0: 98f4 3d31 a6da 6c00 21b0 f5ab 6253 dcd9
000000b0: 3428 5ab7 c1c9 df47 340f 6450 e414 4d0e
000000c0: beeb aa00 b28f cd1e 9e33 54cf 29b5 1840
000000d0: 37bd 34a7 08d3 d821 44c7 8107 1803 da07
000000e0: 2317 d34d 18da b7ec dc95 e70c b1c0 b8dd
000000f0: fe1a ccd5 d7dd e126 f823 c2f7 1a90 df62
66 -80 -89 -93 -8 112 -7 -16
62 92 16 -2 -96 -76 19 -8
-4 18 114 -20 -10 67 -13 74
28 69 -80 90 24 -118 16 1
32 -113 -44 35 -16 34 81 -14
-2 28 68 -112 23 66 16 42
39 -83 -127 -52 -53 -127 -56 74
-46 -48 78 46 -43 62 85 -55
-25 14 -59 68 -45 2 -23 5
-127 56 55 -72 43 78 -11 64
53 64 58 52 85 73 -25 123
84 -110 -69 -30 -27 -83 -79 50
16 -12 18 -28 -7 -52 10 -16
0 18 4 -27 -21 9 -17 -64
-68 -43 -55 -70 47 -23 57 64
-80 65 -20 60 80 31 47 -67
82 84 78 -5 -7 32 -30 -89
-36 29 -99 50 127 65 -18 -52
-94 -88 -23 -54 -88 27 53 -34
7 -66 -52 59 -107 39 -43 15
-104 -12 61 49 -90 -38 108 0
33 -80 -11 -85 98 83 -36 -39
52 40 90 -73 -63 -55 -33 71
52 15 100 80 -28 20 77 14
-66 -21 -86 0 -78 -113 -51 30
-98 51 84 -49 41 -75 24 64
55 -67 52 -89 8 -45 -40 33
68 -57 -127 7 24 3 -38 7
35 23 -45 77 24 -38 -73 -20
-36 -107 -25 12 -79 -64 -72 -35
-2 26 -52 -43 -41 -35 -31 38
-8 35 -62 -9 26 -112 -33 98

tfl.pseudo_qconst9 i1 [1, 15, 1, 32]
00000000: 3d26 d944 3b41 3faa 7f51 05b9 3a4d f834
00000010: cdce 3de1 28fe d66f d9f0 d24a 264f bdf2
00000020: 46fe 8117 41aa 9584 99ed 0071 7f66 af05
00000030: a048 43d9 8f0c 6851 fe47 8981 160e eec7
00000040: e2c1 3aab 32e0 badb f36e 2d3b 784d b5c7
00000050: 811c 5109 ba23 fde6 bd7f 922f ece6 bc15
00000060: fcc3 fa30 ef7f 0f43 6023 c5a9 1c2f 0de5
00000070: 9f09 7f22 9739 d61b 982a 812e 4c40 1fd3
00000080: f922 2b42 10e5 f445 e75d 658d 32ef da09
00000090: 075c 0145 c4d3 17ca db0e 9bf7 091d a9c3
000000a0: 1917 5f0c 5cce 1306 4c49 07e2 a3fa a7c1
000000b0: bef9 fd34 ffb3 7f21 1874 aebb 2d0d cc1e
000000c0: 25a7 463e 6bea 817f 7be5 d81a 31ed c7f6
000000d0: 0be4 a1f5 31d1 f67f 4e26 1567 ae5f b2cf
000000e0: 3681 6552 0195 b214 3432 09c2 3b30 d04b
000000f0: 50f1 a7de b4d3 1f76 2097 cac8 ce31 e0c0
61 38 -39 68 59 65 63 -86
127 81 5 -71 58 77 -8 52
-51 -50 61 -31 40 -2 -42 111
-39 -16 -46 74 38 79 -67 -14
70 -2 -127 23 65 -86 -107 -124
-103 -19 0 113 127 102 -81 5
-96 72 67 -39 -113 12 104 81
-2 71 -119 -127 22 14 -18 -57
-30 -63 58 -85 50 -32 -70 -37
-13 110 45 59 120 77 -75 -57
-127 28 81 9 -70 35 -3 -26
-67 127 -110 47 -20 -26 -68 21
-4 -61 -6 48 -17 127 15 67
96 35 -59 -87 28 47 13 -27
-97 9 127 34 -105 57 -42 27
-104 42 -127 46 76 64 31 -45
-7 34 43 66 16 -27 -12 69
-25 93 101 -115 50 -17 -38 9
7 92 1 69 -60 -45 23 -54
-37 14 -101 -9 9 29 -87 -61
25 23 95 12 92 -50 19 6
76 73 7 -30 -93 -6 -89 -63
-66 -7 -3 52 -1 -77 127 33
24 116 -82 -69 45 13 -52 30
37 -89 70 62 107 -22 -127 127
123 -27 -40 26 49 -19 -57 -10
11 -28 -95 -11 49 -47 -10 127
78 38 21 103 -82 95 -78 -49
54 -127 101 82 1 -107 -78 20
52 50 9 -62 59 48 -48 75
80 -15 -89 -34 -76 -45 31 118
32 -105 -54 -56 -50 49 -32 -64

tfl.pseudo_qconst11 i1 [1, 9, 1, 32]
00000000: 3e71 6b58 56df 23fc 27df 6dd5 db12 45ab
00000010: b1ac 7520 e94d 21e5 360c a40d 40f6 e40a
00000020: 77f8 742d a6e1 0a7f 90b5 bc7e ea20 4978
00000030: 76b6 fe71 d2fb 69fd ca2c c444 2f0c 8b87
00000040: 647f 344b 8f1f 395f 27be bd18 01ca 273f
00000050: 6797 c17f 292c 479a 1acf 2b7f ef2d d4d1
00000060: 27ba 321e b9e2 dbf5 8181 4fca 0617 5144
00000070: a65a ba4b 6740 7fc2 1bcf 2e37 dd34 81d1
00000080: 1101 251e 0703 7f01 1d8a 7fdc f376 207f
00000090: 8a3a 7114 f00c 9f74 d530 7f48 d2bf e526
000000a0: 2a94 8477 8996 f83c d994 976d 884a 811d
000000b0: 33d4 7707 e9fc 733e cfe9 75f8 816a d5c3
000000c0: b211 8b7f 4516 cad2 60e3 aa13 bf09 df1d
000000d0: 5725 7f6f 37e6 0165 c113 70e0 f0de de4e
000000e0: 53e8 8117 7f9d e637 2e90 c881 85f2 06a1
000000f0: 8165 37de 81ce 24ae 7033 11ab a42e c17f
62 113 107 88 86 -33 35 -4
39 -33 109 -43 -37 18 69 -85
-79 -84 117 32 -23 77 33 -27
54 12 -92 13 64 -10 -28 10
119 -8 116 45 -90 -31 10 127
-112 -75 -68 126 -22 32 73 120
118 -74 -2 113 -46 -5 105 -3
-54 44 -60 68 47 12 -117 -121
100 127 52 75 -113 31 57 95
39 -66 -67 24 1 -54 39 63
103 -105 -63 127 41 44 71 -102
26 -49 43 127 -17 45 -44 -47
39 -70 50 30 -71 -30 -37 -11
-127 -127 79 -54 6 23 81 68
-90 90 -70 75 103 64 127 -62
27 -49 46 55 -35 52 -127 -47
17 1 37 30 7 3 127 1
29 -118 127 -36 -13 118 32 127
-118 58 113 20 -16 12 -97 116
-43 48 127 72 -46 -65 -27 38
42 -108 -124 119 -119 -106 -8 60
-39 -108 -105 109 -120 74 -127 29
51 -44 119 7 -23 -4 115 62
-49 -23 117 -8 -127 106 -43 -61
-78 17 -117 127 69 22 -54 -46
96 -29 -86 19 -65 9 -33 29
87 37 127 111 55 -26 1 101
-63 19 112 -32 -16 -34 -34 78
83 -24 -127 23 127 -99 -26 55
46 -112 -56 -127 -123 -14 6 -95
-127 101 55 -34 -127 -50 36 -82
112 51 17 -85 -92 46 -63 127

tfl.pseudo_qconst13 i1 [64, 1, 1, 64]
00000000: 36c6 c9c8 5156 cc48 2f01 66d5 f320 ad41
00000010: d57f 02d8 0feb feda 58f6 62b9 253c 07b7
00000020: 2e16 e1e3 c51e bc1c 3f4f 13b5 103a d0b9
00000030: 1a3d f4a5 413e c012 f4bf 4035 f0fe ad0a
00000040: ce1a 0f17 ad23 32d0 2c16 28e3 0d1c f0dc
00000050: d2a9 082c 1e5e 45fe 1aa7 db22 f5e5 0d35
00000060: 02f6 e4b1 233f ce08 b4c0 3405 10c4 2861
00000070: 5f47 0252 e0ea 4fda 3a33 fa27 7fef 0007
00000080: 320c 21fa 0ddc 2922 ba03 3b18 404d d8fd
00000090: aca9 3afb da2d c42a 0540 3532 0a48 c42b
000000a0: 5bf6 14b2 0b2c 7fc3 e5a1 2be7 a7ec 5911
000000b0: 5227 22dd 1b1c 07f7 2054 f8b7 0954 5349
000000c0: 1122 3fe8 cbfb e840 caf5 5e1d d209 24de
000000d0: becf e311 f5cc 39e8 7f27 f3d9 fa2b fe23
000000e0: 301a 21cf 3abf 4458 1541 20fb 463c d3fb
000000f0: ef18 2354 25e0 e4f4 da37 f4c0 c4fc ac05
54 -58 -55 -56 81 86 -52 72
47 1 102 -43 -13 32 -83 65
-43 127 2 -40 15 -21 -2 -38
88 -10 98 -71 37 60 7 -73
46 22 -31 -29 -59 30 -68 28
63 79 19 -75 16 58 -48 -71
26 61 -12 -91 65 62 -64 18
-12 -65 64 53 -16 -2 -83 10
-50 26 15 23 -83 35 50 -48
44 22 40 -29 13 28 -16 -36
-46 -87 8 44 30 94 69 -2
26 -89 -37 34 -11 -27 13 53
2 -10 -28 -79 35 63 -50 8
-76 -64 52 5 16 -60 40 97
95 71 2 82 -32 -22 79 -38
58 51 -6 39 127 -17 0 7
50 12 33 -6 13 -36 41 34
-70 3 59 24 64 77 -40 -3
-84 -87 58 -5 -38 45 -60 42
5 64 53 50 10 72 -60 43
91 -10 20 -78 11 44 127 -61
-27 -95 43 -25 -89 -20 89 17
82 39 34 -35 27 28 7 -9
32 84 -8 -73 9 84 83 73
17 34 63 -24 -53 -5 -24 64
-54 -11 94 29 -46 9 36 -34
-66 -49 -29 17 -11 -52 57 -24
127 39 -13 -39 -6 43 -2 35
48 26 33 -49 58 -65 68 88
21 65 32 -5 70 60 -45 -5
-17 24 35 84 37 -32 -28 -12
-38 55 -12 -64 -60 -4 -84 5

tfl.pseudo_qconst15 i1 [1, 11, 1, 32]
00000000: 612f dc7f 07f2 e1b7 a705 64e6 4538 017f
00000010: f509 0212 0078 3f7f f05d 7f28 447f ca37
00000020: 125d 3d04 2135 fb16 3a2f 1c2b 28fd e45d
00000030: fd25 7f7b e03e ca51 fe18 a17f dac6 cc1d
00000040: e59d 563b 8cbc f354 e9f5 07f4 4196 edab
00000050: 21db 101d ec60 ef1a 27c4 43a2 1708 c4ce
00000060: 3e40 7f05 8114 a7a3 9bed 98ec c264 00bc
00000070: a747 d9b0 bc72 0340 da28 20bb c5aa b8e9
00000080: 317f 0da5 f640 9581 bd15 f950 b958 f807
00000090: 497f c232 55a5 493e c969 29aa 8ae5 1597
000000a0: 40e5 d15e d70e 95af 66ec 66ec c781 f8c8
000000b0: cef6 fd9c 357f 040f 51f9 3894 01fd 7f81
000000c0: 9a59 da14 6106 82c3 f660 eae1 edc7 c04d
000000d0: 9e1d d181 ea7e 4ac0 357f 5c67 2401 75f3
000000e0: bb2b d0e6 7226 f7c1 255e c2b2 3301 7f22
000000f0: 811a ff89 7f9f 7f83 d7bf a62f 2ae5 d132
97 47 -36 127 7 -14 -31 -73
-89 5 100 -26 69 56 1 127
-11 9 2 18 0 120 63 127
-16 93 127 40 68 127 -54 55
18 93 61 4 33 53 -5 22
58 47 28 43 40 -3 -28 93
-3 37 127 123 -32 62 -54 81
-2 24 -95 127 -38 -58 -52 29
-27 -99 86 59 -116 -68 -13 84
-23 -11 7 -12 65 -106 -19 -85
33 -37 16 29 -20 96 -17 26
39 -60 67 -94 23 8 -60 -50
62 64 127 5 -127 20 -89 -93
-101 -19 -104 -20 -62 100 0 -68
-89 71 -39 -80 -68 114 3 64
-38 40 32 -69 -59 -86 -72 -23
49 127 13 -91 -10 64 -107 -127
-67 21 -7 80 -71 88 -8 7
73 127 -62 50 85 -91 73 62
-55 105 41 -86 -118 -27 21 -105
64 -27 -47 94 -41 14 -107 -81
102 -20 102 -20 -57 -127 -8 -56
-50 -10 -3 -100 53 127 4 15
81 -7 56 -108 1 -3 127 -127
-102 89 -38 20 97 6 -126 -61
-10 96 -22 -31 -19 -57 -64 77
-98 29 -47 -127 -22 126 74 -64
53 127 92 103 36 1 117 -13
-69 43 -48 -26 114 38 -9 -63
37 94 -62 -78 51 1 127 34
-127 26 -1 -119 127 -97 127 -125
-41 -65 -90 47 42 -27 -47 50

tfl.pseudo_qconst17 i1 [1, 7, 1, 32]
00000000: 3163 1790 b5b3 49ca 5281 7f71 633e 817f
00000010: 5ed9 5c81 23b9 cea6 1ad2 7f39 3ae6 941d
00000020: 7f9f a67f ebc5 8181 2481 c807 b854 983f
00000030: 5f2c 5229 8129 e7d0 9a7f bd6f 9a53 7fa6
00000040: eb96 ded3 b1e9 233b d0b9 3025 9a30 bd27
00000050: d3e2 7f49 1d81 0e7f ef1e 6b3d cb81 15c3
00000060: a70c 8147 4781 cc3d b105 06d9 c3ee c90b
00000070: e259 4039 03bf 9b60 a452 cce9 7f3d eb19
00000080: e458 df22 67e5 e753 a8cd 3f81 2b81 1e0f
00000090: 8e6c 3603 32a7 f4ed 0ba7 e800 04c0 bb7f
000000a0: 8881 d74a 7625 c01d 81aa 831c be28 9829
000000b0: 7f4a 01c6 41af 24db 81bc 7841 6529 bf46
000000c0: c1e8 d40a 7fde bcb5 85cc ce6a 7f0b c84a
000000d0: dc81 dc4b c3f8 7f2d 93b9 2a7f c682 4441
49 99 23 -112 -75 -77 73 -54
82 -127 127 113 99 62 -127 127
94 -39 92 -127 35 -71 -50 -90
26 -46 127 57 58 -26 -108 29
127 -97 -90 127 -21 -59 -127 -127
36 -127 -56 7 -72 84 -104 63
95 44 82 41 -127 41 -25 -48
-102 127 -67 111 -102 83 127 -90
-21 -106 -34 -45 -79 -23 35 59
-48 -71 48 37 -102 48 -67 39
-45 -30 127 73 29 -127 14 127
-17 30 107 61 -53 -127 21 -61
-89 12 -127 71 71 -127 -52 61
-79 5 6 -39 -61 -18 -55 11
-30 89 64 57 3 -65 -101 96
-92 82 -52 -23 127 61 -21 25
-28 88 -33 34 103 -27 -25 83
-88 -51 63 -127 43 -127 30 15
-114 108 54 3 50 -89 -12 -19
11 -89 -24 0 4 -64 -69 127
-120 -127 -41 74 118 37 -64 29
-127 -86 -125 28 -66 40 -104 41
127 74 1 -58 65 -81 36 -37
-127 -68 120 65 101 41 -65 70
-63 -24 -44 10 127 -34 -68 -75
-123 -52 -50 106 127 11 -56 74
-36 -127 -36 75 -61 -8 127 45
-109 -71 42 127 -58 -126 68 65

tfl.pseudo_qconst19 i1 [64, 1, 1, 32]
00000000: 5319 cc7f 30f3 c4e6 57a2 569a 280f 71bb
00000010: 0d5e 4e15 e00f d0a3 ee6a 2c2b b5d2 9bde
00000020: d346 fab4 0711 c9e0 cf0c 9a56 5a2f 0b48
00000030: e709 1b4e d0a2 f73d eca9 b3b3 7fae 4762
00000040: f12e d835 952d 81b0 269f c602 f1f8 87de
00000050: 49a5 b769 a8d7 a371 cee4 5ffd 23ac 42d9
00000060: d340 f905 2ffe cd01 35db 3df7 2f81 cd35
00000070: 17d4 0331 ef23 bfa9 5c30 d330 c941 a2dc
00000080: 21cc e9e8 3360 06ee 2bde 2c44 7628 ecb0
00000090: 02f8 2f26 6c21 b676 e64e c5ae 1df0 817b
000000a0: 86c2 45d6 6109 dc1a 8d7f 2a5f 351b c6c1
000000b0: c21e 0433 01e5 f94f 2ecc a9d6 0cff 3eba
000000c0: c21b 76d1 7f2b 3b0a 4567 b013 0048 dfb4
000000d0: f6c3 8e69 590c d5ca b75c f205 3fb8 044d
000000e0: 8128 d29e e057 e920 4bc3 df41 0694 f00e
000000f0: 67fe f1dd a7d4 0355 fdd9 2f59 0e3a 7ab3
83 25 -52 127 48 -13 -60 -26
87 -94 86 -102 40 15 113 -69
13 94 78 21 -32 15 -48 -93
-18 106 44 43 -75 -46 -101 -34
-45 70 -6 -76 7 17 -55 -32
-49 12 -102 86 90 47 11 72
-25 9 27 78 -48 -94 -9 61
-20 -87 -77 -77 127 -82 71 98
-15 46 -40 53 -107 45 -127 -80
38 -97 -58 2 -15 -8 -121 -34
73 -91 -73 105 -88 -41 -93 113
-50 -28 95 -3 35 -84 66 -39
-45 64 -7 5 47 -2 -51 1
53 -37 61 -9 47 -127 -51 53
23 -44 3 49 -17 35 -65 -87
92 48 -45 48 -55 65 -94 -36
33 -52 -23 -24 51 96 6 -18
43 -34 44 68 118 40 -20 -80
2 -8 47 38 108 33 -74 118
-26 78 -59 -82 29 -16 -127 123
-122 -62 69 -42 97 9 -36 26
-115 127 42 95 53 27 -58 -63
-62 30 4 51 1 -27 -7 79
46 -52 -87 -42 12 -1 62 -70
-62 27 118 -47 127 43 59 10
69 103 -80 19 0 72 -33 -76
-10 -61 -114 105 89 12 -43 -54
-73 92 -14 5 63 -72 4 77
-127 40 -46 -98 -32 87 -23 32
75 -61 -33 65 6 -108 -16 14
103 -2 -15 -35 -89 -44 3 85
-3 -39 47 89 14 58 122 -77

tfl.pseudo_qconst21 i1 [1, 5, 1, 32]
00000000: 81f1 7d6e 8170 48e1 442e 8113 8141 bf41
00000010: 9af1 2a81 9c7f 362a 02e7 6c39 8103 179c
00000020: f7c1 e3ff 83f6 7907 f63f 4a27 de29 b381
00000030: 6cfa 81fe a44e ae67 7f1f 9e81 c777 766c
00000040: dacf 207f c97f 8168 ec9f 0c2a f24d c095
00000050: 7f28 ff1b 8109 8148 555c fe51 2c7f 417f
00000060: 7e3e 7f57 b6ec 5681 7181 f781 b1df 1327
00000070: 6381 d687 f4da 226c 087f 4a52 4b27 878c
00000080: 677f 58db 2388 a65d 7fc1 dc90 957f 7fd7
00000090: 13e8 d111 f1d8 3b81 31a6 7fae a4c0 8100
-127 -15 125 110 -127 112 72 -31
68 46 -127 19 -127 65 -65 65
-102 -15 42 -127 -100 127 54 42
2 -25 108 57 -127 3 23 -100
-9 -63 -29 -1 -125 -10 121 7
-10 63 74 39 -34 41 -77 -127
108 -6 -127 -2 -92 78 -82 103
127 31 -98 -127 -57 119 118 108
-38 -49 32 127 -55 127 -127 104
-20 -97 12 42 -14 77 -64 -107
127 40 -1 27 -127 9 -127 72
85 92 -2 81 44 127 65 127
126 62 127 87 -74 -20 86 -127
113 -127 -9 -127 -79 -33 19 39
99 -127 -42 -121 -12 -38 34 108
8 127 74 82 75 39 -121 -116
103 127 88 -37 35 -120 -90 93
127 -63 -36 -112 -107 127 127 -41
19 -24 -47 17 -15 -40 59 -127
49 -90 127 -82 -92 -64 -127 0

tfl.pseudo_qconst23 i1 [32, 5, 1, 40]
00000000: dde8 fb31 49df 4dd4 f200 15f9 40cf 1b21
00000010: 4cd4 30b4 dcf8 b3de e8e2 2139 0d07 4922
00000020: 7b3a 5056 6f3f 7f52 f2f4 0d5b f803 17d6
00000030: cbf9 c20b 5cf6 f5db 0735 d6af fefa 1d00
00000040: e2e5 2831 0636 c941 2b4c 3213 7a5c 192e
00000050: 4125 3ffc 5118 05e1 cabf 12ee 6e1d 09fb
00000060: 5c09 d5d3 3aee dade f3ef f5d9 cd2f 2918
00000070: 10ff 1d40 fe16 e33b fcfd 0626 0e20 d606
00000080: 3efe 4033 0643 0824 2aaa f9d0 47cc f915
00000090: 3fdc 0619 f5db 0ff6 e1b1 33c4 07cf 0032
000000a0: 39f4 2c25 69f5 7552 533b 2343 52f9 04ec
000000b0: 1107 1338 2f30 542a 38eb 08dc 1543 410a
000000c0: dca3 caa5 9515 01fa 39f3 600d 1001 451b
000000d0: f504 0c08 28df ecdc df46 2cfe e5e7 fdf5
000000e0: de10 f618 1d27 13f9 190a 4e28 6f51 7447
000000f0: 6217 0854 110c 0817 f203 efdc 5a0e 212b
-35 -24 -5 49 73 -33 77 -44
-14 0 21 -7 64 -49 27 33
76 -44 48 -76 -36 -8 -77 -34
-24 -30 33 57 13 7 73 34
123 58 80 86 111 63 127 82
-14 -12 13 91 -8 3 23 -42
-53 -7 -62 11 92 -10 -11 -37
7 53 -42 -81 -2 -6 29 0
-30 -27 40 49 6 54 -55 65
43 76 50 19 122 92 25 46
65 37 63 -4 81 24 5 -31
-54 -65 18 -18 110 29 9 -5
92 9 -43 -45 58 -18 -38 -34
-13 -17 -11 -39 -51 47 41 24
16 -1 29 64 -2 22 -29 59
-4 -3 6 38 14 32 -42 6
62 -2 64 51 6 67 8 36
42 -86 -7 -48 71 -52 -7 21
63 -36 6 25 -11 -37 15 -10
-31 -79 51 -60 7 -49 0 50
57 -12 44 37 105 -11 117 82
83 59 35 67 82 -7 4 -20
17 7 19 56 47 48 84 42
56 -21 8 -36 21 67 65 10
-36 -93 -54 -91 -107 21 1 -6
57 -13 96 13 16 1 69 27
-11 4 12 8 40 -33 -20 -36
-33 70 44 -2 -27 -25 -3 -11
-34 16 -10 24 29 39 19 -7
25 10 78 40 111 81 116 71
98 23 8 84 17 12 8 23
-14 3 -17 -36 90 14 33 43

arith.constant19 f4 [1, 14, 1, 64]
00000000: 0000 0000 0000 0000 0000 0000 0000 0000
00000010: 0000 0000 0000 0000 0000 0000 0000 0000
00000020: 0000 0000 0000 0000 0000 0000 0000 0000
00000030: 0000 0000 0000 0000 0000 0000 0000 0000
00000040: 0000 0000 0000 0000 0000 0000 0000 0000
00000050: 0000 0000 0000 0000 0000 0000 0000 0000
00000060: 0000 0000 0000 0000 0000 0000 0000 0000
00000070: 0000 0000 0000 0000 0000 0000 0000 0000
00000080: 0000 0000 0000 0000 0000 0000 0000 0000
00000090: 0000 0000 0000 0000 0000 0000 0000 0000
000000a0: 0000 0000 0000 0000 0000 0000 0000 0000
000000b0: 0000 0000 0000 0000 0000 0000 0000 0000
000000c0: 0000 0000 0000 0000 0000 0000 0000 0000
000000d0: 0000 0000 0000 0000 0000 0000 0000 0000
000000e0: 0000 0000 0000 0000 0000 0000 0000 0000
000000f0: 0000 0000 0000 0000 0000 0000 0000 0000
00000100: 0000 0000 0000 0000 0000 0000 0000 0000
00000110: 0000 0000 0000 0000 0000 0000 0000 0000
00000120: 0000 0000 0000 0000 0000 0000 0000 0000
00000130: 0000 0000 0000 0000 0000 0000 0000 0000
00000140: 0000 0000 0000 0000 0000 0000 0000 0000
00000150: 0000 0000 0000 0000 0000 0000 0000 0000
00000160: 0000 0000 0000 0000 0000 0000 0000 0000
00000170: 0000 0000 0000 0000 0000 0000 0000 0000
00000180: 0000 0000 0000 0000 0000 0000 0000 0000
00000190: 0000 0000 0000 0000 0000 0000 0000 0000
000001a0: 0000 0000 0000 0000 0000 0000 0000 0000
000001b0: 0000 0000 0000 0000 0000 0000 0000 0000
000001c0: 0000 0000 0000 0000 0000 0000 0000 0000
000001d0: 0000 0000 0000 0000 0000 0000 0000 0000
000001e0: 0000 0000 0000 0000 0000 0000 0000 0000
000001f0: 0000 0000 0000 0000 0000 0000 0000 0000
00000200: 0000 0000 0000 0000 0000 0000 0000 0000
00000210: 0000 0000 0000 0000 0000 0000 0000 0000
00000220: 0000 0000 0000 0000 0000 0000 0000 0000
00000230: 0000 0000 0000 0000 0000 0000 0000 0000
00000240: 0000 0000 0000 0000 0000 0000 0000 0000
00000250: 0000 0000 0000 0000 0000 0000 0000 0000
00000260: 0000 0000 0000 0000 0000 0000 0000 0000
00000270: 0000 0000 0000 0000 0000 0000 0000 0000
00000280: 0000 0000 0000 0000 0000 0000 0000 0000
00000290: 0000 0000 0000 0000 0000 0000 0000 0000
000002a0: 0000 0000 0000 0000 0000 0000 0000 0000
000002b0: 0000 0000 0000 0000 0000 0000 0000 0000
000002c0: 0000 0000 0000 0000 0000 0000 0000 0000
000002d0: 0000 0000 0000 0000 0000 0000 0000 0000
000002e0: 0000 0000 0000 0000 0000 0000 0000 0000
000002f0: 0000 0000 0000 0000 0000 0000 0000 0000
00000300: 0000 0000 0000 0000 0000 0000 0000 0000
00000310: 0000 0000 0000 0000 0000 0000 0000 0000
00000320: 0000 0000 0000 0000 0000 0000 0000 0000
00000330: 0000 0000 0000 0000 0000 0000 0000 0000
00000340: 0000 0000 0000 0000 0000 0000 0000 0000
00000350: 0000 0000 0000 0000 0000 0000 0000 0000
00000360: 0000 0000 0000 0000 0000 0000 0000 0000
00000370: 0000 0000 0000 0000 0000 0000 0000 0000
00000380: 0000 0000 0000 0000 0000 0000 0000 0000
00000390: 0000 0000 0000 0000 0000 0000 0000 0000
000003a0: 0000 0000 0000 0000 0000 0000 0000 0000
000003b0: 0000 0000 0000 0000 0000 0000 0000 0000
000003c0: 0000 0000 0000 0000 0000 0000 0000 0000
000003d0: 0000 0000 0000 0000 0000 0000 0000 0000
000003e0: 0000 0000 0000 0000 0000 0000 0000 0000
000003f0: 0000 0000 0000 0000 0000 0000 0000 0000
0.0 0.0 0.0 0.0 0.0 0.0 0.0 0.0
0.0 0.0 0.0 0.0 0.0 0.0 0.0 0.0
0.0 0.0 0.0 0.0 0.0 0.0 0.0 0.0
0.0 0.0 0.0 0.0 0.0 0.0 0.0 0.0
0.0 0.0 0.0 0.0 0.0 0.0 0.0 0.0
0.0 0.0 0.0 0.0 0.0 0.0 0.0 0.0
0.0 0.0 0.0 0.0 0.0 0.0 0.0 0.0
0.0 0.0 0.0 0.0 0.0 0.0 0.0 0.0
0.0 0.0 0.0 0.0 0.0 0.0 0.0 0.0
0.0 0.0 0.0 0.0 0.0 0.0 0.0 0.0
0.0 0.0 0.0 0.0 0.0 0.0 0.0 0.0
0.0 0.0 0.0 0.0 0.0 0.0 0.0 0.0
0.0 0.0 0.0 0.0 0.0 0.0 0.0 0.0
0.0 0.0 0.0 0.0 0.0 0.0 0.0 0.0
0.0 0.0 0.0 0.0 0.0 0.0 0.0 0.0
0.0 0.0 0.0 0.0 0.0 0.0 0.0 0.0
0.0 0.0 0.0 0.0 0.0 0.0 0.0 0.0
0.0 0.0 0.0 0.0 0.0 0.0 0.0 0.0
0.0 0.0 0.0 0.0 0.0 0.0 0.0 0.0
0.0 0.0 0.0 0.0 0.0 0.0 0.0 0.0
0.0 0.0 0.0 0.0 0.0 0.0 0.0 0.0
0.0 0.0 0.0 0.0 0.0 0.0 0.0 0.0
0.0 0.0 0.0 0.0 0.0 0.0 0.0 0.0
0.0 0.0 0.0 0.0 0.0 0.0 0.0 0.0
0.0 0.0 0.0 0.0 0.0 0.0 0.0 0.0
0.0 0.0 0.0 0.0 0.0 0.0 0.0 0.0
0.0 0.0 0.0 0.0 0.0 0.0 0.0 0.0
0.0 0.0 0.0 0.0 0.0 0.0 0.0 0.0
0.0 0.0 0.0 0.0 0.0 0.0 0.0 0.0
0.0 0.0 0.0 0.0 0.0 0.0 0.0 0.0
0.0 0.0 0.0 0.0 0.0 0.0 0.0 0.0
0.0 0.0 0.0 0.0 0.0 0.0 0.0 0.0

arith.constant20 f4 [1, 10, 1, 64]
00000000: 0000 0000 0000 0000 0000 0000 0000 0000
00000010: 0000 0000 0000 0000 0000 0000 0000 0000
00000020: 0000 0000 0000 0000 0000 0000 0000 0000
00000030: 0000 0000 0000 0000 0000 0000 0000 0000
00000040: 0000 0000 0000 0000 0000 0000 0000 0000
00000050: 0000 0000 0000 0000 0000 0000 0000 0000
00000060: 0000 0000 0000 0000 0000 0000 0000 0000
00000070: 0000 0000 0000 0000 0000 0000 0000 0000
00000080: 0000 0000 0000 0000 0000 0000 0000 0000
00000090: 0000 0000 0000 0000 0000 0000 0000 0000
000000a0: 0000 0000 0000 0000 0000 0000 0000 0000
000000b0: 0000 0000 0000 0000 0000 0000 0000 0000
000000c0: 0000 0000 0000 0000 0000 0000 0000 0000
000000d0: 0000 0000 0000 0000 0000 0000 0000 0000
000000e0: 0000 0000 0000 0000 0000 0000 0000 0000
000000f0: 0000 0000 0000 0000 0000 0000 0000 0000
00000100: 0000 0000 0000 0000 0000 0000 0000 0000
00000110: 0000 0000 0000 0000 0000 0000 0000 0000
00000120: 0000 0000 0000 0000 0000 0000 0000 0000
00000130: 0000 0000 0000 0000 0000 0000 0000 0000
00000140: 0000 0000 0000 0000 0000 0000 0000 0000
00000150: 0000 0000 0000 0000 0000 0000 0000 0000
00000160: 0000 0000 0000 0000 0000 0000 0000 0000
00000170: 0000 0000 0000 0000 0000 0000 0000 0000
00000180: 0000 0000 0000 0000 0000 0000 0000 0000
00000190: 0000 0000 0000 0000 0000 0000 0000 0000
000001a0: 0000 0000 0000 0000 0000 0000 0000 0000
000001b0: 0000 0000 0000 0000 0000 0000 0000 0000
000001c0: 0000 0000 0000 0000 0000 0000 0000 0000
000001d0: 0000 0000 0000 0000 0000 0000 0000 0000
000001e0: 0000 0000 0000 0000 0000 0000 0000 0000
000001f0: 0000 0000 0000 0000 0000 0000 0000 0000
00000200: 0000 0000 0000 0000 0000 0000 0000 0000
00000210: 0000 0000 0000 0000 0000 0000 0000 0000
00000220: 0000 0000 0000 0000 0000 0000 0000 0000
00000230: 0000 0000 0000 0000 0000 0000 0000 0000
00000240: 0000 0000 0000 0000 0000 0000 0000 0000
00000250: 0000 0000 0000 0000 0000 0000 0000 0000
00000260: 0000 0000 0000 0000 0000 0000 0000 0000
00000270: 0000 0000 0000 0000 0000 0000 0000 0000
00000280: 0000 0000 0000 0000 0000 0000 0000 0000
00000290: 0000 0000 0000 0000 0000 0000 0000 0000
000002a0: 0000 0000 0000 0000 0000 0000 0000 0000
000002b0: 0000 0000 0000 0000 0000 0000 0000 0000
000002c0: 0000 0000 0000 0000 0000 0000 0000 0000
000002d0: 0000 0000 0000 0000 0000 0000 0000 0000
000002e0: 0000 0000 0000 0000 0000 0000 0000 0000
000002f0: 0000 0000 0000 0000 0000 0000 0000 0000
00000300: 0000 0000 0000 0000 0000 0000 0000 0000
00000310: 0000 0000 0000 0000 0000 0000 0000 0000
00000320: 0000 0000 0000 0000 0000 0000 0000 0000
00000330: 0000 0000 0000 0000 0000 0000 0000 0000
00000340: 0000 0000 0000 0000 0000 0000 0000 0000
00000350: 0000 0000 0000 0000 0000 0000 0000 0000
00000360: 0000 0000 0000 0000 0000 0000 0000 0000
00000370: 0000 0000 0000 0000 0000 0000 0000 0000
00000380: 0000 0000 0000 0000 0000 0000 0000 0000
00000390: 0000 0000 0000 0000 0000 0000 0000 0000
000003a0: 0000 0000 0000 0000 0000 0000 0000 0000
000003b0: 0000 0000 0000 0000 0000 0000 0000 0000
000003c0: 0000 0000 0000 0000 0000 0000 0000 0000
000003d0: 0000 0000 0000 0000 0000 0000 0000 0000
000003e0: 0000 0000 0000 0000 0000 0000 0000 0000
000003f0: 0000 0000 0000 0000 0000 0000 0000 0000
0.0 0.0 0.0 0.0 0.0 0.0 0.0 0.0
0.0 0.0 0.0 0.0 0.0 0.0 0.0 0.0
0.0 0.0 0.0 0.0 0.0 0.0 0.0 0.0
0.0 0.0 0.0 0.0 0.0 0.0 0.0 0.0
0.0 0.0 0.0 0.0 0.0 0.0 0.0 0.0
0.0 0.0 0.0 0.0 0.0 0.0 0.0 0.0
0.0 0.0 0.0 0.0 0.0 0.0 0.0 0.0
0.0 0.0 0.0 0.0 0.0 0.0 0.0 0.0
0.0 0.0 0.0 0.0 0.0 0.0 0.0 0.0
0.0 0.0 0.0 0.0 0.0 0.0 0.0 0.0
0.0 0.0 0.0 0.0 0.0 0.0 0.0 0.0
0.0 0.0 0.0 0.0 0.0 0.0 0.0 0.0
0.0 0.0 0.0 0.0 0.0 0.0 0.0 0.0
0.0 0.0 0.0 0.0 0.0 0.0 0.0 0.0
0.0 0.0 0.0 0.0 0.0 0.0 0.0 0.0
0.0 0.0 0.0 0.0 0.0 0.0 0.0 0.0
0.0 0.0 0.0 0.0 0.0 0.0 0.0 0.0
0.0 0.0 0.0 0.0 0.0 0.0 0.0 0.0
0.0 0.0 0.0 0.0 0.0 0.0 0.0 0.0
0.0 0.0 0.0 0.0 0.0 0.0 0.0 0.0
0.0 0.0 0.0 0.0 0.0 0.0 0.0 0.0
0.0 0.0 0.0 0.0 0.0 0.0 0.0 0.0
0.0 0.0 0.0 0.0 0.0 0.0 0.0 0.0
0.0 0.0 0.0 0.0 0.0 0.0 0.0 0.0
0.0 0.0 0.0 0.0 0.0 0.0 0.0 0.0
0.0 0.0 0.0 0.0 0.0 0.0 0.0 0.0
0.0 0.0 0.0 0.0 0.0 0.0 0.0 0.0
0.0 0.0 0.0 0.0 0.0 0.0 0.0 0.0
0.0 0.0 0.0 0.0 0.0 0.0 0.0 0.0
0.0 0.0 0.0 0.0 0.0 0.0 0.0 0.0
0.0 0.0 0.0 0.0 0.0 0.0 0.0 0.0
0.0 0.0 0.0 0.0 0.0 0.0 0.0 0.0

arith.constant21 f4 [1, 4, 1, 32]
00000000: 0000 0000 0000 0000 0000 0000 0000 0000
00000010: 0000 0000 0000 0000 0000 0000 0000 0000
00000020: 0000 0000 0000 0000 0000 0000 0000 0000
00000030: 0000 0000 0000 0000 0000 0000 0000 0000
00000040: 0000 0000 0000 0000 0000 0000 0000 0000
00000050: 0000 0000 0000 0000 0000 0000 0000 0000
00000060: 0000 0000 0000 0000 0000 0000 0000 0000
00000070: 0000 0000 0000 0000 0000 0000 0000 0000
00000080: 0000 0000 0000 0000 0000 0000 0000 0000
00000090: 0000 0000 0000 0000 0000 0000 0000 0000
000000a0: 0000 0000 0000 0000 0000 0000 0000 0000
000000b0: 0000 0000 0000 0000 0000 0000 0000 0000
000000c0: 0000 0000 0000 0000 0000 0000 0000 0000
000000d0: 0000 0000 0000 0000 0000 0000 0000 0000
000000e0: 0000 0000 0000 0000 0000 0000 0000 0000
000000f0: 0000 0000 0000 0000 0000 0000 0000 0000
00000100: 0000 0000 0000 0000 0000 0000 0000 0000
00000110: 0000 0000 0000 0000 0000 0000 0000 0000
00000120: 0000 0000 0000 0000 0000 0000 0000 0000
00000130: 0000 0000 0000 0000 0000 0000 0000 0000
00000140: 0000 0000 0000 0000 0000 0000 0000 0000
00000150: 0000 0000 0000 0000 0000 0000 0000 0000
00000160: 0000 0000 0000 0000 0000 0000 0000 0000
00000170: 0000 0000 0000 0000 0000 0000 0000 0000
00000180: 0000 0000 0000 0000 0000 0000 0000 0000
00000190: 0000 0000 0000 0000 0000 0000 0000 0000
000001a0: 0000 0000 0000 0000 0000 0000 0000 0000
000001b0: 0000 0000 0000 0000 0000 0000 0000 0000
000001c0: 0000 0000 0000 0000 0000 0000 0000 0000
000001d0: 0000 0000 0000 0000 0000 0000 0000 0000
000001e0: 0000 0000 0000 0000 0000 0000 0000 0000
000001f0: 0000 0000 0000 0000 0000 0000 0000 0000
0.0 0.0 0.0 0.0 0.0 0.0 0.0 0.0
0.0 0.0 0.0 0.0 0.0 0.0 0.0 0.0
0.0 0.0 0.0 0.0 0.0 0.0 0.0 0.0
0.0 0.0 0.0 0.0 0.0 0.0 0.0 0.0
0.0 0.0 0.0 0.0 0.0 0.0 0.0 0.0
0.0 0.0 0.0 0.0 0.0 0.0 0.0 0.0
0.0 0.0 0.0 0.0 0.0 0.0 0.0 0.0
0.0 0.0 0.0 0.0 0.0 0.0 0.0 0.0
0.0 0.0 0.0 0.0 0.0 0.0 0.0 0.0
0.0 0.0 0.0 0.0 0.0 0.0 0.0 0.0
0.0 0.0 0.0 0.0 0.0 0.0 0.0 0.0
0.0 0.0 0.0 0.0 0.0 0.0 0.0 0.0
0.0 0.0 0.0 0.0 0.0 0.0 0.0 0.0
0.0 0.0 0.0 0.0 0.0 0.0 0.0 0.0
0.0 0.0 0.0 0.0 0.0 0.0 0.0 0.0
0.0 0.0 0.0 0.0 0.0 0.0 0.0 0.0

arith.constant22 f4 [1, 3, 1, 40]
00000000: 0000 0000 0000 0000 0000 0000 0000 0000
00000010: 0000 0000 0000 0000 0000 0000 0000 0000
00000020: 0000 0000 0000 0000 0000 0000 0000 0000
00000030: 0000 0000 0000 0000 0000 0000 0000 0000
00000040: 0000 0000 0000 0000 0000 0000 0000 0000
00000050: 0000 0000 0000 0000 0000 0000 0000 0000
00000060: 0000 0000 0000 0000 0000 0000 0000 0000
00000070: 0000 0000 0000 0000 0000 0000 0000 0000
00000080: 0000 0000 0000 0000 0000 0000 0000 0000
00000090: 0000 0000 0000 0000 0000 0000 0000 0000
000000a0: 0000 0000 0000 0000 0000 0000 0000 0000
000000b0: 0000 0000 0000 0000 0000 0000 0000 0000
000000c0: 0000 0000 0000 0000 0000 0000 0000 0000
000000d0: 0000 0000 0000 0000 0000 0000 0000 0000
000000e0: 0000 0000 0000 0000 0000 0000 0000 0000
000000f0: 0000 0000 0000 0000 0000 0000 0000 0000
00000100: 0000 0000 0000 0000 0000 0000 0000 0000
00000110: 0000 0000 0000 0000 0000 0000 0000 0000
00000120: 0000 0000 0000 0000 0000 0000 0000 0000
00000130: 0000 0000 0000 0000 0000 0000 0000 0000
00000140: 0000 0000 0000 0000 0000 0000 0000 0000
00000150: 0000 0000 0000 0000 0000 0000 0000 0000
00000160: 0000 0000 0000 0000 0000 0000 0000 0000
00000170: 0000 0000 0000 0000 0000 0000 0000 0000
00000180: 0000 0000 0000 0000 0000 0000 0000 0000
00000190: 0000 0000 0000 0000 0000 0000 0000 0000
000001a0: 0000 0000 0000 0000 0000 0000 0000 0000
000001b0: 0000 0000 0000 0000 0000 0000 0000 0000
000001c0: 0000 0000 0000 0000 0000 0000 0000 0000
000001d0: 0000 0000 0000 0000 0000 0000 0000 0000
0.0 0.0 0.0 0.0 0.0 0.0 0.0 0.0
0.0 0.0 0.0 0.0 0.0 0.0 0.0 0.0
0.0 0.0 0.0 0.0 0.0 0.0 0.0 0.0
0.0 0.0 0.0 0.0 0.0 0.0 0.0 0.0
0.0 0.0 0.0 0.0 0.0 0.0 0.0 0.0
0.0 0.0 0.0 0.0 0.0 0.0 0.0 0.0
0.0 0.0 0.0 0.0 0.0 0.0 0.0 0.0
0.0 0.0 0.0 0.0 0.0 0.0 0.0 0.0
0.0 0.0 0.0 0.0 0.0 0.0 0.0 0.0
0.0 0.0 0.0 0.0 0.0 0.0 0.0 0.0
0.0 0.0 0.0 0.0 0.0 0.0 0.0 0.0
0.0 0.0 0.0 0.0 0.0 0.0 0.0 0.0
0.0 0.0 0.0 0.0 0.0 0.0 0.0 0.0
0.0 0.0 0.0 0.0 0.0 0.0 0.0 0.0
0.0 0.0 0.0 0.0 0.0 0.0 0.0 0.0

arith.constant23 f4 [1, 36, 1, 64]
00000000: 0000 0000 0000 0000 0000 0000 0000 0000
00000010: 0000 0000 0000 0000 0000 0000 0000 0000
00000020: 0000 0000 0000 0000 0000 0000 0000 0000
00000030: 0000 0000 0000 0000 0000 0000 0000 0000
00000040: 0000 0000 0000 0000 0000 0000 0000 0000
00000050: 0000 0000 0000 0000 0000 0000 0000 0000
00000060: 0000 0000 0000 0000 0000 0000 0000 0000
00000070: 0000 0000 0000 0000 0000 0000 0000 0000
00000080: 0000 0000 0000 0000 0000 0000 0000 0000
00000090: 0000 0000 0000 0000 0000 0000 0000 0000
000000a0: 0000 0000 0000 0000 0000 0000 0000 0000
000000b0: 0000 0000 0000 0000 0000 0000 0000 0000
000000c0: 0000 0000 0000 0000 0000 0000 0000 0000
000000d0: 0000 0000 0000 0000 0000 0000 0000 0000
000000e0: 0000 0000 0000 0000 0000 0000 0000 0000
000000f0: 0000 0000 0000 0000 0000 0000 0000 0000
00000100: 0000 0000 0000 0000 0000 0000 0000 0000
00000110: 0000 0000 0000 0000 0000 0000 0000 0000
00000120: 0000 0000 0000 0000 0000 0000 0000 0000
00000130: 0000 0000 0000 0000 0000 0000 0000 0000
00000140: 0000 0000 0000 0000 0000 0000 0000 0000
00000150: 0000 0000 0000 0000 0000 0000 0000 0000
00000160: 0000 0000 0000 0000 0000 0000 0000 0000
00000170: 0000 0000 0000 0000 0000 0000 0000 0000
00000180: 0000 0000 0000 0000 0000 0000 0000 0000
00000190: 0000 0000 0000 0000 0000 0000 0000 0000
000001a0: 0000 0000 0000 0000 0000 0000 0000 0000
000001b0: 0000 0000 0000 0000 0000 0000 0000 0000
000001c0: 0000 0000 0000 0000 0000 0000 0000 0000
000001d0: 0000 0000 0000 0000 0000 0000 0000 0000
000001e0: 0000 0000 0000 0000 0000 0000 0000 0000
000001f0: 0000 0000 0000 0000 0000 0000 0000 0000
00000200: 0000 0000 0000 0000 0000 0000 0000 0000
00000210: 0000 0000 0000 0000 0000 0000 0000 0000
00000220: 0000 0000 0000 0000 0000 0000 0000 0000
00000230: 0000 0000 0000 0000 0000 0000 0000 0000
00000240: 0000 0000 0000 0000 0000 0000 0000 0000
00000250: 0000 0000 0000 0000 0000 0000 0000 0000
00000260: 0000 0000 0000 0000 0000 0000 0000 0000
00000270: 0000 0000 0000 0000 0000 0000 0000 0000
00000280: 0000 0000 0000 0000 0000 0000 0000 0000
00000290: 0000 0000 0000 0000 0000 0000 0000 0000
000002a0: 0000 0000 0000 0000 0000 0000 0000 0000
000002b0: 0000 0000 0000 0000 0000 0000 0000 0000
000002c0: 0000 0000 0000 0000 0000 0000 0000 0000
000002d0: 0000 0000 0000 0000 0000 0000 0000 0000
000002e0: 0000 0000 0000 0000 0000 0000 0000 0000
000002f0: 0000 0000 0000 0000 0000 0000 0000 0000
00000300: 0000 0000 0000 0000 0000 0000 0000 0000
00000310: 0000 0000 0000 0000 0000 0000 0000 0000
00000320: 0000 0000 0000 0000 0000 0000 0000 0000
00000330: 0000 0000 0000 0000 0000 0000 0000 0000
00000340: 0000 0000 0000 0000 0000 0000 0000 0000
00000350: 0000 0000 0000 0000 0000 0000 0000 0000
00000360: 0000 0000 0000 0000 0000 0000 0000 0000
00000370: 0000 0000 0000 0000 0000 0000 0000 0000
00000380: 0000 0000 0000 0000 0000 0000 0000 0000
00000390: 0000 0000 0000 0000 0000 0000 0000 0000
000003a0: 0000 0000 0000 0000 0000 0000 0000 0000
000003b0: 0000 0000 0000 0000 0000 0000 0000 0000
000003c0: 0000 0000 0000 0000 0000 0000 0000 0000
000003d0: 0000 0000 0000 0000 0000 0000 0000 0000
000003e0: 0000 0000 0000 0000 0000 0000 0000 0000
000003f0: 0000 0000 0000 0000 0000 0000 0000 0000
0.0 0.0 0.0 0.0 0.0 0.0 0.0 0.0
0.0 0.0 0.0 0.0 0.0 0.0 0.0 0.0
0.0 0.0 0.0 0.0 0.0 0.0 0.0 0.0
0.0 0.0 0.0 0.0 0.0 0.0 0.0 0.0
0.0 0.0 0.0 0.0 0.0 0.0 0.0 0.0
0.0 0.0 0.0 0.0 0.0 0.0 0.0 0.0
0.0 0.0 0.0 0.0 0.0 0.0 0.0 0.0
0.0 0.0 0.0 0.0 0.0 0.0 0.0 0.0
0.0 0.0 0.0 0.0 0.0 0.0 0.0 0.0
0.0 0.0 0.0 0.0 0.0 0.0 0.0 0.0
0.0 0.0 0.0 0.0 0.0 0.0 0.0 0.0
0.0 0.0 0.0 0.0 0.0 0.0 0.0 0.0
0.0 0.0 0.0 0.0 0.0 0.0 0.0 0.0
0.0 0.0 0.0 0.0 0.0 0.0 0.0 0.0
0.0 0.0 0.0 0.0 0.0 0.0 0.0 0.0
0.0 0.0 0.0 0.0 0.0 0.0 0.0 0.0
0.0 0.0 0.0 0.0 0.0 0.0 0.0 0.0
0.0 0.0 0.0 0.0 0.0 0.0 0.0 0.0
0.0 0.0 0.0 0.0 0.0 0.0 0.0 0.0
0.0 0.0 0.0 0.0 0.0 0.0 0.0 0.0
0.0 0.0 0.0 0.0 0.0 0.0 0.0 0.0
0.0 0.0 0.0 0.0 0.0 0.0 0.0 0.0
0.0 0.0 0.0 0.0 0.0 0.0 0.0 0.0
0.0 0.0 0.0 0.0 0.0 0.0 0.0 0.0
0.0 0.0 0.0 0.0 0.0 0.0 0.0 0.0
0.0 0.0 0.0 0.0 0.0 0.0 0.0 0.0
0.0 0.0 0.0 0.0 0.0 0.0 0.0 0.0
0.0 0.0 0.0 0.0 0.0 0.0 0.0 0.0
0.0 0.0 0.0 0.0 0.0 0.0 0.0 0.0
0.0 0.0 0.0 0.0 0.0 0.0 0.0 0.0
0.0 0.0 0.0 0.0 0.0 0.0 0.0 0.0
0.0 0.0 0.0 0.0 0.0 0.0 0.0 0.0

arith.constant24 f4 [1, 22, 1, 64]
00000000: 0000 0000 0000 0000 0000 0000 0000 0000
00000010: 0000 0000 0000 0000 0000 0000 0000 0000
00000020: 0000 0000 0000 0000 0000 0000 0000 0000
00000030: 0000 0000 0000 0000 0000 0000 0000 0000
00000040: 0000 0000 0000 0000 0000 0000 0000 0000
00000050: 0000 0000 0000 0000 0000 0000 0000 0000
00000060: 0000 0000 0000 0000 0000 0000 0000 0000
00000070: 0000 0000 0000 0000 0000 0000 0000 0000
00000080: 0000 0000 0000 0000 0000 0000 0000 0000
00000090: 0000 0000 0000 0000 0000 0000 0000 0000
000000a0: 0000 0000 0000 0000 0000 0000 0000 0000
000000b0: 0000 0000 0000 0000 0000 0000 0000 0000
000000c0: 0000 0000 0000 0000 0000 0000 0000 0000
000000d0: 0000 0000 0000 0000 0000 0000 0000 0000
000000e0: 0000 0000 0000 0000 0000 0000 0000 0000
000000f0: 0000 0000 0000 0000 0000 0000 0000 0000
00000100: 0000 0000 0000 0000 0000 0000 0000 0000
00000110: 0000 0000 0000 0000 0000 0000 0000 0000
00000120: 0000 0000 0000 0000 0000 0000 0000 0000
00000130: 0000 0000 0000 0000 0000 0000 0000 0000
00000140: 0000 0000 0000 0000 0000 0000 0000 0000
00000150: 0000 0000 0000 0000 0000 0000 0000 0000
00000160: 0000 0000 0000 0000 0000 0000 0000 0000
00000170: 0000 0000 0000 0000 0000 0000 0000 0000
00000180: 0000 0000 0000 0000 0000 0000 0000 0000
00000190: 0000 0000 0000 0000 0000 0000 0000 0000
000001a0: 0000 0000 0000 0000 0000 0000 0000 0000
000001b0: 0000 0000 0000 0000 0000 0000 0000 0000
000001c0: 0000 0000 0000 0000 0000 0000 0000 0000
000001d0: 0000 0000 0000 0000 0000 0000 0000 0000
000001e0: 0000 0000 0000 0000 0000 0000 0000 0000
000001f0: 0000 0000 0000 0000 0000 0000 0000 0000
00000200: 0000 0000 0000 0000 0000 0000 0000 0000
00000210: 0000 0000 0000 0000 0000 0000 0000 0000
00000220: 0000 0000 0000 0000 0000 0000 0000 0000
00000230: 0000 0000 0000 0000 0000 0000 0000 0000
00000240: 0000 0000 0000 0000 0000 0000 0000 0000
00000250: 0000 0000 0000 0000 0000 0000 0000 0000
00000260: 0000 0000 0000 0000 0000 0000 0000 0000
00000270: 0000 0000 0000 0000 0000 0000 0000 0000
00000280: 0000 0000 0000 0000 0000 0000 0000 0000
00000290: 0000 0000 0000 0000 0000 0000 0000 0000
000002a0: 0000 0000 0000 0000 0000 0000 0000 0000
000002b0: 0000 0000 0000 0000 0000 0000 0000 0000
000002c0: 0000 0000 0000 0000 0000 0000 0000 0000
000002d0: 0000 0000 0000 0000 0000 0000 0000 0000
000002e0: 0000 0000 0000 0000 0000 0000 0000 0000
000002f0: 0000 0000 0000 0000 0000 0000 0000 0000
00000300: 0000 0000 0000 0000 0000 0000 0000 0000
00000310: 0000 0000 0000 0000 0000 0000 0000 0000
00000320: 0000 0000 0000 0000 0000 0000 0000 0000
00000330: 0000 0000 0000 0000 0000 0000 0000 0000
00000340: 0000 0000 0000 0000 0000 0000 0000 0000
00000350: 0000 0000 0000 0000 0000 0000 0000 0000
00000360: 0000 0000 0000 0000 0000 0000 0000 0000
00000370: 0000 0000 0000 0000 0000 0000 0000 0000
00000380: 0000 0000 0000 0000 0000 0000 0000 0000
00000390: 0000 0000 0000 0000 0000 0000 0000 0000
000003a0: 0000 0000 0000 0000 0000 0000 0000 0000
000003b0: 0000 0000 0000 0000 0000 0000 0000 0000
000003c0: 0000 0000 0000 0000 0000 0000 0000 0000
000003d0: 0000 0000 0000 0000 0000 0000 0000 0000
000003e0: 0000 0000 0000 0000 0000 0000 0000 0000
000003f0: 0000 0000 0000 0000 0000 0000 0000 0000
0.0 0.0 0.0 0.0 0.0 0.0 0.0 0.0
0.0 0.0 0.0 0.0 0.0 0.0 0.0 0.0
0.0 0.0 0.0 0.0 0.0 0.0 0.0 0.0
0.0 0.0 0.0 0.0 0.0 0.0 0.0 0.0
0.0 0.0 0.0 0.0 0.0 0.0 0.0 0.0
0.0 0.0 0.0 0.0 0.0 0.0 0.0 0.0
0.0 0.0 0.0 0.0 0.0 0.0 0.0 0.0
0.0 0.0 0.0 0.0 0.0 0.0 0.0 0.0
0.0 0.0 0.0 0.0 0.0 0.0 0.0 0.0
0.0 0.0 0.0 0.0 0.0 0.0 0.0 0.0
0.0 0.0 0.0 0.0 0.0 0.0 0.0 0.0
0.0 0.0 0.0 0.0 0.0 0.0 0.0 0.0
0.0 0.0 0.0 0.0 0.0 0.0 0.0 0.0
0.0 0.0 0.0 0.0 0.0 0.0 0.0 0.0
0.0 0.0 0.0 0.0 0.0 0.0 0.0 0.0
0.0 0.0 0.0 0.0 0.0 0.0 0.0 0.0
0.0 0.0 0.0 0.0 0.0 0.0 0.0 0.0
0.0 0.0 0.0 0.0 0.0 0.0 0.0 0.0
0.0 0.0 0.0 0.0 0.0 0.0 0.0 0.0
0.0 0.0 0.0 0.0 0.0 0.0 0.0 0.0
0.0 0.0 0.0 0.0 0.0 0.0 0.0 0.0
0.0 0.0 0.0 0.0 0.0 0.0 0.0 0.0
0.0 0.0 0.0 0.0 0.0 0.0 0.0 0.0
0.0 0.0 0.0 0.0 0.0 0.0 0.0 0.0
0.0 0.0 0.0 0.0 0.0 0.0 0.0 0.0
0.0 0.0 0.0 0.0 0.0 0.0 0.0 0.0
0.0 0.0 0.0 0.0 0.0 0.0 0.0 0.0
0.0 0.0 0.0 0.0 0.0 0.0 0.0 0.0
0.0 0.0 0.0 0.0 0.0 0.0 0.0 0.0
0.0 0.0 0.0 0.0 0.0 0.0 0.0 0.0
0.0 0.0 0.0 0.0 0.0 0.0 0.0 0.0
0.0 0.0 0.0 0.0 0.0 0.0 0.0 0.0
