pt-br/models/ei_sexta.tflite (tflite, 42184 bytes, 17 tensors)

tfl.pseudo_qconst1 i1 [1, 816] scale=0.0025655814 zero_point=0
00000000: 20e9 e6d1 19f4 15e7 d9d9 e605 06f1 d715
00000010: e8ed d2d3 dadd c3ef cb0f dbc6 fa15 249b
00000020: 17de e606 c106 10b5 dbfa fc0e cbe3 18fd
00000030: 17a7 e6f4 fe05 17ec edf9 02d5 fd03 fa13
00000040: d703 0ce1 d0ee f3f5 e5e9 dbff 1efd 2acf
00000050: 1fe7 dbcf d5ea fcf3 e1e3 10d3 e1d1 19e8
00000060: f0f2 e4f0 17f7 fdf4 e902 d7d9 dcfd e30e
00000070: efe7 fbed a9de fed5 19f7 03fb 02e0 23cf
00000080: 18df efdf d2eb 1ee3 d3e9 f90b d4c1 f5ed
00000090: 00c2 dc00 0abb fde4 08e3 f2c6 d410 f31b
000000a0: 16ff 05d7 cdcf 06d0 fa21 eaea 0ff5 2bfb
000000b0: 10d8 d7d3 da00 00ef dafe 0bf4 f5f2 f5f6
000000c0: fcbe 0cfc f5d7 02fb fb0c 0eaa c9c2 e808
000000d0: e5fb 19c6 f2df 04e9 0f2b 00dd e012 23b5
000000e0: 10e7 bee9 d1f2 27e9 d3c0 f00b ecea 0315
000000f0: cfdb e2d7 05d2 e503 2009 dac3 fcdb f628
0.0820986 -0.05900837 -0.066705115 -0.12058233 0.06413953 -0.030786976 0.05387721 -0.06413953
-0.10005768 -0.10005768 -0.066705115 0.012827907 0.015393488 -0.03848372 -0.10518883 0.05387721
-0.061573952 -0.048746046 -0.11801674 -0.11545116 -0.09749209 -0.08979535 -0.15650046 -0.043614883
-0.13597581 0.03848372 -0.09492651 -0.14880371 -0.015393488 0.05387721 0.09236093 -0.2591237
0.05900837 -0.087229766 -0.066705115 0.015393488 -0.16163163 0.015393488 0.0410493 -0.1924186
-0.09492651 -0.015393488 -0.010262325 0.03591814 -0.13597581 -0.074401855 0.061573952 -0.007696744
0.05900837 -0.22833674 -0.066705115 -0.030786976 -0.0051311627 0.012827907 0.05900837 -0.051311627
-0.048746046 -0.01795907 0.0051311627 -0.11032 -0.007696744 0.007696744 -0.015393488 0.048746046
-0.10518883 0.007696744 0.030786976 -0.079533026 -0.123147905 -0.046180464 -0.033352558 -0.028221395
-0.0692707 -0.05900837 -0.09492651 -0.0025655814 0.07696744 -0.007696744 0.10775442 -0.12571348
0.079533026 -0.06413953 -0.09492651 -0.12571348 -0.11032 -0.05644279 -0.010262325 -0.033352558
-0.079533026 -0.074401855 0.0410493 -0.11545116 -0.079533026 -0.12058233 0.06413953 -0.061573952
-0.0410493 -0.03591814 -0.07183628 -0.0410493 0.05900837 -0.023090232 -0.007696744 -0.030786976
-0.05900837 0.0051311627 -0.10518883 -0.10005768 -0.09236093 -0.007696744 -0.074401855 0.03591814
-0.043614883 -0.06413953 -0.012827907 -0.048746046 -0.22320558 -0.087229766 -0.0051311627 -0.11032
0.06413953 -0.023090232 0.007696744 -0.012827907 0.0051311627 -0.0820986 0.08979535 -0.12571348
0.061573952 -0.08466418 -0.043614883 -0.08466418 -0.11801674 -0.05387721 0.07696744 -0.074401855
-0.11545116 -0.05900837 -0.01795907 0.028221395 -0.11288558 -0.16163163 -0.028221395 -0.048746046
0.0 -0.15906605 -0.09236093 0.0 0.025655814 -0.17702511 -0.007696744 -0.07183628
0.02052465 -0.074401855 -0.03591814 -0.14880371 -0.11288558 0.0410493 -0.033352558 0.0692707
0.05644279 -0.0025655814 0.012827907 -0.10518883 -0.13084465 -0.12571348 0.015393488 -0.123147905
-0.015393488 0.08466418 -0.05644279 -0.05644279 0.03848372 -0.028221395 0.11032 -0.012827907
0.0410493 -0.102623254 -0.10518883 -0.11545116 -0.09749209 0.0 0.0 -0.043614883
-0.09749209 -0.0051311627 0.028221395 -0.030786976 -0.028221395 -0.03591814 -0.028221395 -0.025655814
-0.010262325 -0.16932836 0.030786976 -0.010262325 -0.028221395 -0.10518883 0.0051311627 -0.012827907
-0.012827907 0.030786976 0.03591814 -0.22064 -0.14110698 -0.15906605 -0.061573952 0.02052465
-0.0692707 -0.012827907 0.06413953 -0.14880371 -0.03591814 -0.08466418 0.010262325 -0.05900837
0.03848372 0.11032 0.0 -0.08979535 -0.0820986 0.046180464 0.08979535 -0.1924186
0.0410493 -0.06413953 -0.16932836 -0.05900837 -0.12058233 -0.03591814 0.10005768 -0.05900837
-0.11545116 -0.1641972 -0.0410493 0.028221395 -0.051311627 -0.05644279 0.007696744 0.05387721
-0.12571348 -0.09492651 -0.07696744 -0.10518883 0.012827907 -0.11801674 -0.0692707 0.007696744
0.0820986 0.023090232 -0.09749209 -0.15650046 -0.010262325 -0.09492651 -0.025655814 0.102623254

tfl.pseudo_qconst3 i1 [48, 1, 1, 48]
00000000: ad06 4508 ae28 e22a 52d7 77fb b10d d740
00000010: e4cb 0af2 4400 3b1e 21e2 eef3 3ae7 dcc4
00000020: c063 37dd 4c1b fa7c 16ca bd22 fede 7ff7
00000030: f6fe 0c4a c20b 547f c09d 189b a1ed 7015
00000040: a439 4822 de34 97df ebd9 0e19 ffb7 b7bc
00000050: 5241 582e a064 26d4 0e62 e1fb f4e2 9a22
00000060: 4911 ba06 f136 8304 c0ec 162c f625 2ddf
00000070: daf7 1108 39bd 432b 36c6 c0cc 2ce4 c4f6
00000080: aad3 0ca6 1102 53e1 8118 2572 1e30 141b
00000090: 3708 edf2 afba f04d 53ac ff34 e425 f509
000000a0: 0725 e01d edea 3617 d3e8 37de a0e8 e3f7
000000b0: e267 591d 0dd5 d9d8 044b 1800 0b7f ddc6
000000c0: dbff fd37 b8fe 3de6 1b17 f2fa eddf 3f08
000000d0: 1951 c66e 57ae 25f3 7fb0 4866 adfb 2eec
000000e0: 66fd 0e35 db2c 4fbc 9b8c d3e3 bdba 39e1
000000f0: fff3 0552 0d18 f60f cb81 e993 41c8 ccce
-83 6 69 8 -82 40 -30 42
82 -41 119 -5 -79 13 -41 64
-28 -53 10 -14 68 0 59 30
33 -30 -18 -13 58 -25 -36 -60
-64 99 55 -35 76 27 -6 124
22 -54 -67 34 -2 -34 127 -9
-10 -2 12 74 -62 11 84 127
-64 -99 24 -101 -95 -19 112 21
-92 57 72 34 -34 52 -105 -33
-21 -39 14 25 -1 -73 -73 -68
82 65 88 46 -96 100 38 -44
14 98 -31 -5 -12 -30 -102 34
73 17 -70 6 -15 54 -125 4
-64 -20 22 44 -10 37 45 -33
-38 -9 17 8 57 -67 67 43
54 -58 -64 -52 44 -28 -60 -10
-86 -45 12 -90 17 2 83 -31
-127 24 37 114 30 48 20 27
55 8 -19 -14 -81 -70 -16 77
83 -84 -1 52 -28 37 -11 9
7 37 -32 29 -19 -22 54 23
-45 -24 55 -34 -96 -24 -29 -9
-30 103 89 29 13 -43 -39 -40
4 75 24 0 11 127 -35 -58
-37 -1 -3 55 -72 -2 61 -26
27 23 -14 -6 -19 -33 63 8
25 81 -58 110 87 -82 37 -13
127 -80 72 102 -83 -5 46 -20
102 -3 14 53 -37 44 79 -68
-101 -116 -45 -29 -67 -70 57 -31
-1 -13 5 82 13 24 -10 15
-53 -127 -23 -109 65 -56 -52 -50

tfl.pseudo_qconst5 i1 [1, 9, 1, 48]
00000000: fac8 f153 81db 6d81 81ec 10b0 7f0d 61c5
00000010: 369b 38b2 d36a 0cd1 c8c5 1acb 0efe 75a5
00000020: 89ef bbd9 59db fad1 b25f 3334 2cb0 683d
00000030: d30b da69 dedd 7f9d 66b6 7fb3 57d5 16e4
00000040: 48c4 21b6 f40d dec3 02bf e79d 0aee 53a1
00000050: 81dc ec90 69d0 b727 2862 f334 a1c7 623b
00000060: 0e7f fe81 3372 458a f998 2eae 0ab0 2a13
00000070: 3516 fcd4 0473 f1cb c3c8 7088 f94e 7fea
00000080: a016 1e90 94bc 1a36 1ebf 5cb2 81cb 2916
00000090: cc94 81aa 9e1a 51e1 d681 711f d281 cd2f
000000a0: 7f12 f3f8 b56d b0f3 8605 19b7 1962 6643
000000b0: c0ee 3cb4 81c8 2835 d6d6 57c2 e2c1 a9d0
000000c0: c61d cfb4 3f81 472f 2bb4 7c7f 12be 43c2
000000d0: 71ea fae7 1ce8 4010 c319 34d1 161a 317f
000000e0: ebc5 fc35 3555 7fc4 ea0a 6805 3981 f0d4
000000f0: e13e e038 e102 5616 987d 561e e2b2 7f2e
-6 -56 -15 83 -127 -37 109 -127
-127 -20 16 -80 127 13 97 -59
54 -101 56 -78 -45 106 12 -47
-56 -59 26 -53 14 -2 117 -91
-119 -17 -69 -39 89 -37 -6 -47
-78 95 51 52 44 -80 104 61
-45 11 -38 105 -34 -35 127 -99
102 -74 127 -77 87 -43 22 -28
72 -60 33 -74 -12 13 -34 -61
2 -65 -25 -99 10 -18 83 -95
-127 -36 -20 -112 105 -48 -73 39
40 98 -13 52 -95 -57 98 59
14 127 -2 -127 51 114 69 -118
-7 -104 46 -82 10 -80 42 19
53 22 -4 -44 4 115 -15 -53
-61 -56 112 -120 -7 78 127 -22
-96 22 30 -112 -108 -68 26 54
30 -65 92 -78 -127 -53 41 22
-52 -108 -127 -86 -98 26 81 -31
-42 -127 113 31 -46 -127 -51 47
127 18 -13 -8 -75 109 -80 -13
-122 5 25 -73 25 98 102 67
-64 -18 60 -76 -127 -56 40 53
-42 -42 87 -62 -30 -63 -87 -48
-58 29 -49 -76 63 -127 71 47
43 -76 124 127 18 -66 67 -62
113 -22 -6 -25 28 -24 64 16
-61 25 52 -47 22 26 49 127
-21 -59 -4 53 53 85 127 -60
-22 10 104 5 57 -127 -16 -44
-31 62 -32 56 -31 2 86 22
-104 125 86 30 -30 -78 127 46

tfl.pseudo_qconst7 i1 [48, 1, 1, 24]
00000000: 4f36 db46 dc48 cc68 3531 7f3a 664a eacb
00000010: fb7e faf0 6523 1439 e9dd 31f8 edcb af70
00000020: 19e4 0c7f 31d9 92e5 4f0c e7c0 20b2 a6e0
00000030: 1d62 f6fc 444b 814b d982 00c2 0134 401e
00000040: 1da1 16ff fbf6 eda0 cf17 d6c6 76f6 812a
00000050: 89b5 1335 234d 20c9 44dd 32ed bde5 5e22
00000060: deed 38e1 dfcb 189d 39ff 4a14 31f4 464a
00000070: 0acf 9c81 89f2 16de ba50 1cfa 2932 ed30
00000080: 0181 17dc e23e 1ebd 1d5e 9ce8 545c ed53
00000090: ddb7 0e0b 951d 1d02 252d 81a4 1b4f d6fb
000000a0: 14d9 a9a3 c707 2421 4126 165c dbf1 cbdd
000000b0: cd47 e1c3 1324 0435 1bee 5a49 7f04 fbde
000000c0: 3dd5 c08d 27a0 096d 32fb 39ff 7f1b 2515
000000d0: 1d28 ead9 05f7 41be 3721 03e8 bbd0 34d3
000000e0: e0c6 d3ef 2463 8174 2122 f2f3 0f47 c16d
000000f0: 4944 4110 2cc4 f8b2 fec1 7f0d 042d c81b
79 54 -37 70 -36 72 -52 104
53 49 127 58 102 74 -22 -53
-5 126 -6 -16 101 35 20 57
-23 -35 49 -8 -19 -53 -81 112
25 -28 12 127 49 -39 -110 -27
79 12 -25 -64 32 -78 -90 -32
29 98 -10 -4 68 75 -127 75
-39 -126 0 -62 1 52 64 30
29 -95 22 -1 -5 -10 -19 -96
-49 23 -42 -58 118 -10 -127 42
-119 -75 19 53 35 77 32 -55
68 -35 50 -19 -67 -27 94 34
-34 -19 56 -31 -33 -53 24 -99
57 -1 74 20 49 -12 70 74
10 -49 -100 -127 -119 -14 22 -34
-70 80 28 -6 41 50 -19 48
1 -127 23 -36 -30 62 30 -67
29 94 -100 -24 84 92 -19 83
-35 -73 14 11 -107 29 29 2
37 45 -127 -92 27 79 -42 -5
20 -39 -87 -93 -57 7 36 33
65 38 22 92 -37 -15 -53 -35
-51 71 -31 -61 19 36 4 53
27 -18 90 73 127 4 -5 -34
61 -43 -64 -115 39 -96 9 109
50 -5 57 -1 127 27 37 21
29 40 -22 -39 5 -9 65 -66
55 33 3 -24 -69 -48 52 -45
-32 -58 -45 -17 36 99 -127 116
33 34 -14 -13 15 71 -63 109
73 68 65 16 44 -60 -8 -78
-2 -63 127 13 4 45 -56 27

tfl.pseudo_qconst9 i1 [1, 9, 1, 12]
00000000: 2fb1 b281 36ea f3e7 9117 b67f 14a3 e8aa
00000010: 2257 fba6 0590 9af9 a9d6 e017 44e9 4607
00000020: 81d2 57e7 1403 d734 7f6d c83c abfe 7ffd
00000030: bfe5 aa36 e80a 127f e15c 0a0a c430 44d8
00000040: deb3 76e8 376d 3499 bb81 4cbf f081 494e
00000050: bb7f 3d3e 8137 7fa0 ed0b 8264 2d56 d5bb
00000060: c8d5 eafc 89e8 81c2 236b f539
47 -79 -78 -127 54 -22 -13 -25
-111 23 -74 127 20 -93 -24 -86
34 87 -5 -90 5 -112 -102 -7
-87 -42 -32 23 68 -23 70 7
-127 -46 87 -25 20 3 -41 52
127 109 -56 60 -85 -2 127 -3
-65 -27 -86 54 -24 10 18 127
-31 92 10 10 -60 48 68 -40
-34 -77 118 -24 55 109 52 -103
-69 -127 76 -65 -16 -127 73 78
-69 127 61 62 -127 55 127 -96
-19 11 -126 100 45 86 -43 -69
-56 -43 -22 -4 -119 -24 -127 -62
35 107 -11 57

tfl.pseudo_qconst11 i1 [1, 5, 1, 12]
00000000: d68e bf3d 2a58 c020 2456 07ce 7fa9 2b0d
00000010: 3544 6881 0f81 2862 b281 e2a6 554a 6fbc
00000020: aa0d cde4 53ca 4995 407f ecc2 de57 c87f
00000030: 22b4 8181 817e 7f1e 810c 8133
-42 -114 -65 61 42 88 -64 32
36 86 7 -50 127 -87 43 13
53 68 104 -127 15 -127 40 98
-78 -127 -30 -90 85 74 111 -68
-86 13 -51 -28 83 -54 73 -107
64 127 -20 -62 -34 87 -56 127
34 -76 -127 -127 -127 126 127 30
-127 12 -127 51

tfl.pseudo_qconst13 i1 [24, 1, 1, 24]
00000000: 19d8 5e4f b61c 57a0 0061 3881 eb19 22ec
00000010: 131d f561 c6e1 68de 4142 277f e1b9 534d
00000020: e528 f7cf 5550 e656 5503 13f3 8b05 a329
00000030: 55c4 837b beaf 89b8 def2 f8d3 474f 7fb5
00000040: d57d be04 3dd1 56ec d35c c9d8 fc6f f303
00000050: 317f e603 b430 0722 f1b3 f938 1d27 10e7
00000060: a719 2d2d 79f3 f1d9 cc72 7f10 e452 89df
00000070: 1338 5349 eb4a 141e c9fd dbe1 bfaf e512
00000080: a21d fcab 1522 e537 fc61 d49a ec7f 1c74
00000090: 81a2 7f52 fb8f 9e3d a510 30c6 fbb2 232d
000000a0: a9d1 ed65 b4cc d089 0f15 01ef 3a4f 18bc
000000b0: 38e3 811c cae2 c0e1 c5ed f4c6 f9a9 5cc1
000000c0: e558 3281 e30b 4335 e861 a9ce 8423 4ab3
000000d0: 05c4 8c1f fd00 d9ab 5712 04fc 32dc 6d15
000000e0: 0b8a dc81 44f3 b33c 36e9 1a59 2717 e539
000000f0: 16e4 82e2 ff27 f752 f50a b95e 19c6 4837
25 -40 94 79 -74 28 87 -96
0 97 56 -127 -21 25 34 -20
19 29 -11 97 -58 -31 104 -34
65 66 39 127 -31 -71 83 77
-27 40 -9 -49 85 80 -26 86
85 3 19 -13 -117 5 -93 41
85 -60 -125 123 -66 -81 -119 -72
-34 -14 -8 -45 71 79 127 -75
-43 125 -66 4 61 -47 86 -20
-45 92 -55 -40 -4 111 -13 3
49 127 -26 3 -76 48 7 34
-15 -77 -7 56 29 39 16 -25
-89 25 45 45 121 -13 -15 -39
-52 114 127 16 -28 82 -119 -33
19 56 83 73 -21 74 20 30
-55 -3 -37 -31 -65 -81 -27 18
-94 29 -4 -85 21 34 -27 55
-4 97 -44 -102 -20 127 28 116
-127 -94 127 82 -5 -113 -98 61
-91 16 48 -58 -5 -78 35 45
-87 -47 -19 101 -76 -52 -48 -119
15 21 1 -17 58 79 24 -68
56 -29 -127 28 -54 -30 -64 -31
-59 -19 -12 -58 -7 -87 92 -63
-27 88 50 -127 -29 11 67 53
-24 97 -87 -50 -124 35 74 -77
5 -60 -116 31 -3 0 -39 -85
87 18 4 -4 50 -36 109 21
11 -118 -36 -127 68 -13 -77 60
54 -23 26 89 39 23 -27 57
22 -28 -126 -30 -1 39 -9 82
-11 10 -71 94 25 -58 72 55

tfl.pseudo_qconst15 i1 [1, 9, 1, 12]
00000000: cb22 a901 47bb b6f4 1ab8 cb81 1163 3dff
00000010: 27e6 16ae 1740 ffe9 4d7f 5181 2e1b e71c
00000020: 7fa5 838e 0cf5 e74c cc07 72da 0b81 ed3f
00000030: a403 b4a1 4f21 81b2 d3c2 622a 2b0e a884
00000040: a3b8 e324 22e2 7fc4 5cb4 bfb9 2672 08de
00000050: d6fb 385a 23e4 11cd 707f 1d7f 5506 0b1c
00000060: 7fc4 7f26 7fba 8ce0 6dbe 4b76
-53 34 -87 1 71 -69 -74 -12
26 -72 -53 -127 17 99 61 -1
39 -26 22 -82 23 64 -1 -23
77 127 81 -127 46 27 -25 28
127 -91 -125 -114 12 -11 -25 76
-52 7 114 -38 11 -127 -19 63
-92 3 -76 -95 79 33 -127 -78
-45 -62 98 42 43 14 -88 -124
-93 -72 -29 36 34 -30 127 -60
92 -76 -65 -71 38 114 8 -34
-42 -5 56 90 35 -28 17 -51
112 127 29 127 85 6 11 28
127 -60 127 38 127 -70 -116 -32
109 -66 75 118

tfl.pseudo_qconst17 i1 [1, 5, 1, 12]
00000000: 5297 065c 0824 2830 4afe 497a 45fb f081
00000010: adf3 576a a0ef 426c 35fd f5c0 f30a 7631
00000020: 54dc 3620 31da bf30 7f98 5e81 813a cc68
00000030: 8181 7f9a a381 7f1e 2c81 8181
82 -105 6 92 8 36 40 48
74 -2 73 122 69 -5 -16 -127
-83 -13 87 106 -96 -17 66 108
53 -3 -11 -64 -13 10 118 49
84 -36 54 32 49 -38 -65 48
127 -104 94 -127 -127 58 -52 104
-127 -127 127 -102 -93 -127 127 30
44 -127 -127 -127

tfl.pseudo_qconst19 i1 [24, 1, 1, 16]
00000000: 3c73 7f51 f403 bb5e f7dd bd39 1c1c ccef
00000010: 7316 7fe6 dec9 2233 efe0 2bb6 21f6 d303
00000020: 815f 0515 cd2a 6b25 40fa f238 e5cc 22b8
00000030: f047 c7c1 8b39 fea8 65b3 81f0 4733 5d24
00000040: fd53 3845 0ea8 ba7f 311d 0056 2fbe 9a6d
00000050: 4f95 2a6f f4dc e048 81dd c943 1802 d38c
00000060: a1e8 4881 9820 77ab fe4b 1fe4 6a1b a765
00000070: d6e4 6266 0745 3d81 c3d6 03d1 00f4 ec40
00000080: f935 16a6 f2c7 811b 68f9 8a56 5c15 5486
00000090: 7fbb b0fb b4e6 fc1e b08c 3e89 ac8c 1839
000000a0: fa0d ff97 28db 08c8 ee2b 92f9 ff7f 6046
000000b0: bf54 0158 51ee da16 8141 350a e649 03fc
000000c0: a5c9 2514 1cf9 2115 8142 0fa1 cbce ab45
000000d0: ee9a 349a c871 d781 c941 dd09 2cd1 aeb2
000000e0: 3ff4 ae2a 81cb d612 6b6c fde9 5ecb eb72
000000f0: 3b81 f708 c528 b882 3dea 06b9 c938 fa5a
60 115 127 81 -12 3 -69 94
-9 -35 -67 57 28 28 -52 -17
115 22 127 -26 -34 -55 34 51
-17 -32 43 -74 33 -10 -45 3
-127 95 5 21 -51 42 107 37
64 -6 -14 56 -27 -52 34 -72
-16 71 -57 -63 -117 57 -2 -88
101 -77 -127 -16 71 51 93 36
-3 83 56 69 14 -88 -70 127
49 29 0 86 47 -66 -102 109
79 -107 42 111 -12 -36 -32 72
-127 -35 -55 67 24 2 -45 -116
-95 -24 72 -127 -104 32 119 -85
-2 75 31 -28 106 27 -89 101
-42 -28 98 102 7 69 61 -127
-61 -42 3 -47 0 -12 -20 64
-7 53 22 -90 -14 -57 -127 27
104 -7 -118 86 92 21 84 -122
127 -69 -80 -5 -76 -26 -4 30
-80 -116 62 -119 -84 -116 24 57
-6 13 -1 -105 40 -37 8 -56
-18 43 -110 -7 -1 127 96 70
-65 84 1 88 81 -18 -38 22
-127 65 53 10 -26 73 3 -4
-91 -55 37 20 28 -7 33 21
-127 66 15 -95 -53 -50 -85 69
-18 -102 52 -102 -56 113 -41 -127
-55 65 -35 9 44 -47 -82 -78
63 -12 -82 42 -127 -53 -42 18
107 108 -3 -23 94 -53 -21 114
59 -127 -9 8 -59 40 -72 -126
61 -22 6 -71 -55 56 -6 90

tfl.pseudo_qconst21 i1 [1, 5, 1, 16]
00000000: 8181 bbe8 6885 1812 06c6 dc7f d637 0617
00000010: 20b8 eadb 9d7f f5f8 657f 0f23 0676 57dd
00000020: 1e7e fe0d 1cb8 811a c5f6 7fd3 814a 815f
00000030: 5812 7f7f 1f27 d97f 81c9 4483 9e8b d203
00000040: 21d9 280b 81ce 4b3d ff1b 9c01 c681 6381
-127 -127 -69 -24 104 -123 24 18
6 -58 -36 127 -42 55 6 23
32 -72 -22 -37 -99 127 -11 -8
101 127 15 35 6 118 87 -35
30 126 -2 13 28 -72 -127 26
-59 -10 127 -45 -127 74 -127 95
88 18 127 127 31 39 -39 127
-127 -55 68 -125 -98 -117 -46 3
33 -39 40 11 -127 -50 75 61
-1 27 -100 1 -58 -127 99 -127

tfl.pseudo_qconst23 i1 [16, 5, 1, 40]
00000000: 06e0 fc18 3b05 ec20 f7d6 2a1c 11eb f30c
00000010: f904 d808 f9dd 1bc9 34fc ed13 3f06 12f2
00000020: f409 fbdc c2dc d9f3 5ee2 0e3d 3513 0830
00000030: e5f3 2111 21f8 1103 d8c8 fcf5 1136 2914
00000040: 210b f5f3 531a 6ea3 1fbb 1df7 97d0 e121
00000050: 4253 5a53 2513 2afa 180b 11ea e1f5 e80c
00000060: 36f7 f537 352b 32fb 5246 232c 2027 04fc
00000070: d0e2 bded b5e8 24ff 7bf4 0a46 2bff 022d
00000080: ebf8 ed0a f1e3 22fd 20fd 2350 3e1d f545
00000090: 231d 2ddf 293e f89a e0a9 dfb2 d804 bff4
000000a0: 7f06 3236 1ff1 e02f e9f3 1ade fd25 d90b
000000b0: 1a3d 230c fff9 382d 5609 0e17 2532 1999
000000c0: f7a6 d7f1 ddfc f3c3 2b16 5818 68f9 220b
000000d0: e4f8 08db 33f2 f50a fcd6 c610 d601 07ca
000000e0: 10cb d6cb d7eb 00f1 f1dd d232 c812 13e6
000000f0: 7f06 5527 6630 2ce5 22c6 0a0a 21ca fa13
6 -32 -4 24 59 5 -20 32
-9 -42 42 28 17 -21 -13 12
-7 4 -40 8 -7 -35 27 -55
52 -4 -19 19 63 6 18 -14
-12 9 -5 -36 -62 -36 -39 -13
94 -30 14 61 53 19 8 48
-27 -13 33 17 33 -8 17 3
-40 -56 -4 -11 17 54 41 20
33 11 -11 -13 83 26 110 -93
31 -69 29 -9 -105 -48 -31 33
66 83 90 83 37 19 42 -6
24 11 17 -22 -31 -11 -24 12
54 -9 -11 55 53 43 50 -5
82 70 35 44 32 39 4 -4
-48 -30 -67 -19 -75 -24 36 -1
123 -12 10 70 43 -1 2 45
-21 -8 -19 10 -15 -29 34 -3
32 -3 35 80 62 29 -11 69
35 29 45 -33 41 62 -8 -102
-32 -87 -33 -78 -40 4 -65 -12
127 6 50 54 31 -15 -32 47
-23 -13 26 -34 -3 37 -39 11
26 61 35 12 -1 -7 56 45
86 9 14 23 37 50 25 -103
-9 -90 -41 -15 -35 -4 -13 -61
43 22 88 24 104 -7 34 11
-28 -8 8 -37 51 -14 -11 10
-4 -42 -58 16 -42 1 7 -54
16 -53 -42 -53 -41 -21 0 -15
-15 -35 -46 50 -56 18 19 -26
127 6 85 39 102 48 44 -27
34 -58 10 10 33 -54 -6 19

arith.constant16 f4 [1, 8, 1, 24]
00000000: 0000 0000 0000 0000 0000 0000 0000 0000
00000010: 0000 0000 0000 0000 0000 0000 0000 0000
00000020: 0000 0000 0000 0000 0000 0000 0000 0000
00000030: 0000 0000 0000 0000 0000 0000 0000 0000
00000040: 0000 0000 0000 0000 0000 0000 0000 0000
00000050: 0000 0000 0000 0000 0000 0000 0000 0000
00000060: 0000 0000 0000 0000 0000 0000 0000 0000
00000070: 0000 0000 0000 0000 0000 0000 0000 0000
00000080: 0000 0000 0000 0000 0000 0000 0000 0000
00000090: 0000 0000 0000 0000 0000 0000 0000 0000
000000a0: 0000 0000 0000 0000 0000 0000 0000 0000
000000b0: 0000 0000 0000 0000 0000 0000 0000 0000
000000c0: 0000 0000 0000 0000 0000 0000 0000 0000
000000d0: 0000 0000 0000 0000 0000 0000 0000 0000
000000e0: 0000 0000 0000 0000 0000 0000 0000 0000
000000f0: 0000 0000 0000 0000 0000 0000 0000 0000
00000100: 0000 0000 0000 0000 0000 0000 0000 0000
00000110: 0000 0000 0000 0000 0000 0000 0000 0000
00000120: 0000 0000 0000 0000 0000 0000 0000 0000
00000130: 0000 0000 0000 0000 0000 0000 0000 0000
00000140: 0000 0000 0000 0000 0000 0000 0000 0000
00000150: 0000 0000 0000 0000 0000 0000 0000 0000
00000160: 0000 0000 0000 0000 0000 0000 0000 0000
00000170: 0000 0000 0000 0000 0000 0000 0000 0000
00000180: 0000 0000 0000 0000 0000 0000 0000 0000
00000190: 0000 0000 0000 0000 0000 0000 0000 0000
000001a0: 0000 0000 0000 0000 0000 0000 0000 0000
000001b0: 0000 0000 0000 0000 0000 0000 0000 0000
000001c0: 0000 0000 0000 0000 0000 0000 0000 0000
000001d0: 0000 0000 0000 0000 0000 0000 0000 0000
000001e0: 0000 0000 0000 0000 0000 0000 0000 0000
000001f0: 0000 0000 0000 0000 0000 0000 0000 0000
00000200: 0000 0000 0000 0000 0000 0000 0000 0000
00000210: 0000 0000 0000 0000 0000 0000 0000 0000
00000220: 0000 0000 0000 0000 0000 0000 0000 0000
00000230: 0000 0000 0000 0000 0000 0000 0000 0000
00000240: 0000 0000 0000 0000 0000 0000 0000 0000
00000250: 0000 0000 0000 0000 0000 0000 0000 0000
00000260: 0000 0000 0000 0000 0000 0000 0000 0000
00000270: 0000 0000 0000 0000 0000 0000 0000 0000
00000280: 0000 0000 0000 0000 0000 0000 0000 0000
00000290: 0000 0000 0000 0000 0000 0000 0000 0000
000002a0: 0000 0000 0000 0000 0000 0000 0000 0000
000002b0: 0000 0000 0000 0000 0000 0000 0000 0000
000002c0: 0000 0000 0000 0000 0000 0000 0000 0000
000002d0: 0000 0000 0000 0000 0000 0000 0000 0000
000002e0: 0000 0000 0000 0000 0000 0000 0000 0000
000002f0: 0000 0000 0000 0000 0000 0000 0000 0000
0.0 0.0 0.0 0.0 0.0 0.0 0.0 0.0
0.0 0.0 0.0 0.0 0.0 0.0 0.0 0.0
0.0 0.0 0.0 0.0 0.0 0.0 0.0 0.0
0.0 0.0 0.0 0.0 0.0 0.0 0.0 0.0
0.0 0.0 0.0 0.0 0.0 0.0 0.0 0.0
0.0 0.0 0.0 0.0 0.0 0.0 0.0 0.0
0.0 0.0 0.0 0.0 0.0 0.0 0.0 0.0
0.0 0.0 0.0 0.0 0.0 0.0 0.0 0.0
0.0 0.0 0.0 0.0 0.0 0.0 0.0 0.0
0.0 0.0 0.0 0.0 0.0 0.0 0.0 0.0
0.0 0.0 0.0 0.0 0.0 0.0 0.0 0.0
0.0 0.0 0.0 0.0 0.0 0.0 0.0 0.0
0.0 0.0 0.0 0.0 0.0 0.0 0.0 0.0
0.0 0.0 0.0 0.0 0.0 0.0 0.0 0.0
0.0 0.0 0.0 0.0 0.0 0.0 0.0 0.0
0.0 0.0 0.0 0.0 0.0 0.0 0.0 0.0
0.0 0.0 0.0 0.0 0.0 0.0 0.0 0.0
0.0 0.0 0.0 0.0 0.0 0.0 0.0 0.0
0.0 0.0 0.0 0.0 0.0 0.0 0.0 0.0
0.0 0.0 0.0 0.0 0.0 0.0 0.0 0.0
0.0 0.0 0.0 0.0 0.0 0.0 0.0 0.0
0.0 0.0 0.0 0.0 0.0 0.0 0.0 0.0
0.0 0.0 0.0 0.0 0.0 0.0 0.0 0.0
0.0 0.0 0.0 0.0 0.0 0.0 0.0 0.0

arith.constant17 f4 [1, 4, 1, 16]
00000000: 0000 0000 0000 0000 0000 0000 0000 0000
00000010: 0000 0000 0000 0000 0000 0000 0000 0000
00000020: 0000 0000 0000 0000 0000 0000 0000 0000
00000030: 0000 0000 0000 0000 0000 0000 0000 0000
00000040: 0000 0000 0000 0000 0000 0000 0000 0000
00000050: 0000 0000 0000 0000 0000 0000 0000 0000
00000060: 0000 0000 0000 0000 0000 0000 0000 0000
00000070: 0000 0000 0000 0000 0000 0000 0000 0000
00000080: 0000 0000 0000 0000 0000 0000 0000 0000
00000090: 0000 0000 0000 0000 0000 0000 0000 0000
000000a0: 0000 0000 0000 0000 0000 0000 0000 0000
000000b0: 0000 0000 0000 0000 0000 0000 0000 0000
000000c0: 0000 0000 0000 0000 0000 0000 0000 0000
000000d0: 0000 0000 0000 0000 0000 0000 0000 0000
000000e0: 0000 0000 0000 0000 0000 0000 0000 0000
000000f0: 0000 0000 0000 0000 0000 0000 0000 0000
0.0 0.0 0.0 0.0 0.0 0.0 0.0 0.0
0.0 0.0 0.0 0.0 0.0 0.0 0.0 0.0
0.0 0.0 0.0 0.0 0.0 0.0 0.0 0.0
0.0 0.0 0.0 0.0 0.0 0.0 0.0 0.0
0.0 0.0 0.0 0.0 0.0 0.0 0.0 0.0
0.0 0.0 0.0 0.0 0.0 0.0 0.0 0.0
0.0 0.0 0.0 0.0 0.0 0.0 0.0 0.0
0.0 0.0 0.0 0.0 0.0 0.0 0.0 0.0

arith.constant18 f4 [1, 2, 1, 40]
00000000: 0000 0000 0000 0000 0000 0000 0000 0000
00000010: 0000 0000 0000 0000 0000 0000 0000 0000
00000020: 0000 0000 0000 0000 0000 0000 0000 0000
00000030: 0000 0000 0000 0000 0000 0000 0000 0000
00000040: 0000 0000 0000 0000 0000 0000 0000 0000
00000050: 0000 0000 0000 0000 0000 0000 0000 0000
00000060: 0000 0000 0000 0000 0000 0000 0000 0000
00000070: 0000 0000 0000 0000 0000 0000 0000 0000
00000080: 0000 0000 0000 0000 0000 0000 0000 0000
00000090: 0000 0000 0000 0000 0000 0000 0000 0000
000000a0: 0000 0000 0000 0000 0000 0000 0000 0000
000000b0: 0000 0000 0000 0000 0000 0000 0000 0000
000000c0: 0000 0000 0000 0000 0000 0000 0000 0000
000000d0: 0000 0000 0000 0000 0000 0000 0000 0000
000000e0: 0000 0000 0000 0000 0000 0000 0000 0000
000000f0: 0000 0000 0000 0000 0000 0000 0000 0000
00000100: 0000 0000 0000 0000 0000 0000 0000 0000
00000110: 0000 0000 0000 0000 0000 0000 0000 0000
00000120: 0000 0000 0000 0000 0000 0000 0000 0000
00000130: 0000 0000 0000 0000 0000 0000 0000 0000
0.0 0.0 0.0 0.0 0.0 0.0 0.0 0.0
0.0 0.0 0.0 0.0 0.0 0.0 0.0 0.0
0.0 0.0 0.0 0.0 0.0 0.0 0.0 0.0
0.0 0.0 0.0 0.0 0.0 0.0 0.0 0.0
0.0 0.0 0.0 0.0 0.0 0.0 0.0 0.0
0.0 0.0 0.0 0.0 0.0 0.0 0.0 0.0
0.0 0.0 0.0 0.0 0.0 0.0 0.0 0.0
0.0 0.0 0.0 0.0 0.0 0.0 0.0 0.0
0.0 0.0 0.0 0.0 0.0 0.0 0.0 0.0
0.0 0.0 0.0 0.0 0.0 0.0 0.0 0.0

arith.constant19 f4 [1, 16, 1, 48]
00000000: 0000 0000 0000 0000 0000 0000 0000 0000
00000010: 0000 0000 0000 0000 0000 0000 0000 0000
00000020: 0000 0000 0000 0000 0000 0000 0000 0000
00000030: 0000 0000 0000 0000 0000 0000 0000 0000
00000040: 0000 0000 0000 0000 0000 0000 0000 0000
00000050: 0000 0000 0000 0000 0000 0000 0000 0000
00000060: 0000 0000 0000 0000 0000 0000 0000 0000
00000070: 0000 0000 0000 0000 0000 0000 0000 0000
00000080: 0000 0000 0000 0000 0000 0000 0000 0000
00000090: 0000 0000 0000 0000 0000 0000 0000 0000
000000a0: 0000 0000 0000 0000 0000 0000 0000 0000
000000b0: 0000 0000 0000 0000 0000 0000 0000 0000
000000c0: 0000 0000 0000 0000 0000 0000 0000 0000
000000d0: 0000 0000 0000 0000 0000 0000 0000 0000
000000e0: 0000 0000 0000 0000 0000 0000 0000 0000
000000f0: 0000 0000 0000 0000 0000 0000 0000 0000
00000100: 0000 0000 0000 0000 0000 0000 0000 0000
00000110: 0000 0000 0000 0000 0000 0000 0000 0000
00000120: 0000 0000 0000 0000 0000 0000 0000 0000
00000130: 0000 0000 0000 0000 0000 0000 0000 0000
00000140: 0000 0000 0000 0000 0000 0000 0000 0000
00000150: 0000 0000 0000 0000 0000 0000 0000 0000
00000160: 0000 0000 0000 0000 0000 0000 0000 0000
00000170: 0000 0000 0000 0000 0000 0000 0000 0000
00000180: 0000 0000 0000 0000 0000 0000 0000 0000
00000190: 0000 0000 0000 0000 0000 0000 0000 0000
000001a0: 0000 0000 0000 0000 0000 0000 0000 0000
000001b0: 0000 0000 0000 0000 0000 0000 0000 0000
000001c0: 0000 0000 0000 0000 0000 0000 0000 0000
000001d0: 0000 0000 0000 0000 0000 0000 0000 0000
000001e0: 0000 0000 0000 0000 0000 0000 0000 0000
000001f0: 0000 0000 0000 0000 0000 0000 0000 0000
00000200: 0000 0000 0000 0000 0000 0000 0000 0000
00000210: 0000 0000 0000 0000 0000 0000 0000 0000
00000220: 0000 0000 0000 0000 0000 0000 0000 0000
00000230: 0000 0000 0000 0000 0000 0000 0000 0000
00000240: 0000 0000 0000 0000 0000 0000 0000 0000
00000250: 0000 0000 0000 0000 0000 0000 0000 0000
00000260: 0000 0000 0000 0000 0000 0000 0000 0000
00000270: 0000 0000 0000 0000 0000 0000 0000 0000
00000280: 0000 0000 0000 0000 0000 0000 0000 0000
00000290: 0000 0000 0000 0000 0000 0000 0000 0000
000002a0: 0000 0000 0000 0000 0000 0000 0000 0000
000002b0: 0000 0000 0000 0000 0000 0000 0000 0000
000002c0: 0000 0000 0000 0000 0000 0000 0000 0000
000002d0: 0000 0000 0000 0000 0000 0000 0000 0000
000002e0: 0000 0000 0000 0000 0000 0000 0000 0000
000002f0: 0000 0000 0000 0000 0000 0000 0000 0000
00000300: 0000 0000 0000 0000 0000 0000 0000 0000
00000310: 0000 0000 0000 0000 0000 0000 0000 0000
00000320: 0000 0000 0000 0000 0000 0000 0000 0000
00000330: 0000 0000 0000 0000 0000 0000 0000 0000
00000340: 0000 0000 0000 0000 0000 0000 0000 0000
00000350: 0000 0000 0000 0000 0000 0000 0000 0000
00000360: 0000 0000 0000 0000 0000 0000 0000 0000
00000370: 0000 0000 0000 0000 0000 0000 0000 0000
00000380: 0000 0000 0000 0000 0000 0000 0000 0000
00000390: 0000 0000 0000 0000 0000 0000 0000 0000
000003a0: 0000 0000 0000 0000 0000 0000 0000 0000
000003b0: 0000 0000 0000 0000 0000 0000 0000 0000
000003c0: 0000 0000 0000 0000 0000 0000 0000 0000
000003d0: 0000 0000 0000 0000 0000 0000 0000 0000
000003e0: 0000 0000 0000 0000 0000 0000 0000 0000
000003f0: 0000 0000 0000 0000 0000 0000 0000 0000
0.0 0.0 0.0 0.0 0.0 0.0 0.0 0.0
0.0 0.0 0.0 0.0 0.0 0.0 0.0 0.0
0.0 0.0 0.0 0.0 0.0 0.0 0.0 0.0
0.0 0.0 0.0 0.0 0.0 0.0 0.0 0.0
0.0 0.0 0.0 0.0 0.0 0.0 0.0 0.0
0.0 0.0 0.0 0.0 0.0 0.0 0.0 0.0
0.0 0.0 0.0 0.0 0.0 0.0 0.0 0.0
0.0 0.0 0.0 0.0 0.0 0.0 0.0 0.0
0.0 0.0 0.0 0.0 0.0 0.0 0.0 0.0
0.0 0.0 0.0 0.0 0.0 0.0 0.0 0.0
0.0 0.0 0.0 0.0 0.0 0.0 0.0 0.0
0.0 0.0 0.0 0.0 0.0 0.0 0.0 0.0
0.0 0.0 0.0 0.0 0.0 0.0 0.0 0.0
0.0 0.0 0.0 0.0 0.0 0.0 0.0 0.0
0.0 0.0 0.0 0.0 0.0 0.0 0.0 0.0
0.0 0.0 0.0 0.0 0.0 0.0 0.0 0.0
0.0 0.0 0.0 0.0 0.0 0.0 0.0 0.0
0.0 0.0 0.0 0.0 0.0 0.0 0.0 0.0
0.0 0.0 0.0 0.0 0.0 0.0 0.0 0.0
0.0 0.0 0.0 0.0 0.0 0.0 0.0 0.0
0.0 0.0 0.0 0.0 0.0 0.0 0.0 0.0
0.0 0.0 0.0 0.0 0.0 0.0 0.0 0.0
0.0 0.0 0.0 0.0 0.0 0.0 0.0 0.0
0.0 0.0 0.0 0.0 0.0 0.0 0.0 0.0
0.0 0.0 0.0 0.0 0.0 0.0 0.0 0.0
0.0 0.0 0.0 0.0 0.0 0.0 0.0 0.0
0.0 0.0 0.0 0.0 0.0 0.0 0.0 0.0
0.0 0.0 0.0 0.0 0.0 0.0 0.0 0.0
0.0 0.0 0.0 0.0 0.0 0.0 0.0 0.0
0.0 0.0 0.0 0.0 0.0 0.0 0.0 0.0
0.0 0.0 0.0 0.0 0.0 0.0 0.0 0.0
0.0 0.0 0.0 0.0 0.0 0.0 0.0 0.0

arith.constant20 f4 [1, 8, 1, 48]
00000000: 0000 0000 0000 0000 0000 0000 0000 0000
00000010: 0000 0000 0000 0000 0000 0000 0000 0000
00000020: 0000 0000 0000 0000 0000 0000 0000 0000
00000030: 0000 0000 0000 0000 0000 0000 0000 0000
00000040: 0000 0000 0000 0000 0000 0000 0000 0000
00000050: 0000 0000 0000 0000 0000 0000 0000 0000
00000060: 0000 0000 0000 0000 0000 0000 0000 0000
00000070: 0000 0000 0000 0000 0000 0000 0000 0000
00000080: 0000 0000 0000 0000 0000 0000 0000 0000
00000090: 0000 0000 0000 0000 0000 0000 0000 0000
000000a0: 0000 0000 0000 0000 0000 0000 0000 0000
000000b0: 0000 0000 0000 0000 0000 0000 0000 0000
000000c0: 0000 0000 0000 0000 0000 0000 0000 0000
000000d0: 0000 0000 0000 0000 0000 0000 0000 0000
000000e0: 0000 0000 0000 0000 0000 0000 0000 0000
000000f0: 0000 0000 0000 0000 0000 0000 0000 0000
00000100: 0000 0000 0000 0000 0000 0000 0000 0000
00000110: 0000 0000 0000 0000 0000 0000 0000 0000
00000120: 0000 0000 0000 0000 0000 0000 0000 0000
00000130: 0000 0000 0000 0000 0000 0000 0000 0000
00000140: 0000 0000 0000 0000 0000 0000 0000 0000
00000150: 0000 0000 0000 0000 0000 0000 0000 0000
00000160: 0000 0000 0000 0000 0000 0000 0000 0000
00000170: 0000 0000 0000 0000 0000 0000 0000 0000
00000180: 0000 0000 0000 0000 0000 0000 0000 0000
00000190: 0000 0000 0000 0000 0000 0000 0000 0000
000001a0: 0000 0000 0000 0000 0000 0000 0000 0000
000001b0: 0000 0000 0000 0000 0000 0000 0000 0000
000001c0: 0000 0000 0000 0000 0000 0000 0000 0000
000001d0: 0000 0000 0000 0000 0000 0000 0000 0000
000001e0: 0000 0000 0000 0000 0000 0000 0000 0000
000001f0: 0000 0000 0000 0000 0000 0000 0000 0000
00000200: 0000 0000 0000 0000 0000 0000 0000 0000
00000210: 0000 0000 0000 0000 0000 0000 0000 0000
00000220: 0000 0000 0000 0000 0000 0000 0000 0000
00000230: 0000 0000 0000 0000 0000 0000 0000 0000
00000240: 0000 0000 0000 0000 0000 0000 0000 0000
00000250: 0000 0000 0000 0000 0000 0000 0000 0000
00000260: 0000 0000 0000 0000 0000 0000 0000 0000
00000270: 0000 0000 0000 0000 0000 0000 0000 0000
00000280: 0000 0000 0000 0000 0000 0000 0000 0000
00000290: 0000 0000 0000 0000 0000 0000 0000 0000
000002a0: 0000 0000 0000 0000 0000 0000 0000 0000
000002b0: 0000 0000 0000 0000 0000 0000 0000 0000
000002c0: 0000 0000 0000 0000 0000 0000 0000 0000
000002d0: 0000 0000 0000 0000 0000 0000 0000 0000
000002e0: 0000 0000 0000 0000 0000 0000 0000 0000
000002f0: 0000 0000 0000 0000 0000 0000 0000 0000
00000300: 0000 0000 0000 0000 0000 0000 0000 0000
00000310: 0000 0000 0000 0000 0000 0000 0000 0000
00000320: 0000 0000 0000 0000 0000 0000 0000 0000
00000330: 0000 0000 0000 0000 0000 0000 0000 0000
00000340: 0000 0000 0000 0000 0000 0000 0000 0000
00000350: 0000 0000 0000 0000 0000 0000 0000 0000
00000360: 0000 0000 0000 0000 0000 0000 0000 0000
00000370: 0000 0000 0000 0000 0000 0000 0000 0000
00000380: 0000 0000 0000 0000 0000 0000 0000 0000
00000390: 0000 0000 0000 0000 0000 0000 0000 0000
000003a0: 0000 0000 0000 0000 0000 0000 0000 0000
000003b0: 0000 0000 0000 0000 0000 0000 0000 0000
000003c0: 0000 0000 0000 0000 0000 0000 0000 0000
000003d0: 0000 0000 0000 0000 0000 0000 0000 0000
000003e0: 0000 0000 0000 0000 0000 0000 0000 0000
000003f0: 0000 0000 0000 0000 0000 0000 0000 0000
0.0 0.0 0.0 0.0 0.0 0.0 0.0 0.0
0.0 0.0 0.0 0.0 0.0 0.0 0.0 0.0
0.0 0.0 0.0 0.0 0.0 0.0 0.0 0.0
0.0 0.0 0.0 0.0 0.0 0.0 0.0 0.0
0.0 0.0 0.0 0.0 0.0 0.0 0.0 0.0
0.0 0.0 0.0 0.0 0.0 0.0 0.0 0.0
0.0 0.0 0.0 0.0 0.0 0.0 0.0 0.0
0.0 0.0 0.0 0.0 0.0 0.0 0.0 0.0
0.0 0.0 0.0 0.0 0.0 0.0 0.0 0.0
0.0 0.0 0.0 0.0 0.0 0.0 0.0 0.0
0.0 0.0 0.0 0.0 0.0 0.0 0.0 0.0
0.0 0.0 0.0 0.0 0.0 0.0 0.0 0.0
0.0 0.0 0.0 0.0 0.0 0.0 0.0 0.0
0.0 0.0 0.0 0.0 0.0 0.0 0.0 0.0
0.0 0.0 0.0 0.0 0.0 0.0 0.0 0.0
0.0 0.0 0.0 0.0 0.0 0.0 0.0 0.0
0.0 0.0 0.0 0.0 0.0 0.0 0.0 0.0
0.0 0.0 0.0 0.0 0.0 0.0 0.0 0.0
0.0 0.0 0.0 0.0 0.0 0.0 0.0 0.0
0.0 0.0 0.0 0.0 0.0 0.0 0.0 0.0
0.0 0.0 0.0 0.0 0.0 0.0 0.0 0.0
0.0 0.0 0.0 0.0 0.0 0.0 0.0 0.0
0.0 0.0 0.0 0.0 0.0 0.0 0.0 0.0
0.0 0.0 0.0 0.0 0.0 0.0 0.0 0.0
0.0 0.0 0.0 0.0 0.0 0.0 0.0 0.0
0.0 0.0 0.0 0.0 0.0 0.0 0.0 0.0
0.0 0.0 0.0 0.0 0.0 0.0 0.0 0.0
0.0 0.0 0.0 0.0 0.0 0.0 0.0 0.0
0.0 0.0 0.0 0.0 0.0 0.0 0.0 0.0
0.0 0.0 0.0 0.0 0.0 0.0 0.0 0.0
0.0 0.0 0.0 0.0 0.0 0.0 0.0 0.0
0.0 0.0 0.0 0.0 0.0 0.0 0.0 0.0
